…
I0219 11:04:28.432124 18685 net.cpp:268] The NetState phase (0) differed from the phase (1) specified by a rule in layer loss
I0219 11:04:28.432396 18685 net.cpp:52] Initializing net from parameters: 
name: "TORCS_Net"
state {
  phase: TRAIN
}
layer {
  name: "data"
  type: "DataLstmTrainHist"
  top: "data"
  top: "label"
  top: "hist"
  top: "marker"
  include {
    phase: TRAIN
  }
  data_lstm_train_hist_param {
    source: "nonparametric/data/TORCS_smooth_np_train"
    sequence_size: 8
    sequence_num: 16
    interval: 200
    mean_file: "nonparametric/data/TORCS_smooth_np_train_mean.binaryproto"
  }
}
layer {
  name: "conv1"
  type: "Convolution"
  bottom: "data"
  top: "conv1"
  param {
    lr_mult: 1
    decay_mult: 1
  }
  param {
    lr_mult: 2
    decay_mult: 0
  }
  convolution_param {
    num_output: 96
    kernel_size: 11
    stride: 4
    weight_filler {
      type: "gaussian"
      std: 0.01
    }
    bias_filler {
      type: "constant"
      value: 0
    }
  }
}
layer {
  name: "nprelu1"
  type: "NonParaReLU"
  bottom: "conv1"
  top: "conv1"
}
layer {
  name: "pool1"
  type: "Pooling"
  bottom: "conv1"
  top: "pool1"
  pooling_param {
    pool: MAX
    kernel_size: 3
    stride: 2
  }
}
layer {
  name: "norm1"
  type: "LRN"
  bottom: "pool1"
  top: "norm1"
  lrn_param {
    local_size: 5
    alpha: 0.0001
    beta: 0.75
  }
}
layer {
  name: "conv2"
  type: "Convolution"
  bottom: "norm1"
  top: "conv2"
  param {
    lr_mult: 1
    decay_mult: 1
  }
  param {
    lr_mult: 2
    decay_mult: 0
  }
  convolution_param {
    num_output: 256
    pad: 2
    kernel_size: 5
    group: 2
    weight_filler {
      type: "gaussian"
      std: 0.01
    }
    bias_filler {
      type: "constant"
      value: 1
    }
  }
}
layer {
  name: "nprelu2"
  type: "NonParaReLU"
  bottom: "conv2"
  top: "conv2"
}
layer {
  name: "pool2"
  type: "Pooling"
  bottom: "conv2"
  top: "pool2"
  pooling_param {
    pool: MAX
    kernel_size: 3
    stride: 2
  }
}
layer {
  name: "norm2"
  type: "LRN"
  bottom: "pool2"
  top: "norm2"
  lrn_param {
    local_size: 5
    alpha: 0.0001
    beta: 0.75
  }
}
layer {
  name: "conv3"
  type: "Convolution"
  bottom: "norm2"
  top: "conv3"
  param {
    lr_mult: 1
    decay_mult: 1
  }
  param {
    lr_mult: 2
    decay_mult: 0
  }
  convolution_param {
    num_output: 384
    pad: 1
    kernel_size: 3
    weight_filler {
      type: "gaussian"
      std: 0.01
    }
    bias_filler {
      type: "constant"
      value: 0
    }
  }
}
layer {
  name: "nprelu3"
  type: "NonParaReLU"
  bottom: "conv3"
  top: "conv3"
}
layer {
  name: "conv4"
  type: "Convolution"
  bottom: "conv3"
  top: "conv4"
  param {
    lr_mult: 1
    decay_mult: 1
  }
  param {
    lr_mult: 2
    decay_mult: 0
  }
  convolution_param {
    num_output: 384
    pad: 1
    kernel_size: 3
    group: 2
    weight_filler {
      type: "gaussian"
      std: 0.01
    }
    bias_filler {
      type: "constant"
      value: 1
    }
  }
}
layer {
  name: "nprelu4"
  type: "NonParaReLU"
  bottom: "conv4"
  top: "conv4"
}
layer {
  name: "conv5"
  type: "Convolution"
  bottom: "conv4"
  top: "conv5"
  param {
    lr_mult: 1
    decay_mult: 1
  }
  param {
    lr_mult: 2
    decay_mult: 0
  }
  convolution_param {
    num_output: 256
    pad: 1
    kernel_size: 3
    group: 2
    weight_filler {
      type: "gaussian"
      std: 0.01
    }
    bias_filler {
      type: "constant"
      value: 1
    }
  }
}
layer {
  name: "nprelu5"
  type: "NonParaReLU"
  bottom: "conv5"
  top: "conv5"
}
layer {
  name: "pool5"
  type: "Pooling"
  bottom: "conv5"
  top: "pool5"
  pooling_param {
    pool: MAX
    kernel_size: 3
    stride: 2
  }
}
layer {
  name: "fc6"
  type: "InnerProduct"
  bottom: "pool5"
  top: "fc6"
  param {
    lr_mult: 1
    decay_mult: 1
  }
  param {
    lr_mult: 2
    decay_mult: 0
  }
  inner_product_param {
    num_output: 4096
    weight_filler {
      type: "gaussian"
      std: 0.005
    }
    bias_filler {
      type: "constant"
      value: 1
    }
  }
}
layer {
  name: "nprelu6"
  type: "NonParaReLU"
  bottom: "fc6"
  top: "fc6"
}
layer {
  name: "drop6"
  type: "Dropout"
  bottom: "fc6"
  top: "fc6"
  dropout_param {
    dropout_ratio: 0.5
  }
}
layer {
  name: "reshape-fc6"
  type: "Reshape"
  bottom: "fc6"
  top: "reshape-fc6"
  reshape_param {
    shape {
      dim: 8
      dim: 16
      dim: 4096
    }
  }
}
layer {
  name: "reshape-label"
  type: "Reshape"
  bottom: "label"
  top: "reshape-label"
  reshape_param {
    shape {
      dim: 8
      dim: 16
      dim: 14
    }
  }
}
layer {
  name: "reshape-hist"
  type: "Reshape"
  bottom: "hist"
  top: "reshape-hist"
  reshape_param {
    shape {
      dim: 8
      dim: 16
      dim: 14
    }
  }
}
layer {
  name: "reshape-marker"
  type: "Reshape"
  bottom: "marker"
  top: "reshape-marker"
  reshape_param {
    shape {
      dim: 8
      dim: 16
    }
  }
}
layer {
  name: "lstm1"
  type: "LSTM"
  bottom: "reshape-hist"
  bottom: "reshape-marker"
  top: "lstm1"
  recurrent_param {
    num_output: 128
    weight_filler {
      type: "uniform"
      min: -0.01
      max: 0.01
    }
    bias_filler {
      type: "constant"
      value: 0
    }
  }
}
layer {
  name: "lstm1-drop"
  type: "Dropout"
  bottom: "lstm1"
  top: "lstm1"
  dropout_param {
    dropout_ratio: 0.5
  }
}
layer {
  name: "concat"
  type: "Concat"
  bottom: "reshape-fc6"
  bottom: "lstm1"
  top: "concat-data"
  concat_param {
    axis: 2
  }
}
layer {
  name: "lstm2"
  type: "LSTM"
  bottom: "concat-data"
  bottom: "reshape-marker"
  top: "lstm2"
  recurrent_param {
    num_output: 2048
    weight_filler {
      type: "uniform"
      min: -0.01
      max: 0.01
    }
    bias_filler {
      type: "constant"
      value: 0
    }
  }
}
layer {
  name: "lstm2-drop"
  type: "Dropout"
  bottom: "lstm2"
  top: "lstm2"
  dropout_param {
    dropout_ratio: 0.5
  }
}
layer {
  name: "fc9c"
  type: "InnerProduct"
  bottom: "lstm2"
  top: "fc9c"
  param {
    lr_mult: 1
    decay_mult: 1
  }
  param {
    lr_mult: 2
    decay_mult: 0
  }
  inner_product_param {
    num_output: 14
    weight_filler {
      type: "gaussian"
      std: 0.01
    }
    bias_filler {
      type: "constant"
      value: 0
    }
    axis: 2
  }
}
layer {
  name: "relu9"
  type: "Sigmoid"
  bottom: "fc9c"
  top: "fc9c"
}
layer {
  name: "loss"
  type: "EuclideanLossDriving"
  bottom: "fc9c"
  bottom: "reshape-label"
  top: "loss"
  include {
    phase: TRAIN
  }
}
I0219 11:04:28.432649 18685 layer_factory.hpp:74] Creating layer data
I0219 11:04:28.432684 18685 net.cpp:94] Creating Layer data
I0219 11:04:28.432698 18685 net.cpp:349] data -> data
I0219 11:04:28.432737 18685 net.cpp:349] data -> label
I0219 11:04:28.432762 18685 net.cpp:349] data -> hist
I0219 11:04:28.432780 18685 net.cpp:349] data -> marker
I0219 11:04:28.432796 18685 net.cpp:123] Setting up data
I0219 11:04:28.432832 18685 data_lstm_train_hist_layer.cpp:50] Opening leveldb nonparametric/data/TORCS_smooth_np_train
I0219 11:04:28.435009 18685 data_lstm_train_hist_layer.cpp:90] output data size: 128,3,210,280
I0219 11:04:28.435024 18685 data_lstm_train_hist_layer.cpp:107] Loading mean file from: nonparametric/data/TORCS_smooth_np_train_mean.binaryproto
I0219 11:04:28.464097 18685 net.cpp:130] Top shape: 128 3 210 280 (22579200)
I0219 11:04:28.464112 18685 net.cpp:130] Top shape: 128 1 1 14 (1792)
I0219 11:04:28.464123 18685 net.cpp:130] Top shape: 128 1 1 14 (1792)
I0219 11:04:28.464133 18685 net.cpp:130] Top shape: 128 1 1 1 (128)
I0219 11:04:28.464165 18685 layer_factory.hpp:74] Creating layer conv1
I0219 11:04:28.464200 18685 net.cpp:94] Creating Layer conv1
I0219 11:04:28.464211 18685 net.cpp:391] conv1 <- data
I0219 11:04:28.464232 18685 net.cpp:349] conv1 -> conv1
I0219 11:04:28.464256 18685 net.cpp:123] Setting up conv1
I0219 11:04:28.465538 18685 net.cpp:130] Top shape: 128 96 50 68 (41779200)
I0219 11:04:28.465566 18685 layer_factory.hpp:74] Creating layer nprelu1
I0219 11:04:28.465598 18685 net.cpp:94] Creating Layer nprelu1
I0219 11:04:28.465607 18685 net.cpp:391] nprelu1 <- conv1
I0219 11:04:28.465618 18685 net.cpp:338] nprelu1 -> conv1 (in-place)
I0219 11:04:28.465631 18685 net.cpp:123] Setting up nprelu1
I0219 11:04:28.465919 18685 net.cpp:130] Top shape: 128 96 50 68 (41779200)
I0219 11:04:28.465935 18685 layer_factory.hpp:74] Creating layer pool1
I0219 11:04:28.465947 18685 net.cpp:94] Creating Layer pool1
I0219 11:04:28.465971 18685 net.cpp:391] pool1 <- conv1
I0219 11:04:28.465983 18685 net.cpp:349] pool1 -> pool1
I0219 11:04:28.465996 18685 net.cpp:123] Setting up pool1
I0219 11:04:28.466027 18685 net.cpp:130] Top shape: 128 96 25 34 (10444800)
I0219 11:04:28.466035 18685 layer_factory.hpp:74] Creating layer norm1
I0219 11:04:28.466050 18685 net.cpp:94] Creating Layer norm1
I0219 11:04:28.466060 18685 net.cpp:391] norm1 <- pool1
I0219 11:04:28.466070 18685 net.cpp:349] norm1 -> norm1
I0219 11:04:28.466096 18685 net.cpp:123] Setting up norm1
I0219 11:04:28.466114 18685 net.cpp:130] Top shape: 128 96 25 34 (10444800)
I0219 11:04:28.466123 18685 layer_factory.hpp:74] Creating layer conv2
I0219 11:04:28.466135 18685 net.cpp:94] Creating Layer conv2
I0219 11:04:28.466158 18685 net.cpp:391] conv2 <- norm1
I0219 11:04:28.466171 18685 net.cpp:349] conv2 -> conv2
I0219 11:04:28.466184 18685 net.cpp:123] Setting up conv2
I0219 11:04:28.474459 18685 net.cpp:130] Top shape: 128 256 25 34 (27852800)
I0219 11:04:28.474478 18685 layer_factory.hpp:74] Creating layer nprelu2
I0219 11:04:28.474489 18685 net.cpp:94] Creating Layer nprelu2
I0219 11:04:28.474498 18685 net.cpp:391] nprelu2 <- conv2
I0219 11:04:28.474508 18685 net.cpp:338] nprelu2 -> conv2 (in-place)
I0219 11:04:28.474514 18685 net.cpp:123] Setting up nprelu2
I0219 11:04:28.474898 18685 net.cpp:130] Top shape: 128 256 25 34 (27852800)
I0219 11:04:28.474910 18685 layer_factory.hpp:74] Creating layer pool2
I0219 11:04:28.474916 18685 net.cpp:94] Creating Layer pool2
I0219 11:04:28.474921 18685 net.cpp:391] pool2 <- conv2
I0219 11:04:28.474928 18685 net.cpp:349] pool2 -> pool2
I0219 11:04:28.474937 18685 net.cpp:123] Setting up pool2
I0219 11:04:28.474946 18685 net.cpp:130] Top shape: 128 256 12 17 (6684672)
I0219 11:04:28.474951 18685 layer_factory.hpp:74] Creating layer norm2
I0219 11:04:28.474972 18685 net.cpp:94] Creating Layer norm2
I0219 11:04:28.474978 18685 net.cpp:391] norm2 <- pool2
I0219 11:04:28.474984 18685 net.cpp:349] norm2 -> norm2
I0219 11:04:28.474990 18685 net.cpp:123] Setting up norm2
I0219 11:04:28.474997 18685 net.cpp:130] Top shape: 128 256 12 17 (6684672)
I0219 11:04:28.475003 18685 layer_factory.hpp:74] Creating layer conv3
I0219 11:04:28.475009 18685 net.cpp:94] Creating Layer conv3
I0219 11:04:28.475015 18685 net.cpp:391] conv3 <- norm2
I0219 11:04:28.475023 18685 net.cpp:349] conv3 -> conv3
I0219 11:04:28.475029 18685 net.cpp:123] Setting up conv3
I0219 11:04:28.497319 18685 net.cpp:130] Top shape: 128 384 12 17 (10027008)
I0219 11:04:28.497334 18685 layer_factory.hpp:74] Creating layer nprelu3
I0219 11:04:28.497342 18685 net.cpp:94] Creating Layer nprelu3
I0219 11:04:28.497347 18685 net.cpp:391] nprelu3 <- conv3
I0219 11:04:28.497354 18685 net.cpp:338] nprelu3 -> conv3 (in-place)
I0219 11:04:28.497359 18685 net.cpp:123] Setting up nprelu3
I0219 11:04:28.497479 18685 net.cpp:130] Top shape: 128 384 12 17 (10027008)
I0219 11:04:28.497491 18685 layer_factory.hpp:74] Creating layer conv4
I0219 11:04:28.497524 18685 net.cpp:94] Creating Layer conv4
I0219 11:04:28.497530 18685 net.cpp:391] conv4 <- conv3
I0219 11:04:28.497539 18685 net.cpp:349] conv4 -> conv4
I0219 11:04:28.497575 18685 net.cpp:123] Setting up conv4
I0219 11:04:28.514555 18685 net.cpp:130] Top shape: 128 384 12 17 (10027008)
I0219 11:04:28.514572 18685 layer_factory.hpp:74] Creating layer nprelu4
I0219 11:04:28.514583 18685 net.cpp:94] Creating Layer nprelu4
I0219 11:04:28.514611 18685 net.cpp:391] nprelu4 <- conv4
I0219 11:04:28.514637 18685 net.cpp:338] nprelu4 -> conv4 (in-place)
I0219 11:04:28.514648 18685 net.cpp:123] Setting up nprelu4
I0219 11:04:28.514792 18685 net.cpp:130] Top shape: 128 384 12 17 (10027008)
I0219 11:04:28.514808 18685 layer_factory.hpp:74] Creating layer conv5
I0219 11:04:28.514822 18685 net.cpp:94] Creating Layer conv5
I0219 11:04:28.514845 18685 net.cpp:391] conv5 <- conv4
I0219 11:04:28.514860 18685 net.cpp:349] conv5 -> conv5
I0219 11:04:28.514886 18685 net.cpp:123] Setting up conv5
I0219 11:04:28.526047 18685 net.cpp:130] Top shape: 128 256 12 17 (6684672)
I0219 11:04:28.526064 18685 layer_factory.hpp:74] Creating layer nprelu5
I0219 11:04:28.526077 18685 net.cpp:94] Creating Layer nprelu5
I0219 11:04:28.526113 18685 net.cpp:391] nprelu5 <- conv5
I0219 11:04:28.526124 18685 net.cpp:338] nprelu5 -> conv5 (in-place)
I0219 11:04:28.526135 18685 net.cpp:123] Setting up nprelu5
I0219 11:04:28.526196 18685 net.cpp:130] Top shape: 128 256 12 17 (6684672)
I0219 11:04:28.526211 18685 layer_factory.hpp:74] Creating layer pool5
I0219 11:04:28.526222 18685 net.cpp:94] Creating Layer pool5
I0219 11:04:28.526245 18685 net.cpp:391] pool5 <- conv5
I0219 11:04:28.526309 18685 net.cpp:349] pool5 -> pool5
I0219 11:04:28.526322 18685 net.cpp:123] Setting up pool5
I0219 11:04:28.526351 18685 net.cpp:130] Top shape: 128 256 6 8 (1572864)
I0219 11:04:28.526360 18685 layer_factory.hpp:74] Creating layer fc6
I0219 11:04:28.526381 18685 net.cpp:94] Creating Layer fc6
I0219 11:04:28.526389 18685 net.cpp:391] fc6 <- pool5
I0219 11:04:28.526407 18685 net.cpp:349] fc6 -> fc6
I0219 11:04:28.526427 18685 net.cpp:123] Setting up fc6
I0219 11:04:29.775866 18685 net.cpp:130] Top shape: 128 4096 (524288)
I0219 11:04:29.775966 18685 layer_factory.hpp:74] Creating layer nprelu6
I0219 11:04:29.776041 18685 net.cpp:94] Creating Layer nprelu6
I0219 11:04:29.776054 18685 net.cpp:391] nprelu6 <- fc6
I0219 11:04:29.776070 18685 net.cpp:338] nprelu6 -> fc6 (in-place)
I0219 11:04:29.776088 18685 net.cpp:123] Setting up nprelu6
I0219 11:04:29.776155 18685 net.cpp:130] Top shape: 128 4096 (524288)
I0219 11:04:29.776171 18685 layer_factory.hpp:74] Creating layer drop6
I0219 11:04:29.776193 18685 net.cpp:94] Creating Layer drop6
I0219 11:04:29.776203 18685 net.cpp:391] drop6 <- fc6
I0219 11:04:29.776216 18685 net.cpp:338] drop6 -> fc6 (in-place)
I0219 11:04:29.776253 18685 net.cpp:123] Setting up drop6
I0219 11:04:29.776316 18685 net.cpp:130] Top shape: 128 4096 (524288)
I0219 11:04:29.776340 18685 layer_factory.hpp:74] Creating layer reshape-fc6
I0219 11:04:29.776357 18685 net.cpp:94] Creating Layer reshape-fc6
I0219 11:04:29.776367 18685 net.cpp:391] reshape-fc6 <- fc6
I0219 11:04:29.776382 18685 net.cpp:349] reshape-fc6 -> reshape-fc6
I0219 11:04:29.776402 18685 net.cpp:123] Setting up reshape-fc6
I0219 11:04:29.776427 18685 net.cpp:130] Top shape: 8 16 4096 (524288)
I0219 11:04:29.776438 18685 layer_factory.hpp:74] Creating layer reshape-label
I0219 11:04:29.776449 18685 net.cpp:94] Creating Layer reshape-label
I0219 11:04:29.776471 18685 net.cpp:391] reshape-label <- label
I0219 11:04:29.776487 18685 net.cpp:349] reshape-label -> reshape-label
I0219 11:04:29.776518 18685 net.cpp:123] Setting up reshape-label
I0219 11:04:29.776535 18685 net.cpp:130] Top shape: 8 16 14 (1792)
I0219 11:04:29.776559 18685 layer_factory.hpp:74] Creating layer reshape-hist
I0219 11:04:29.776572 18685 net.cpp:94] Creating Layer reshape-hist
I0219 11:04:29.776581 18685 net.cpp:391] reshape-hist <- hist
I0219 11:04:29.776594 18685 net.cpp:349] reshape-hist -> reshape-hist
I0219 11:04:29.776608 18685 net.cpp:123] Setting up reshape-hist
I0219 11:04:29.776623 18685 net.cpp:130] Top shape: 8 16 14 (1792)
I0219 11:04:29.776633 18685 layer_factory.hpp:74] Creating layer reshape-marker
I0219 11:04:29.776677 18685 net.cpp:94] Creating Layer reshape-marker
I0219 11:04:29.776687 18685 net.cpp:391] reshape-marker <- marker
I0219 11:04:29.776710 18685 net.cpp:349] reshape-marker -> reshape-marker
I0219 11:04:29.776723 18685 net.cpp:123] Setting up reshape-marker
I0219 11:04:29.776736 18685 net.cpp:130] Top shape: 8 16 (128)
I0219 11:04:29.776746 18685 layer_factory.hpp:74] Creating layer reshape-marker_reshape-marker_0_split
I0219 11:04:29.776768 18685 net.cpp:94] Creating Layer reshape-marker_reshape-marker_0_split
I0219 11:04:29.776777 18685 net.cpp:391] reshape-marker_reshape-marker_0_split <- reshape-marker
I0219 11:04:29.776788 18685 net.cpp:349] reshape-marker_reshape-marker_0_split -> reshape-marker_reshape-marker_0_split_0
I0219 11:04:29.776803 18685 net.cpp:349] reshape-marker_reshape-marker_0_split -> reshape-marker_reshape-marker_0_split_1
I0219 11:04:29.776818 18685 net.cpp:123] Setting up reshape-marker_reshape-marker_0_split
I0219 11:04:29.776834 18685 net.cpp:130] Top shape: 8 16 (128)
I0219 11:04:29.776846 18685 net.cpp:130] Top shape: 8 16 (128)
I0219 11:04:29.776854 18685 layer_factory.hpp:74] Creating layer lstm1
I0219 11:04:29.776885 18685 net.cpp:94] Creating Layer lstm1
I0219 11:04:29.776895 18685 net.cpp:391] lstm1 <- reshape-hist
I0219 11:04:29.776903 18685 net.cpp:391] lstm1 <- reshape-marker_reshape-marker_0_split_0
I0219 11:04:29.776927 18685 net.cpp:349] lstm1 -> lstm1
I0219 11:04:29.776942 18685 net.cpp:123] Setting up lstm1
I0219 11:04:29.776965 18685 recurrent_layer.cpp:27] Initializing recurrent layer: assuming input batch contains 8 timesteps of 16 independent streams.
I0219 11:04:29.777540 18685 net.cpp:52] Initializing net from parameters: 
input: "x"
input: "cont"
input: "c_0"
input: "h_0"
force_backward: true
input_shape {
  dim: 8
  dim: 16
  dim: 14
}
input_shape {
  dim: 1
  dim: 8
  dim: 16
}
input_shape {
  dim: 1
  dim: 16
  dim: 128
}
input_shape {
  dim: 1
  dim: 16
  dim: 128
}
layer {
  name: "lstm1_cont_slice"
  type: "Slice"
  bottom: "cont"
  top: "cont_1"
  top: "cont_2"
  top: "cont_3"
  top: "cont_4"
  top: "cont_5"
  top: "cont_6"
  top: "cont_7"
  top: "cont_8"
  slice_param {
    axis: 1
  }
}
layer {
  name: "lstm1_x_transform"
  type: "InnerProduct"
  bottom: "x"
  top: "W_xc_x"
  param {
    name: "W_xc"
  }
  param {
    name: "b_c"
  }
  inner_product_param {
    num_output: 512
    bias_term: true
    weight_filler {
      type: "uniform"
      min: -0.01
      max: 0.01
    }
    bias_filler {
      type: "constant"
      value: 0
    }
    axis: 2
  }
}
layer {
  name: "lstm1_W_xc_x_slice"
  type: "Slice"
  bottom: "W_xc_x"
  top: "W_xc_x_1"
  top: "W_xc_x_2"
  top: "W_xc_x_3"
  top: "W_xc_x_4"
  top: "W_xc_x_5"
  top: "W_xc_x_6"
  top: "W_xc_x_7"
  top: "W_xc_x_8"
  slice_param {
    axis: 0
  }
}
layer {
  name: "lstm1_h_conted_0"
  type: "Eltwise"
  bottom: "h_0"
  bottom: "cont_1"
  top: "h_conted_0"
  eltwise_param {
    operation: SUM
    coeff_blob: true
  }
}
layer {
  name: "lstm1_transform_1"
  type: "InnerProduct"
  bottom: "h_conted_0"
  top: "W_hc_h_0"
  param {
    name: "W_hc"
  }
  inner_product_param {
    num_output: 512
    bias_term: false
    weight_filler {
      type: "uniform"
      min: -0.01
      max: 0.01
    }
    axis: 2
  }
}
layer {
  name: "lstm1_gate_input_1"
  type: "Eltwise"
  bottom: "W_hc_h_0"
  bottom: "W_xc_x_1"
  top: "gate_input_1"
  eltwise_param {
    operation: SUM
  }
}
layer {
  name: "lstm1_unit_1"
  type: "LSTMUnit"
  bottom: "c_0"
  bottom: "gate_input_1"
  bottom: "cont_1"
  top: "c_1"
  top: "h_1"
}
layer {
  name: "lstm1_h_conted_1"
  type: "Eltwise"
  bottom: "h_1"
  bottom: "cont_2"
  top: "h_conted_1"
  eltwise_param {
    operation: SUM
    coeff_blob: true
  }
}
layer {
  name: "lstm1_transform_2"
  type: "InnerProduct"
  bottom: "h_conted_1"
  top: "W_hc_h_1"
  param {
    name: "W_hc"
  }
  inner_product_param {
    num_output: 512
    bias_term: false
    weight_filler {
      type: "uniform"
      min: -0.01
      max: 0.01
    }
    axis: 2
  }
}
layer {
  name: "lstm1_gate_input_2"
  type: "Eltwise"
  bottom: "W_hc_h_1"
  bottom: "W_xc_x_2"
  top: "gate_input_2"
  eltwise_param {
    operation: SUM
  }
}
layer {
  name: "lstm1_unit_2"
  type: "LSTMUnit"
  bottom: "c_1"
  bottom: "gate_input_2"
  bottom: "cont_2"
  top: "c_2"
  top: "h_2"
}
layer {
  name: "lstm1_h_conted_2"
  type: "Eltwise"
  bottom: "h_2"
  bottom: "cont_3"
  top: "h_conted_2"
  eltwise_param {
    operation: SUM
    coeff_blob: true
  }
}
layer {
  name: "lstm1_transform_3"
  type: "InnerProduct"
  bottom: "h_conted_2"
  top: "W_hc_h_2"
  param {
    name: "W_hc"
  }
  inner_product_param {
    num_output: 512
    bias_term: false
    weight_filler {
      type: "uniform"
      min: -0.01
      max: 0.01
    }
    axis: 2
  }
}
layer {
  name: "lstm1_gate_input_3"
  type: "Eltwise"
  bottom: "W_hc_h_2"
  bottom: "W_xc_x_3"
  top: "gate_input_3"
  eltwise_param {
    operation: SUM
  }
}
layer {
  name: "lstm1_unit_3"
  type: "LSTMUnit"
  bottom: "c_2"
  bottom: "gate_input_3"
  bottom: "cont_3"
  top: "c_3"
  top: "h_3"
}
layer {
  name: "lstm1_h_conted_3"
  type: "Eltwise"
  bottom: "h_3"
  bottom: "cont_4"
  top: "h_conted_3"
  eltwise_param {
    operation: SUM
    coeff_blob: true
  }
}
layer {
  name: "lstm1_transform_4"
  type: "InnerProduct"
  bottom: "h_conted_3"
  top: "W_hc_h_3"
  param {
    name: "W_hc"
  }
  inner_product_param {
    num_output: 512
    bias_term: false
    weight_filler {
      type: "uniform"
      min: -0.01
      max: 0.01
    }
    axis: 2
  }
}
layer {
  name: "lstm1_gate_input_4"
  type: "Eltwise"
  bottom: "W_hc_h_3"
  bottom: "W_xc_x_4"
  top: "gate_input_4"
  eltwise_param {
    operation: SUM
  }
}
layer {
  name: "lstm1_unit_4"
  type: "LSTMUnit"
  bottom: "c_3"
  bottom: "gate_input_4"
  bottom: "cont_4"
  top: "c_4"
  top: "h_4"
}
layer {
  name: "lstm1_h_conted_4"
  type: "Eltwise"
  bottom: "h_4"
  bottom: "cont_5"
  top: "h_conted_4"
  eltwise_param {
    operation: SUM
    coeff_blob: true
  }
}
layer {
  name: "lstm1_transform_5"
  type: "InnerProduct"
  bottom: "h_conted_4"
  top: "W_hc_h_4"
  param {
    name: "W_hc"
  }
  inner_product_param {
    num_output: 512
    bias_term: false
    weight_filler {
      type: "uniform"
      min: -0.01
      max: 0.01
    }
    axis: 2
  }
}
layer {
  name: "lstm1_gate_input_5"
  type: "Eltwise"
  bottom: "W_hc_h_4"
  bottom: "W_xc_x_5"
  top: "gate_input_5"
  eltwise_param {
    operation: SUM
  }
}
layer {
  name: "lstm1_unit_5"
  type: "LSTMUnit"
  bottom: "c_4"
  bottom: "gate_input_5"
  bottom: "cont_5"
  top: "c_5"
  top: "h_5"
}
layer {
  name: "lstm1_h_conted_5"
  type: "Eltwise"
  bottom: "h_5"
  bottom: "cont_6"
  top: "h_conted_5"
  eltwise_param {
    operation: SUM
    coeff_blob: true
  }
}
layer {
  name: "lstm1_transform_6"
  type: "InnerProduct"
  bottom: "h_conted_5"
  top: "W_hc_h_5"
  param {
    name: "W_hc"
  }
  inner_product_param {
    num_output: 512
    bias_term: false
    weight_filler {
      type: "uniform"
      min: -0.01
      max: 0.01
    }
    axis: 2
  }
}
layer {
  name: "lstm1_gate_input_6"
  type: "Eltwise"
  bottom: "W_hc_h_5"
  bottom: "W_xc_x_6"
  top: "gate_input_6"
  eltwise_param {
    operation: SUM
  }
}
layer {
  name: "lstm1_unit_6"
  type: "LSTMUnit"
  bottom: "c_5"
  bottom: "gate_input_6"
  bottom: "cont_6"
  top: "c_6"
  top: "h_6"
}
layer {
  name: "lstm1_h_conted_6"
  type: "Eltwise"
  bottom: "h_6"
  bottom: "cont_7"
  top: "h_conted_6"
  eltwise_param {
    operation: SUM
    coeff_blob: true
  }
}
layer {
  name: "lstm1_transform_7"
  type: "InnerProduct"
  bottom: "h_conted_6"
  top: "W_hc_h_6"
  param {
    name: "W_hc"
  }
  inner_product_param {
    num_output: 512
    bias_term: false
    weight_filler {
      type: "uniform"
      min: -0.01
      max: 0.01
    }
    axis: 2
  }
}
layer {
  name: "lstm1_gate_input_7"
  type: "Eltwise"
  bottom: "W_hc_h_6"
  bottom: "W_xc_x_7"
  top: "gate_input_7"
  eltwise_param {
    operation: SUM
  }
}
layer {
  name: "lstm1_unit_7"
  type: "LSTMUnit"
  bottom: "c_6"
  bottom: "gate_input_7"
  bottom: "cont_7"
  top: "c_7"
  top: "h_7"
}
layer {
  name: "lstm1_h_conted_7"
  type: "Eltwise"
  bottom: "h_7"
  bottom: "cont_8"
  top: "h_conted_7"
  eltwise_param {
    operation: SUM
    coeff_blob: true
  }
}
layer {
  name: "lstm1_transform_8"
  type: "InnerProduct"
  bottom: "h_conted_7"
  top: "W_hc_h_7"
  param {
    name: "W_hc"
  }
  inner_product_param {
    num_output: 512
    bias_term: false
    weight_filler {
      type: "uniform"
      min: -0.01
      max: 0.01
    }
    axis: 2
  }
}
layer {
  name: "lstm1_gate_input_8"
  type: "Eltwise"
  bottom: "W_hc_h_7"
  bottom: "W_xc_x_8"
  top: "gate_input_8"
  eltwise_param {
    operation: SUM
  }
}
layer {
  name: "lstm1_unit_8"
  type: "LSTMUnit"
  bottom: "c_7"
  bottom: "gate_input_8"
  bottom: "cont_8"
  top: "c_8"
  top: "h_8"
}
layer {
  name: "lstm1_"
  type: "Split"
  bottom: "c_8"
  top: "c_T"
}
layer {
  name: "lstm1_h_concat"
  type: "Concat"
  bottom: "h_1"
  bottom: "h_2"
  bottom: "h_3"
  bottom: "h_4"
  bottom: "h_5"
  bottom: "h_6"
  bottom: "h_7"
  bottom: "h_8"
  top: "h"
  concat_param {
    axis: 0
  }
}
I0219 11:04:29.777938 18685 net.cpp:351] Input 0 -> x
I0219 11:04:29.777953 18685 net.cpp:351] Input 1 -> cont
I0219 11:04:29.777966 18685 net.cpp:351] Input 2 -> c_0
I0219 11:04:29.777977 18685 net.cpp:351] Input 3 -> h_0
I0219 11:04:29.777998 18685 layer_factory.hpp:74] Creating layer lstm1_cont_slice
I0219 11:04:29.778019 18685 net.cpp:94] Creating Layer lstm1_cont_slice
I0219 11:04:29.778028 18685 net.cpp:391] lstm1_cont_slice <- cont
I0219 11:04:29.778040 18685 net.cpp:349] lstm1_cont_slice -> cont_1
I0219 11:04:29.778055 18685 net.cpp:349] lstm1_cont_slice -> cont_2
I0219 11:04:29.778070 18685 net.cpp:349] lstm1_cont_slice -> cont_3
I0219 11:04:29.778086 18685 net.cpp:349] lstm1_cont_slice -> cont_4
I0219 11:04:29.778101 18685 net.cpp:349] lstm1_cont_slice -> cont_5
I0219 11:04:29.778117 18685 net.cpp:349] lstm1_cont_slice -> cont_6
I0219 11:04:29.778132 18685 net.cpp:349] lstm1_cont_slice -> cont_7
I0219 11:04:29.778147 18685 net.cpp:349] lstm1_cont_slice -> cont_8
I0219 11:04:29.778162 18685 net.cpp:123] Setting up lstm1_cont_slice
I0219 11:04:29.778182 18685 net.cpp:130] Top shape: 1 1 16 (16)
I0219 11:04:29.778192 18685 net.cpp:130] Top shape: 1 1 16 (16)
I0219 11:04:29.778201 18685 net.cpp:130] Top shape: 1 1 16 (16)
I0219 11:04:29.778211 18685 net.cpp:130] Top shape: 1 1 16 (16)
I0219 11:04:29.778220 18685 net.cpp:130] Top shape: 1 1 16 (16)
I0219 11:04:29.778230 18685 net.cpp:130] Top shape: 1 1 16 (16)
I0219 11:04:29.778241 18685 net.cpp:130] Top shape: 1 1 16 (16)
I0219 11:04:29.778252 18685 net.cpp:130] Top shape: 1 1 16 (16)
I0219 11:04:29.778308 18685 layer_factory.hpp:74] Creating layer cont_1_lstm1_cont_slice_0_split
I0219 11:04:29.778321 18685 net.cpp:94] Creating Layer cont_1_lstm1_cont_slice_0_split
I0219 11:04:29.778329 18685 net.cpp:391] cont_1_lstm1_cont_slice_0_split <- cont_1
I0219 11:04:29.778339 18685 net.cpp:349] cont_1_lstm1_cont_slice_0_split -> cont_1_lstm1_cont_slice_0_split_0
I0219 11:04:29.778354 18685 net.cpp:349] cont_1_lstm1_cont_slice_0_split -> cont_1_lstm1_cont_slice_0_split_1
I0219 11:04:29.778368 18685 net.cpp:123] Setting up cont_1_lstm1_cont_slice_0_split
I0219 11:04:29.778383 18685 net.cpp:130] Top shape: 1 1 16 (16)
I0219 11:04:29.778393 18685 net.cpp:130] Top shape: 1 1 16 (16)
I0219 11:04:29.778401 18685 layer_factory.hpp:74] Creating layer cont_2_lstm1_cont_slice_1_split
I0219 11:04:29.778412 18685 net.cpp:94] Creating Layer cont_2_lstm1_cont_slice_1_split
I0219 11:04:29.778421 18685 net.cpp:391] cont_2_lstm1_cont_slice_1_split <- cont_2
I0219 11:04:29.778431 18685 net.cpp:349] cont_2_lstm1_cont_slice_1_split -> cont_2_lstm1_cont_slice_1_split_0
I0219 11:04:29.778445 18685 net.cpp:349] cont_2_lstm1_cont_slice_1_split -> cont_2_lstm1_cont_slice_1_split_1
I0219 11:04:29.778457 18685 net.cpp:123] Setting up cont_2_lstm1_cont_slice_1_split
I0219 11:04:29.778470 18685 net.cpp:130] Top shape: 1 1 16 (16)
I0219 11:04:29.778481 18685 net.cpp:130] Top shape: 1 1 16 (16)
I0219 11:04:29.778489 18685 layer_factory.hpp:74] Creating layer cont_3_lstm1_cont_slice_2_split
I0219 11:04:29.778512 18685 net.cpp:94] Creating Layer cont_3_lstm1_cont_slice_2_split
I0219 11:04:29.778522 18685 net.cpp:391] cont_3_lstm1_cont_slice_2_split <- cont_3
I0219 11:04:29.778532 18685 net.cpp:349] cont_3_lstm1_cont_slice_2_split -> cont_3_lstm1_cont_slice_2_split_0
I0219 11:04:29.778542 18685 net.cpp:349] cont_3_lstm1_cont_slice_2_split -> cont_3_lstm1_cont_slice_2_split_1
I0219 11:04:29.778549 18685 net.cpp:123] Setting up cont_3_lstm1_cont_slice_2_split
I0219 11:04:29.778556 18685 net.cpp:130] Top shape: 1 1 16 (16)
I0219 11:04:29.778563 18685 net.cpp:130] Top shape: 1 1 16 (16)
I0219 11:04:29.778566 18685 layer_factory.hpp:74] Creating layer cont_4_lstm1_cont_slice_3_split
I0219 11:04:29.778573 18685 net.cpp:94] Creating Layer cont_4_lstm1_cont_slice_3_split
I0219 11:04:29.778578 18685 net.cpp:391] cont_4_lstm1_cont_slice_3_split <- cont_4
I0219 11:04:29.778584 18685 net.cpp:349] cont_4_lstm1_cont_slice_3_split -> cont_4_lstm1_cont_slice_3_split_0
I0219 11:04:29.778591 18685 net.cpp:349] cont_4_lstm1_cont_slice_3_split -> cont_4_lstm1_cont_slice_3_split_1
I0219 11:04:29.778597 18685 net.cpp:123] Setting up cont_4_lstm1_cont_slice_3_split
I0219 11:04:29.778604 18685 net.cpp:130] Top shape: 1 1 16 (16)
I0219 11:04:29.778609 18685 net.cpp:130] Top shape: 1 1 16 (16)
I0219 11:04:29.778614 18685 layer_factory.hpp:74] Creating layer cont_5_lstm1_cont_slice_4_split
I0219 11:04:29.778619 18685 net.cpp:94] Creating Layer cont_5_lstm1_cont_slice_4_split
I0219 11:04:29.778623 18685 net.cpp:391] cont_5_lstm1_cont_slice_4_split <- cont_5
I0219 11:04:29.778630 18685 net.cpp:349] cont_5_lstm1_cont_slice_4_split -> cont_5_lstm1_cont_slice_4_split_0
I0219 11:04:29.778636 18685 net.cpp:349] cont_5_lstm1_cont_slice_4_split -> cont_5_lstm1_cont_slice_4_split_1
I0219 11:04:29.778642 18685 net.cpp:123] Setting up cont_5_lstm1_cont_slice_4_split
I0219 11:04:29.778650 18685 net.cpp:130] Top shape: 1 1 16 (16)
I0219 11:04:29.778656 18685 net.cpp:130] Top shape: 1 1 16 (16)
I0219 11:04:29.778661 18685 layer_factory.hpp:74] Creating layer cont_6_lstm1_cont_slice_5_split
I0219 11:04:29.778666 18685 net.cpp:94] Creating Layer cont_6_lstm1_cont_slice_5_split
I0219 11:04:29.778671 18685 net.cpp:391] cont_6_lstm1_cont_slice_5_split <- cont_6
I0219 11:04:29.778681 18685 net.cpp:349] cont_6_lstm1_cont_slice_5_split -> cont_6_lstm1_cont_slice_5_split_0
I0219 11:04:29.778688 18685 net.cpp:349] cont_6_lstm1_cont_slice_5_split -> cont_6_lstm1_cont_slice_5_split_1
I0219 11:04:29.778694 18685 net.cpp:123] Setting up cont_6_lstm1_cont_slice_5_split
I0219 11:04:29.778702 18685 net.cpp:130] Top shape: 1 1 16 (16)
I0219 11:04:29.778707 18685 net.cpp:130] Top shape: 1 1 16 (16)
I0219 11:04:29.778710 18685 layer_factory.hpp:74] Creating layer cont_7_lstm1_cont_slice_6_split
I0219 11:04:29.778715 18685 net.cpp:94] Creating Layer cont_7_lstm1_cont_slice_6_split
I0219 11:04:29.778720 18685 net.cpp:391] cont_7_lstm1_cont_slice_6_split <- cont_7
I0219 11:04:29.778725 18685 net.cpp:349] cont_7_lstm1_cont_slice_6_split -> cont_7_lstm1_cont_slice_6_split_0
I0219 11:04:29.778733 18685 net.cpp:349] cont_7_lstm1_cont_slice_6_split -> cont_7_lstm1_cont_slice_6_split_1
I0219 11:04:29.778738 18685 net.cpp:123] Setting up cont_7_lstm1_cont_slice_6_split
I0219 11:04:29.778745 18685 net.cpp:130] Top shape: 1 1 16 (16)
I0219 11:04:29.778750 18685 net.cpp:130] Top shape: 1 1 16 (16)
I0219 11:04:29.778754 18685 layer_factory.hpp:74] Creating layer cont_8_lstm1_cont_slice_7_split
I0219 11:04:29.778761 18685 net.cpp:94] Creating Layer cont_8_lstm1_cont_slice_7_split
I0219 11:04:29.778766 18685 net.cpp:391] cont_8_lstm1_cont_slice_7_split <- cont_8
I0219 11:04:29.778772 18685 net.cpp:349] cont_8_lstm1_cont_slice_7_split -> cont_8_lstm1_cont_slice_7_split_0
I0219 11:04:29.778779 18685 net.cpp:349] cont_8_lstm1_cont_slice_7_split -> cont_8_lstm1_cont_slice_7_split_1
I0219 11:04:29.778785 18685 net.cpp:123] Setting up cont_8_lstm1_cont_slice_7_split
I0219 11:04:29.778791 18685 net.cpp:130] Top shape: 1 1 16 (16)
I0219 11:04:29.778803 18685 net.cpp:130] Top shape: 1 1 16 (16)
I0219 11:04:29.778808 18685 layer_factory.hpp:74] Creating layer lstm1_x_transform
I0219 11:04:29.778816 18685 net.cpp:94] Creating Layer lstm1_x_transform
I0219 11:04:29.778821 18685 net.cpp:391] lstm1_x_transform <- x
I0219 11:04:29.778830 18685 net.cpp:349] lstm1_x_transform -> W_xc_x
I0219 11:04:29.778836 18685 net.cpp:123] Setting up lstm1_x_transform
I0219 11:04:29.778939 18685 net.cpp:130] Top shape: 8 16 512 (65536)
I0219 11:04:29.778949 18685 layer_factory.hpp:74] Creating layer lstm1_W_xc_x_slice
I0219 11:04:29.778959 18685 net.cpp:94] Creating Layer lstm1_W_xc_x_slice
I0219 11:04:29.778964 18685 net.cpp:391] lstm1_W_xc_x_slice <- W_xc_x
I0219 11:04:29.778985 18685 net.cpp:349] lstm1_W_xc_x_slice -> W_xc_x_1
I0219 11:04:29.778993 18685 net.cpp:349] lstm1_W_xc_x_slice -> W_xc_x_2
I0219 11:04:29.779001 18685 net.cpp:349] lstm1_W_xc_x_slice -> W_xc_x_3
I0219 11:04:29.779008 18685 net.cpp:349] lstm1_W_xc_x_slice -> W_xc_x_4
I0219 11:04:29.779017 18685 net.cpp:349] lstm1_W_xc_x_slice -> W_xc_x_5
I0219 11:04:29.779026 18685 net.cpp:349] lstm1_W_xc_x_slice -> W_xc_x_6
I0219 11:04:29.779032 18685 net.cpp:349] lstm1_W_xc_x_slice -> W_xc_x_7
I0219 11:04:29.779039 18685 net.cpp:349] lstm1_W_xc_x_slice -> W_xc_x_8
I0219 11:04:29.779045 18685 net.cpp:123] Setting up lstm1_W_xc_x_slice
I0219 11:04:29.779055 18685 net.cpp:130] Top shape: 1 16 512 (8192)
I0219 11:04:29.779062 18685 net.cpp:130] Top shape: 1 16 512 (8192)
I0219 11:04:29.779067 18685 net.cpp:130] Top shape: 1 16 512 (8192)
I0219 11:04:29.779072 18685 net.cpp:130] Top shape: 1 16 512 (8192)
I0219 11:04:29.779077 18685 net.cpp:130] Top shape: 1 16 512 (8192)
I0219 11:04:29.779081 18685 net.cpp:130] Top shape: 1 16 512 (8192)
I0219 11:04:29.779086 18685 net.cpp:130] Top shape: 1 16 512 (8192)
I0219 11:04:29.779091 18685 net.cpp:130] Top shape: 1 16 512 (8192)
I0219 11:04:29.779095 18685 layer_factory.hpp:74] Creating layer lstm1_h_conted_0
I0219 11:04:29.779103 18685 net.cpp:94] Creating Layer lstm1_h_conted_0
I0219 11:04:29.779109 18685 net.cpp:391] lstm1_h_conted_0 <- h_0
I0219 11:04:29.779114 18685 net.cpp:391] lstm1_h_conted_0 <- cont_1_lstm1_cont_slice_0_split_0
I0219 11:04:29.779120 18685 net.cpp:349] lstm1_h_conted_0 -> h_conted_0
I0219 11:04:29.779127 18685 net.cpp:123] Setting up lstm1_h_conted_0
I0219 11:04:29.779136 18685 net.cpp:130] Top shape: 1 16 128 (2048)
I0219 11:04:29.779141 18685 layer_factory.hpp:74] Creating layer lstm1_transform_1
I0219 11:04:29.779148 18685 net.cpp:94] Creating Layer lstm1_transform_1
I0219 11:04:29.779152 18685 net.cpp:391] lstm1_transform_1 <- h_conted_0
I0219 11:04:29.779160 18685 net.cpp:349] lstm1_transform_1 -> W_hc_h_0
I0219 11:04:29.779167 18685 net.cpp:123] Setting up lstm1_transform_1
I0219 11:04:29.779621 18685 net.cpp:130] Top shape: 1 16 512 (8192)
I0219 11:04:29.779633 18685 layer_factory.hpp:74] Creating layer lstm1_gate_input_1
I0219 11:04:29.779644 18685 net.cpp:94] Creating Layer lstm1_gate_input_1
I0219 11:04:29.779654 18685 net.cpp:391] lstm1_gate_input_1 <- W_hc_h_0
I0219 11:04:29.779662 18685 net.cpp:391] lstm1_gate_input_1 <- W_xc_x_1
I0219 11:04:29.779675 18685 net.cpp:349] lstm1_gate_input_1 -> gate_input_1
I0219 11:04:29.779688 18685 net.cpp:123] Setting up lstm1_gate_input_1
I0219 11:04:29.779701 18685 net.cpp:130] Top shape: 1 16 512 (8192)
I0219 11:04:29.779711 18685 layer_factory.hpp:74] Creating layer lstm1_unit_1
I0219 11:04:29.779726 18685 net.cpp:94] Creating Layer lstm1_unit_1
I0219 11:04:29.779732 18685 net.cpp:391] lstm1_unit_1 <- c_0
I0219 11:04:29.779738 18685 net.cpp:391] lstm1_unit_1 <- gate_input_1
I0219 11:04:29.779743 18685 net.cpp:391] lstm1_unit_1 <- cont_1_lstm1_cont_slice_0_split_1
I0219 11:04:29.779749 18685 net.cpp:349] lstm1_unit_1 -> c_1
I0219 11:04:29.779757 18685 net.cpp:349] lstm1_unit_1 -> h_1
I0219 11:04:29.779763 18685 net.cpp:123] Setting up lstm1_unit_1
I0219 11:04:29.779774 18685 net.cpp:130] Top shape: 1 16 128 (2048)
I0219 11:04:29.779779 18685 net.cpp:130] Top shape: 1 16 128 (2048)
I0219 11:04:29.779794 18685 layer_factory.hpp:74] Creating layer h_1_lstm1_unit_1_1_split
I0219 11:04:29.779800 18685 net.cpp:94] Creating Layer h_1_lstm1_unit_1_1_split
I0219 11:04:29.779805 18685 net.cpp:391] h_1_lstm1_unit_1_1_split <- h_1
I0219 11:04:29.779810 18685 net.cpp:349] h_1_lstm1_unit_1_1_split -> h_1_lstm1_unit_1_1_split_0
I0219 11:04:29.779817 18685 net.cpp:349] h_1_lstm1_unit_1_1_split -> h_1_lstm1_unit_1_1_split_1
I0219 11:04:29.779824 18685 net.cpp:123] Setting up h_1_lstm1_unit_1_1_split
I0219 11:04:29.779830 18685 net.cpp:130] Top shape: 1 16 128 (2048)
I0219 11:04:29.779835 18685 net.cpp:130] Top shape: 1 16 128 (2048)
I0219 11:04:29.779839 18685 layer_factory.hpp:74] Creating layer lstm1_h_conted_1
I0219 11:04:29.779845 18685 net.cpp:94] Creating Layer lstm1_h_conted_1
I0219 11:04:29.779850 18685 net.cpp:391] lstm1_h_conted_1 <- h_1_lstm1_unit_1_1_split_0
I0219 11:04:29.779855 18685 net.cpp:391] lstm1_h_conted_1 <- cont_2_lstm1_cont_slice_1_split_0
I0219 11:04:29.779861 18685 net.cpp:349] lstm1_h_conted_1 -> h_conted_1
I0219 11:04:29.779868 18685 net.cpp:123] Setting up lstm1_h_conted_1
I0219 11:04:29.779875 18685 net.cpp:130] Top shape: 1 16 128 (2048)
I0219 11:04:29.779878 18685 layer_factory.hpp:74] Creating layer lstm1_transform_2
I0219 11:04:29.779884 18685 net.cpp:94] Creating Layer lstm1_transform_2
I0219 11:04:29.779889 18685 net.cpp:391] lstm1_transform_2 <- h_conted_1
I0219 11:04:29.779896 18685 net.cpp:349] lstm1_transform_2 -> W_hc_h_1
I0219 11:04:29.779902 18685 net.cpp:123] Setting up lstm1_transform_2
I0219 11:04:29.780331 18685 net.cpp:130] Top shape: 1 16 512 (8192)
I0219 11:04:29.780342 18685 net.cpp:435] Sharing parameters 'W_hc' owned by layer 'lstm1_transform_1', param index 0
I0219 11:04:29.780359 18685 layer_factory.hpp:74] Creating layer lstm1_gate_input_2
I0219 11:04:29.780369 18685 net.cpp:94] Creating Layer lstm1_gate_input_2
I0219 11:04:29.780377 18685 net.cpp:391] lstm1_gate_input_2 <- W_hc_h_1
I0219 11:04:29.780386 18685 net.cpp:391] lstm1_gate_input_2 <- W_xc_x_2
I0219 11:04:29.780396 18685 net.cpp:349] lstm1_gate_input_2 -> gate_input_2
I0219 11:04:29.780412 18685 net.cpp:123] Setting up lstm1_gate_input_2
I0219 11:04:29.780421 18685 net.cpp:130] Top shape: 1 16 512 (8192)
I0219 11:04:29.780426 18685 layer_factory.hpp:74] Creating layer lstm1_unit_2
I0219 11:04:29.780436 18685 net.cpp:94] Creating Layer lstm1_unit_2
I0219 11:04:29.780441 18685 net.cpp:391] lstm1_unit_2 <- c_1
I0219 11:04:29.780446 18685 net.cpp:391] lstm1_unit_2 <- gate_input_2
I0219 11:04:29.780459 18685 net.cpp:391] lstm1_unit_2 <- cont_2_lstm1_cont_slice_1_split_1
I0219 11:04:29.780485 18685 net.cpp:349] lstm1_unit_2 -> c_2
I0219 11:04:29.780493 18685 net.cpp:349] lstm1_unit_2 -> h_2
I0219 11:04:29.780501 18685 net.cpp:123] Setting up lstm1_unit_2
I0219 11:04:29.780513 18685 net.cpp:130] Top shape: 1 16 128 (2048)
I0219 11:04:29.780529 18685 net.cpp:130] Top shape: 1 16 128 (2048)
I0219 11:04:29.780534 18685 layer_factory.hpp:74] Creating layer h_2_lstm1_unit_2_1_split
I0219 11:04:29.780539 18685 net.cpp:94] Creating Layer h_2_lstm1_unit_2_1_split
I0219 11:04:29.780544 18685 net.cpp:391] h_2_lstm1_unit_2_1_split <- h_2
I0219 11:04:29.780550 18685 net.cpp:349] h_2_lstm1_unit_2_1_split -> h_2_lstm1_unit_2_1_split_0
I0219 11:04:29.780556 18685 net.cpp:349] h_2_lstm1_unit_2_1_split -> h_2_lstm1_unit_2_1_split_1
I0219 11:04:29.780565 18685 net.cpp:123] Setting up h_2_lstm1_unit_2_1_split
I0219 11:04:29.780570 18685 net.cpp:130] Top shape: 1 16 128 (2048)
I0219 11:04:29.780577 18685 net.cpp:130] Top shape: 1 16 128 (2048)
I0219 11:04:29.780591 18685 layer_factory.hpp:74] Creating layer lstm1_h_conted_2
I0219 11:04:29.780598 18685 net.cpp:94] Creating Layer lstm1_h_conted_2
I0219 11:04:29.780604 18685 net.cpp:391] lstm1_h_conted_2 <- h_2_lstm1_unit_2_1_split_0
I0219 11:04:29.780609 18685 net.cpp:391] lstm1_h_conted_2 <- cont_3_lstm1_cont_slice_2_split_0
I0219 11:04:29.780616 18685 net.cpp:349] lstm1_h_conted_2 -> h_conted_2
I0219 11:04:29.780623 18685 net.cpp:123] Setting up lstm1_h_conted_2
I0219 11:04:29.780629 18685 net.cpp:130] Top shape: 1 16 128 (2048)
I0219 11:04:29.780645 18685 layer_factory.hpp:74] Creating layer lstm1_transform_3
I0219 11:04:29.780654 18685 net.cpp:94] Creating Layer lstm1_transform_3
I0219 11:04:29.780659 18685 net.cpp:391] lstm1_transform_3 <- h_conted_2
I0219 11:04:29.780666 18685 net.cpp:349] lstm1_transform_3 -> W_hc_h_2
I0219 11:04:29.780674 18685 net.cpp:123] Setting up lstm1_transform_3
I0219 11:04:29.781072 18685 net.cpp:130] Top shape: 1 16 512 (8192)
I0219 11:04:29.781081 18685 net.cpp:435] Sharing parameters 'W_hc' owned by layer 'lstm1_transform_1', param index 0
I0219 11:04:29.781086 18685 layer_factory.hpp:74] Creating layer lstm1_gate_input_3
I0219 11:04:29.781092 18685 net.cpp:94] Creating Layer lstm1_gate_input_3
I0219 11:04:29.781096 18685 net.cpp:391] lstm1_gate_input_3 <- W_hc_h_2
I0219 11:04:29.781101 18685 net.cpp:391] lstm1_gate_input_3 <- W_xc_x_3
I0219 11:04:29.781110 18685 net.cpp:349] lstm1_gate_input_3 -> gate_input_3
I0219 11:04:29.781116 18685 net.cpp:123] Setting up lstm1_gate_input_3
I0219 11:04:29.781122 18685 net.cpp:130] Top shape: 1 16 512 (8192)
I0219 11:04:29.781131 18685 layer_factory.hpp:74] Creating layer lstm1_unit_3
I0219 11:04:29.781148 18685 net.cpp:94] Creating Layer lstm1_unit_3
I0219 11:04:29.781153 18685 net.cpp:391] lstm1_unit_3 <- c_2
I0219 11:04:29.781158 18685 net.cpp:391] lstm1_unit_3 <- gate_input_3
I0219 11:04:29.781163 18685 net.cpp:391] lstm1_unit_3 <- cont_3_lstm1_cont_slice_2_split_1
I0219 11:04:29.781170 18685 net.cpp:349] lstm1_unit_3 -> c_3
I0219 11:04:29.781177 18685 net.cpp:349] lstm1_unit_3 -> h_3
I0219 11:04:29.781185 18685 net.cpp:123] Setting up lstm1_unit_3
I0219 11:04:29.781193 18685 net.cpp:130] Top shape: 1 16 128 (2048)
I0219 11:04:29.781199 18685 net.cpp:130] Top shape: 1 16 128 (2048)
I0219 11:04:29.781203 18685 layer_factory.hpp:74] Creating layer h_3_lstm1_unit_3_1_split
I0219 11:04:29.781210 18685 net.cpp:94] Creating Layer h_3_lstm1_unit_3_1_split
I0219 11:04:29.781216 18685 net.cpp:391] h_3_lstm1_unit_3_1_split <- h_3
I0219 11:04:29.781224 18685 net.cpp:349] h_3_lstm1_unit_3_1_split -> h_3_lstm1_unit_3_1_split_0
I0219 11:04:29.781232 18685 net.cpp:349] h_3_lstm1_unit_3_1_split -> h_3_lstm1_unit_3_1_split_1
I0219 11:04:29.781239 18685 net.cpp:123] Setting up h_3_lstm1_unit_3_1_split
I0219 11:04:29.781245 18685 net.cpp:130] Top shape: 1 16 128 (2048)
I0219 11:04:29.781254 18685 net.cpp:130] Top shape: 1 16 128 (2048)
I0219 11:04:29.781275 18685 layer_factory.hpp:74] Creating layer lstm1_h_conted_3
I0219 11:04:29.781280 18685 net.cpp:94] Creating Layer lstm1_h_conted_3
I0219 11:04:29.781286 18685 net.cpp:391] lstm1_h_conted_3 <- h_3_lstm1_unit_3_1_split_0
I0219 11:04:29.781291 18685 net.cpp:391] lstm1_h_conted_3 <- cont_4_lstm1_cont_slice_3_split_0
I0219 11:04:29.781301 18685 net.cpp:349] lstm1_h_conted_3 -> h_conted_3
I0219 11:04:29.781309 18685 net.cpp:123] Setting up lstm1_h_conted_3
I0219 11:04:29.781316 18685 net.cpp:130] Top shape: 1 16 128 (2048)
I0219 11:04:29.781322 18685 layer_factory.hpp:74] Creating layer lstm1_transform_4
I0219 11:04:29.781328 18685 net.cpp:94] Creating Layer lstm1_transform_4
I0219 11:04:29.781334 18685 net.cpp:391] lstm1_transform_4 <- h_conted_3
I0219 11:04:29.781343 18685 net.cpp:349] lstm1_transform_4 -> W_hc_h_3
I0219 11:04:29.781352 18685 net.cpp:123] Setting up lstm1_transform_4
I0219 11:04:29.781775 18685 net.cpp:130] Top shape: 1 16 512 (8192)
I0219 11:04:29.781785 18685 net.cpp:435] Sharing parameters 'W_hc' owned by layer 'lstm1_transform_1', param index 0
I0219 11:04:29.781790 18685 layer_factory.hpp:74] Creating layer lstm1_gate_input_4
I0219 11:04:29.781795 18685 net.cpp:94] Creating Layer lstm1_gate_input_4
I0219 11:04:29.781801 18685 net.cpp:391] lstm1_gate_input_4 <- W_hc_h_3
I0219 11:04:29.781818 18685 net.cpp:391] lstm1_gate_input_4 <- W_xc_x_4
I0219 11:04:29.781827 18685 net.cpp:349] lstm1_gate_input_4 -> gate_input_4
I0219 11:04:29.781834 18685 net.cpp:123] Setting up lstm1_gate_input_4
I0219 11:04:29.781841 18685 net.cpp:130] Top shape: 1 16 512 (8192)
I0219 11:04:29.781846 18685 layer_factory.hpp:74] Creating layer lstm1_unit_4
I0219 11:04:29.781860 18685 net.cpp:94] Creating Layer lstm1_unit_4
I0219 11:04:29.781867 18685 net.cpp:391] lstm1_unit_4 <- c_3
I0219 11:04:29.781873 18685 net.cpp:391] lstm1_unit_4 <- gate_input_4
I0219 11:04:29.781878 18685 net.cpp:391] lstm1_unit_4 <- cont_4_lstm1_cont_slice_3_split_1
I0219 11:04:29.781886 18685 net.cpp:349] lstm1_unit_4 -> c_4
I0219 11:04:29.781894 18685 net.cpp:349] lstm1_unit_4 -> h_4
I0219 11:04:29.781900 18685 net.cpp:123] Setting up lstm1_unit_4
I0219 11:04:29.781909 18685 net.cpp:130] Top shape: 1 16 128 (2048)
I0219 11:04:29.781914 18685 net.cpp:130] Top shape: 1 16 128 (2048)
I0219 11:04:29.781919 18685 layer_factory.hpp:74] Creating layer h_4_lstm1_unit_4_1_split
I0219 11:04:29.781926 18685 net.cpp:94] Creating Layer h_4_lstm1_unit_4_1_split
I0219 11:04:29.781932 18685 net.cpp:391] h_4_lstm1_unit_4_1_split <- h_4
I0219 11:04:29.781939 18685 net.cpp:349] h_4_lstm1_unit_4_1_split -> h_4_lstm1_unit_4_1_split_0
I0219 11:04:29.781944 18685 net.cpp:349] h_4_lstm1_unit_4_1_split -> h_4_lstm1_unit_4_1_split_1
I0219 11:04:29.781956 18685 net.cpp:123] Setting up h_4_lstm1_unit_4_1_split
I0219 11:04:29.781965 18685 net.cpp:130] Top shape: 1 16 128 (2048)
I0219 11:04:29.781970 18685 net.cpp:130] Top shape: 1 16 128 (2048)
I0219 11:04:29.781975 18685 layer_factory.hpp:74] Creating layer lstm1_h_conted_4
I0219 11:04:29.781983 18685 net.cpp:94] Creating Layer lstm1_h_conted_4
I0219 11:04:29.781990 18685 net.cpp:391] lstm1_h_conted_4 <- h_4_lstm1_unit_4_1_split_0
I0219 11:04:29.781996 18685 net.cpp:391] lstm1_h_conted_4 <- cont_5_lstm1_cont_slice_4_split_0
I0219 11:04:29.782004 18685 net.cpp:349] lstm1_h_conted_4 -> h_conted_4
I0219 11:04:29.782011 18685 net.cpp:123] Setting up lstm1_h_conted_4
I0219 11:04:29.782018 18685 net.cpp:130] Top shape: 1 16 128 (2048)
I0219 11:04:29.782022 18685 layer_factory.hpp:74] Creating layer lstm1_transform_5
I0219 11:04:29.782034 18685 net.cpp:94] Creating Layer lstm1_transform_5
I0219 11:04:29.782039 18685 net.cpp:391] lstm1_transform_5 <- h_conted_4
I0219 11:04:29.782047 18685 net.cpp:349] lstm1_transform_5 -> W_hc_h_4
I0219 11:04:29.782053 18685 net.cpp:123] Setting up lstm1_transform_5
I0219 11:04:29.782474 18685 net.cpp:130] Top shape: 1 16 512 (8192)
I0219 11:04:29.782482 18685 net.cpp:435] Sharing parameters 'W_hc' owned by layer 'lstm1_transform_1', param index 0
I0219 11:04:29.782487 18685 layer_factory.hpp:74] Creating layer lstm1_gate_input_5
I0219 11:04:29.782495 18685 net.cpp:94] Creating Layer lstm1_gate_input_5
I0219 11:04:29.782500 18685 net.cpp:391] lstm1_gate_input_5 <- W_hc_h_4
I0219 11:04:29.782505 18685 net.cpp:391] lstm1_gate_input_5 <- W_xc_x_5
I0219 11:04:29.782512 18685 net.cpp:349] lstm1_gate_input_5 -> gate_input_5
I0219 11:04:29.782519 18685 net.cpp:123] Setting up lstm1_gate_input_5
I0219 11:04:29.782527 18685 net.cpp:130] Top shape: 1 16 512 (8192)
I0219 11:04:29.782532 18685 layer_factory.hpp:74] Creating layer lstm1_unit_5
I0219 11:04:29.782539 18685 net.cpp:94] Creating Layer lstm1_unit_5
I0219 11:04:29.782546 18685 net.cpp:391] lstm1_unit_5 <- c_4
I0219 11:04:29.782551 18685 net.cpp:391] lstm1_unit_5 <- gate_input_5
I0219 11:04:29.782555 18685 net.cpp:391] lstm1_unit_5 <- cont_5_lstm1_cont_slice_4_split_1
I0219 11:04:29.782573 18685 net.cpp:349] lstm1_unit_5 -> c_5
I0219 11:04:29.782582 18685 net.cpp:349] lstm1_unit_5 -> h_5
I0219 11:04:29.782588 18685 net.cpp:123] Setting up lstm1_unit_5
I0219 11:04:29.782596 18685 net.cpp:130] Top shape: 1 16 128 (2048)
I0219 11:04:29.782601 18685 net.cpp:130] Top shape: 1 16 128 (2048)
I0219 11:04:29.782606 18685 layer_factory.hpp:74] Creating layer h_5_lstm1_unit_5_1_split
I0219 11:04:29.782611 18685 net.cpp:94] Creating Layer h_5_lstm1_unit_5_1_split
I0219 11:04:29.782618 18685 net.cpp:391] h_5_lstm1_unit_5_1_split <- h_5
I0219 11:04:29.782626 18685 net.cpp:349] h_5_lstm1_unit_5_1_split -> h_5_lstm1_unit_5_1_split_0
I0219 11:04:29.782634 18685 net.cpp:349] h_5_lstm1_unit_5_1_split -> h_5_lstm1_unit_5_1_split_1
I0219 11:04:29.782640 18685 net.cpp:123] Setting up h_5_lstm1_unit_5_1_split
I0219 11:04:29.782656 18685 net.cpp:130] Top shape: 1 16 128 (2048)
I0219 11:04:29.782663 18685 net.cpp:130] Top shape: 1 16 128 (2048)
I0219 11:04:29.782667 18685 layer_factory.hpp:74] Creating layer lstm1_h_conted_5
I0219 11:04:29.782675 18685 net.cpp:94] Creating Layer lstm1_h_conted_5
I0219 11:04:29.782681 18685 net.cpp:391] lstm1_h_conted_5 <- h_5_lstm1_unit_5_1_split_0
I0219 11:04:29.782686 18685 net.cpp:391] lstm1_h_conted_5 <- cont_6_lstm1_cont_slice_5_split_0
I0219 11:04:29.782693 18685 net.cpp:349] lstm1_h_conted_5 -> h_conted_5
I0219 11:04:29.782699 18685 net.cpp:123] Setting up lstm1_h_conted_5
I0219 11:04:29.782709 18685 net.cpp:130] Top shape: 1 16 128 (2048)
I0219 11:04:29.782714 18685 layer_factory.hpp:74] Creating layer lstm1_transform_6
I0219 11:04:29.782721 18685 net.cpp:94] Creating Layer lstm1_transform_6
I0219 11:04:29.782724 18685 net.cpp:391] lstm1_transform_6 <- h_conted_5
I0219 11:04:29.782734 18685 net.cpp:349] lstm1_transform_6 -> W_hc_h_5
I0219 11:04:29.782742 18685 net.cpp:123] Setting up lstm1_transform_6
I0219 11:04:29.783155 18685 net.cpp:130] Top shape: 1 16 512 (8192)
I0219 11:04:29.783164 18685 net.cpp:435] Sharing parameters 'W_hc' owned by layer 'lstm1_transform_1', param index 0
I0219 11:04:29.783181 18685 layer_factory.hpp:74] Creating layer lstm1_gate_input_6
I0219 11:04:29.783188 18685 net.cpp:94] Creating Layer lstm1_gate_input_6
I0219 11:04:29.783195 18685 net.cpp:391] lstm1_gate_input_6 <- W_hc_h_5
I0219 11:04:29.783200 18685 net.cpp:391] lstm1_gate_input_6 <- W_xc_x_6
I0219 11:04:29.783206 18685 net.cpp:349] lstm1_gate_input_6 -> gate_input_6
I0219 11:04:29.783213 18685 net.cpp:123] Setting up lstm1_gate_input_6
I0219 11:04:29.783222 18685 net.cpp:130] Top shape: 1 16 512 (8192)
I0219 11:04:29.783227 18685 layer_factory.hpp:74] Creating layer lstm1_unit_6
I0219 11:04:29.783232 18685 net.cpp:94] Creating Layer lstm1_unit_6
I0219 11:04:29.783238 18685 net.cpp:391] lstm1_unit_6 <- c_5
I0219 11:04:29.783243 18685 net.cpp:391] lstm1_unit_6 <- gate_input_6
I0219 11:04:29.783251 18685 net.cpp:391] lstm1_unit_6 <- cont_6_lstm1_cont_slice_5_split_1
I0219 11:04:29.783257 18685 net.cpp:349] lstm1_unit_6 -> c_6
I0219 11:04:29.783278 18685 net.cpp:349] lstm1_unit_6 -> h_6
I0219 11:04:29.783287 18685 net.cpp:123] Setting up lstm1_unit_6
I0219 11:04:29.783293 18685 net.cpp:130] Top shape: 1 16 128 (2048)
I0219 11:04:29.783299 18685 net.cpp:130] Top shape: 1 16 128 (2048)
I0219 11:04:29.783303 18685 layer_factory.hpp:74] Creating layer h_6_lstm1_unit_6_1_split
I0219 11:04:29.783308 18685 net.cpp:94] Creating Layer h_6_lstm1_unit_6_1_split
I0219 11:04:29.783313 18685 net.cpp:391] h_6_lstm1_unit_6_1_split <- h_6
I0219 11:04:29.783321 18685 net.cpp:349] h_6_lstm1_unit_6_1_split -> h_6_lstm1_unit_6_1_split_0
I0219 11:04:29.783329 18685 net.cpp:349] h_6_lstm1_unit_6_1_split -> h_6_lstm1_unit_6_1_split_1
I0219 11:04:29.783335 18685 net.cpp:123] Setting up h_6_lstm1_unit_6_1_split
I0219 11:04:29.783342 18685 net.cpp:130] Top shape: 1 16 128 (2048)
I0219 11:04:29.783349 18685 net.cpp:130] Top shape: 1 16 128 (2048)
I0219 11:04:29.783354 18685 layer_factory.hpp:74] Creating layer lstm1_h_conted_6
I0219 11:04:29.783360 18685 net.cpp:94] Creating Layer lstm1_h_conted_6
I0219 11:04:29.783365 18685 net.cpp:391] lstm1_h_conted_6 <- h_6_lstm1_unit_6_1_split_0
I0219 11:04:29.783370 18685 net.cpp:391] lstm1_h_conted_6 <- cont_7_lstm1_cont_slice_6_split_0
I0219 11:04:29.783377 18685 net.cpp:349] lstm1_h_conted_6 -> h_conted_6
I0219 11:04:29.783383 18685 net.cpp:123] Setting up lstm1_h_conted_6
I0219 11:04:29.783391 18685 net.cpp:130] Top shape: 1 16 128 (2048)
I0219 11:04:29.783397 18685 layer_factory.hpp:74] Creating layer lstm1_transform_7
I0219 11:04:29.783406 18685 net.cpp:94] Creating Layer lstm1_transform_7
I0219 11:04:29.783411 18685 net.cpp:391] lstm1_transform_7 <- h_conted_6
I0219 11:04:29.783418 18685 net.cpp:349] lstm1_transform_7 -> W_hc_h_6
I0219 11:04:29.783427 18685 net.cpp:123] Setting up lstm1_transform_7
I0219 11:04:29.783838 18685 net.cpp:130] Top shape: 1 16 512 (8192)
I0219 11:04:29.783856 18685 net.cpp:435] Sharing parameters 'W_hc' owned by layer 'lstm1_transform_1', param index 0
I0219 11:04:29.783876 18685 layer_factory.hpp:74] Creating layer lstm1_gate_input_7
I0219 11:04:29.783882 18685 net.cpp:94] Creating Layer lstm1_gate_input_7
I0219 11:04:29.783886 18685 net.cpp:391] lstm1_gate_input_7 <- W_hc_h_6
I0219 11:04:29.783895 18685 net.cpp:391] lstm1_gate_input_7 <- W_xc_x_7
I0219 11:04:29.783902 18685 net.cpp:349] lstm1_gate_input_7 -> gate_input_7
I0219 11:04:29.783910 18685 net.cpp:123] Setting up lstm1_gate_input_7
I0219 11:04:29.783918 18685 net.cpp:130] Top shape: 1 16 512 (8192)
I0219 11:04:29.783922 18685 layer_factory.hpp:74] Creating layer lstm1_unit_7
I0219 11:04:29.783931 18685 net.cpp:94] Creating Layer lstm1_unit_7
I0219 11:04:29.783936 18685 net.cpp:391] lstm1_unit_7 <- c_6
I0219 11:04:29.783941 18685 net.cpp:391] lstm1_unit_7 <- gate_input_7
I0219 11:04:29.783946 18685 net.cpp:391] lstm1_unit_7 <- cont_7_lstm1_cont_slice_6_split_1
I0219 11:04:29.783952 18685 net.cpp:349] lstm1_unit_7 -> c_7
I0219 11:04:29.783967 18685 net.cpp:349] lstm1_unit_7 -> h_7
I0219 11:04:29.783973 18685 net.cpp:123] Setting up lstm1_unit_7
I0219 11:04:29.783980 18685 net.cpp:130] Top shape: 1 16 128 (2048)
I0219 11:04:29.783987 18685 net.cpp:130] Top shape: 1 16 128 (2048)
I0219 11:04:29.783992 18685 layer_factory.hpp:74] Creating layer h_7_lstm1_unit_7_1_split
I0219 11:04:29.783998 18685 net.cpp:94] Creating Layer h_7_lstm1_unit_7_1_split
I0219 11:04:29.784004 18685 net.cpp:391] h_7_lstm1_unit_7_1_split <- h_7
I0219 11:04:29.784010 18685 net.cpp:349] h_7_lstm1_unit_7_1_split -> h_7_lstm1_unit_7_1_split_0
I0219 11:04:29.784018 18685 net.cpp:349] h_7_lstm1_unit_7_1_split -> h_7_lstm1_unit_7_1_split_1
I0219 11:04:29.784024 18685 net.cpp:123] Setting up h_7_lstm1_unit_7_1_split
I0219 11:04:29.784030 18685 net.cpp:130] Top shape: 1 16 128 (2048)
I0219 11:04:29.784037 18685 net.cpp:130] Top shape: 1 16 128 (2048)
I0219 11:04:29.784041 18685 layer_factory.hpp:74] Creating layer lstm1_h_conted_7
I0219 11:04:29.784049 18685 net.cpp:94] Creating Layer lstm1_h_conted_7
I0219 11:04:29.784055 18685 net.cpp:391] lstm1_h_conted_7 <- h_7_lstm1_unit_7_1_split_0
I0219 11:04:29.784060 18685 net.cpp:391] lstm1_h_conted_7 <- cont_8_lstm1_cont_slice_7_split_0
I0219 11:04:29.784070 18685 net.cpp:349] lstm1_h_conted_7 -> h_conted_7
I0219 11:04:29.784076 18685 net.cpp:123] Setting up lstm1_h_conted_7
I0219 11:04:29.784108 18685 net.cpp:130] Top shape: 1 16 128 (2048)
I0219 11:04:29.784116 18685 layer_factory.hpp:74] Creating layer lstm1_transform_8
I0219 11:04:29.784122 18685 net.cpp:94] Creating Layer lstm1_transform_8
I0219 11:04:29.784128 18685 net.cpp:391] lstm1_transform_8 <- h_conted_7
I0219 11:04:29.784135 18685 net.cpp:349] lstm1_transform_8 -> W_hc_h_7
I0219 11:04:29.784147 18685 net.cpp:123] Setting up lstm1_transform_8
I0219 11:04:29.784603 18685 net.cpp:130] Top shape: 1 16 512 (8192)
I0219 11:04:29.784611 18685 net.cpp:435] Sharing parameters 'W_hc' owned by layer 'lstm1_transform_1', param index 0
I0219 11:04:29.784616 18685 layer_factory.hpp:74] Creating layer lstm1_gate_input_8
I0219 11:04:29.784624 18685 net.cpp:94] Creating Layer lstm1_gate_input_8
I0219 11:04:29.784629 18685 net.cpp:391] lstm1_gate_input_8 <- W_hc_h_7
I0219 11:04:29.784634 18685 net.cpp:391] lstm1_gate_input_8 <- W_xc_x_8
I0219 11:04:29.784641 18685 net.cpp:349] lstm1_gate_input_8 -> gate_input_8
I0219 11:04:29.784647 18685 net.cpp:123] Setting up lstm1_gate_input_8
I0219 11:04:29.784654 18685 net.cpp:130] Top shape: 1 16 512 (8192)
I0219 11:04:29.784662 18685 layer_factory.hpp:74] Creating layer lstm1_unit_8
I0219 11:04:29.784677 18685 net.cpp:94] Creating Layer lstm1_unit_8
I0219 11:04:29.784684 18685 net.cpp:391] lstm1_unit_8 <- c_7
I0219 11:04:29.784695 18685 net.cpp:391] lstm1_unit_8 <- gate_input_8
I0219 11:04:29.784705 18685 net.cpp:391] lstm1_unit_8 <- cont_8_lstm1_cont_slice_7_split_1
I0219 11:04:29.784716 18685 net.cpp:349] lstm1_unit_8 -> c_8
I0219 11:04:29.784731 18685 net.cpp:349] lstm1_unit_8 -> h_8
I0219 11:04:29.784754 18685 net.cpp:123] Setting up lstm1_unit_8
I0219 11:04:29.784765 18685 net.cpp:130] Top shape: 1 16 128 (2048)
I0219 11:04:29.784775 18685 net.cpp:130] Top shape: 1 16 128 (2048)
I0219 11:04:29.784782 18685 layer_factory.hpp:74] Creating layer lstm1_
I0219 11:04:29.784792 18685 net.cpp:94] Creating Layer lstm1_
I0219 11:04:29.784803 18685 net.cpp:391] lstm1_ <- c_8
I0219 11:04:29.784813 18685 net.cpp:349] lstm1_ -> c_T
I0219 11:04:29.784822 18685 net.cpp:123] Setting up lstm1_
I0219 11:04:29.784829 18685 net.cpp:130] Top shape: 1 16 128 (2048)
I0219 11:04:29.784835 18685 layer_factory.hpp:74] Creating layer lstm1_h_concat
I0219 11:04:29.784844 18685 net.cpp:94] Creating Layer lstm1_h_concat
I0219 11:04:29.784850 18685 net.cpp:391] lstm1_h_concat <- h_1_lstm1_unit_1_1_split_1
I0219 11:04:29.784855 18685 net.cpp:391] lstm1_h_concat <- h_2_lstm1_unit_2_1_split_1
I0219 11:04:29.784864 18685 net.cpp:391] lstm1_h_concat <- h_3_lstm1_unit_3_1_split_1
I0219 11:04:29.784869 18685 net.cpp:391] lstm1_h_concat <- h_4_lstm1_unit_4_1_split_1
I0219 11:04:29.784874 18685 net.cpp:391] lstm1_h_concat <- h_5_lstm1_unit_5_1_split_1
I0219 11:04:29.784879 18685 net.cpp:391] lstm1_h_concat <- h_6_lstm1_unit_6_1_split_1
I0219 11:04:29.784884 18685 net.cpp:391] lstm1_h_concat <- h_7_lstm1_unit_7_1_split_1
I0219 11:04:29.784889 18685 net.cpp:391] lstm1_h_concat <- h_8
I0219 11:04:29.784895 18685 net.cpp:349] lstm1_h_concat -> h
I0219 11:04:29.784904 18685 net.cpp:123] Setting up lstm1_h_concat
I0219 11:04:29.784915 18685 net.cpp:130] Top shape: 8 16 128 (16384)
I0219 11:04:29.784921 18685 net.cpp:179] lstm1_h_concat does not need backward computation.
I0219 11:04:29.784925 18685 net.cpp:179] lstm1_ does not need backward computation.
I0219 11:04:29.784930 18685 net.cpp:179] lstm1_unit_8 does not need backward computation.
I0219 11:04:29.784934 18685 net.cpp:179] lstm1_gate_input_8 does not need backward computation.
I0219 11:04:29.784945 18685 net.cpp:179] lstm1_transform_8 does not need backward computation.
…
I0219 11:04:29.785317 18685 net.cpp:215] This network produces output c_T
I0219 11:04:29.785322 18685 net.cpp:215] This network produces output h
I0219 11:04:29.785370 18685 net.cpp:456] Collecting Learning Rate and Weight Decay.
I0219 11:04:29.785384 18685 net.cpp:228] Network initialization done.
I0219 11:04:29.785390 18685 net.cpp:229] Memory required for data: 1435136
I0219 11:04:29.785482 18685 recurrent_layer.cpp:135] Adding parameter 0: W_xc
I0219 11:04:29.785490 18685 recurrent_layer.cpp:135] Adding parameter 1: b_c
I0219 11:04:29.785495 18685 recurrent_layer.cpp:135] Adding parameter 2: W_hc
I0219 11:04:29.785531 18685 net.cpp:130] Top shape: 8 16 128 (16384)
I0219 11:04:29.785542 18685 layer_factory.hpp:74] Creating layer lstm1-drop
I0219 11:04:29.785549 18685 net.cpp:94] Creating Layer lstm1-drop
I0219 11:04:29.785554 18685 net.cpp:391] lstm1-drop <- lstm1
I0219 11:04:29.785560 18685 net.cpp:338] lstm1-drop -> lstm1 (in-place)
I0219 11:04:29.785567 18685 net.cpp:123] Setting up lstm1-drop
I0219 11:04:29.785575 18685 net.cpp:130] Top shape: 8 16 128 (16384)
I0219 11:04:29.785579 18685 layer_factory.hpp:74] Creating layer concat
I0219 11:04:29.785588 18685 net.cpp:94] Creating Layer concat
I0219 11:04:29.785593 18685 net.cpp:391] concat <- reshape-fc6
I0219 11:04:29.785599 18685 net.cpp:391] concat <- lstm1
I0219 11:04:29.785606 18685 net.cpp:349] concat -> concat-data
I0219 11:04:29.785617 18685 net.cpp:123] Setting up concat
I0219 11:04:29.785629 18685 net.cpp:130] Top shape: 8 16 4224 (540672)
I0219 11:04:29.785640 18685 layer_factory.hpp:74] Creating layer lstm2
I0219 11:04:29.785665 18685 net.cpp:94] Creating Layer lstm2
I0219 11:04:29.785671 18685 net.cpp:391] lstm2 <- concat-data
I0219 11:04:29.785677 18685 net.cpp:391] lstm2 <- reshape-marker_reshape-marker_0_split_1
I0219 11:04:29.785689 18685 net.cpp:349] lstm2 -> lstm2
I0219 11:04:29.785701 18685 net.cpp:123] Setting up lstm2
I0219 11:04:29.785711 18685 recurrent_layer.cpp:27] Initializing recurrent layer: assuming input batch contains 8 timesteps of 16 independent streams.
I0219 11:04:29.786029 18685 net.cpp:52] Initializing net from parameters: 
input: "x"
input: "cont"
input: "c_0"
input: "h_0"
force_backward: true
input_shape {
  dim: 8
  dim: 16
  dim: 4224
}
input_shape {
  dim: 1
  dim: 8
  dim: 16
}
input_shape {
  dim: 1
  dim: 16
  dim: 2048
}
input_shape {
  dim: 1
  dim: 16
  dim: 2048
}
layer {
  name: "lstm2_cont_slice"
  type: "Slice"
  bottom: "cont"
  top: "cont_1"
  top: "cont_2"
  top: "cont_3"
  top: "cont_4"
  top: "cont_5"
  top: "cont_6"
  top: "cont_7"
  top: "cont_8"
  slice_param {
    axis: 1
  }
}
layer {
  name: "lstm2_x_transform"
  type: "InnerProduct"
  bottom: "x"
  top: "W_xc_x"
  param {
    name: "W_xc"
  }
  param {
    name: "b_c"
  }
  inner_product_param {
    num_output: 8192
    bias_term: true
    weight_filler {
      type: "uniform"
      min: -0.01
      max: 0.01
    }
    bias_filler {
      type: "constant"
      value: 0
    }
    axis: 2
  }
}
layer {
  name: "lstm2_W_xc_x_slice"
  type: "Slice"
  bottom: "W_xc_x"
  top: "W_xc_x_1"
  top: "W_xc_x_2"
  top: "W_xc_x_3"
  top: "W_xc_x_4"
  top: "W_xc_x_5"
  top: "W_xc_x_6"
  top: "W_xc_x_7"
  top: "W_xc_x_8"
  slice_param {
    axis: 0
  }
}
layer {
  name: "lstm2_h_conted_0"
  type: "Eltwise"
  bottom: "h_0"
  bottom: "cont_1"
  top: "h_conted_0"
  eltwise_param {
    operation: SUM
    coeff_blob: true
  }
}
layer {
  name: "lstm2_transform_1"
  type: "InnerProduct"
  bottom: "h_conted_0"
  top: "W_hc_h_0"
  param {
    name: "W_hc"
  }
  inner_product_param {
    num_output: 8192
    bias_term: false
    weight_filler {
      type: "uniform"
      min: -0.01
      max: 0.01
    }
    axis: 2
  }
}
layer {
  name: "lstm2_gate_input_1"
  type: "Eltwise"
  bottom: "W_hc_h_0"
  bottom: "W_xc_x_1"
  top: "gate_input_1"
  eltwise_param {
    operation: SUM
  }
}
layer {
  name: "lstm2_unit_1"
  type: "LSTMUnit"
  bottom: "c_0"
  bottom: "gate_input_1"
  bottom: "cont_1"
  top: "c_1"
  top: "h_1"
}
layer {
  name: "lstm2_h_conted_1"
  type: "Eltwise"
  bottom: "h_1"
  bottom: "cont_2"
  top: "h_conted_1"
  eltwise_param {
    operation: SUM
    coeff_blob: true
  }
}
layer {
  name: "lstm2_transform_2"
  type: "InnerProduct"
  bottom: "h_conted_1"
  top: "W_hc_h_1"
  param {
    name: "W_hc"
  }
  inner_product_param {
    num_output: 8192
    bias_term: false
    weight_filler {
      type: "uniform"
      min: -0.01
      max: 0.01
    }
    axis: 2
  }
}
layer {
  name: "lstm2_gate_input_2"
  type: "Eltwise"
  bottom: "W_hc_h_1"
  bottom: "W_xc_x_2"
  top: "gate_input_2"
  eltwise_param {
    operation: SUM
  }
}
layer {
  name: "lstm2_unit_2"
  type: "LSTMUnit"
  bottom: "c_1"
  bottom: "gate_input_2"
  bottom: "cont_2"
  top: "c_2"
  top: "h_2"
}
layer {
  name: "lstm2_h_conted_2"
  type: "Eltwise"
  bottom: "h_2"
  bottom: "cont_3"
  top: "h_conted_2"
  eltwise_param {
    operation: SUM
    coeff_blob: true
  }
}
layer {
  name: "lstm2_transform_3"
  type: "InnerProduct"
  bottom: "h_conted_2"
  top: "W_hc_h_2"
  param {
    name: "W_hc"
  }
  inner_product_param {
    num_output: 8192
    bias_term: false
    weight_filler {
      type: "uniform"
      min: -0.01
      max: 0.01
    }
    axis: 2
  }
}
layer {
  name: "lstm2_gate_input_3"
  type: "Eltwise"
  bottom: "W_hc_h_2"
  bottom: "W_xc_x_3"
  top: "gate_input_3"
  eltwise_param {
    operation: SUM
  }
}
layer {
  name: "lstm2_unit_3"
  type: "LSTMUnit"
  bottom: "c_2"
  bottom: "gate_input_3"
  bottom: "cont_3"
  top: "c_3"
  top: "h_3"
}
layer {
  name: "lstm2_h_conted_3"
  type: "Eltwise"
  bottom: "h_3"
  bottom: "cont_4"
  top: "h_conted_3"
  eltwise_param {
    operation: SUM
    coeff_blob: true
  }
}
layer {
  name: "lstm2_transform_4"
  type: "InnerProduct"
  bottom: "h_conted_3"
  top: "W_hc_h_3"
  param {
    name: "W_hc"
  }
  inner_product_param {
    num_output: 8192
    bias_term: false
    weight_filler {
      type: "uniform"
      min: -0.01
      max: 0.01
    }
    axis: 2
  }
}
layer {
  name: "lstm2_gate_input_4"
  type: "Eltwise"
  bottom: "W_hc_h_3"
  bottom: "W_xc_x_4"
  top: "gate_input_4"
  eltwise_param {
    operation: SUM
  }
}
layer {
  name: "lstm2_unit_4"
  type: "LSTMUnit"
  bottom: "c_3"
  bottom: "gate_input_4"
  bottom: "cont_4"
  top: "c_4"
  top: "h_4"
}
layer {
  name: "lstm2_h_conted_4"
  type: "Eltwise"
  bottom: "h_4"
  bottom: "cont_5"
  top: "h_conted_4"
  eltwise_param {
    operation: SUM
    coeff_blob: true
  }
}
layer {
  name: "lstm2_transform_5"
  type: "InnerProduct"
  bottom: "h_conted_4"
  top: "W_hc_h_4"
  param {
    name: "W_hc"
  }
  inner_product_param {
    num_output: 8192
    bias_term: false
    weight_filler {
      type: "uniform"
      min: -0.01
      max: 0.01
    }
    axis: 2
  }
}
layer {
  name: "lstm2_gate_input_5"
  type: "Eltwise"
  bottom: "W_hc_h_4"
  bottom: "W_xc_x_5"
  top: "gate_input_5"
  eltwise_param {
    operation: SUM
  }
}
layer {
  name: "lstm2_unit_5"
  type: "LSTMUnit"
  bottom: "c_4"
  bottom: "gate_input_5"
  bottom: "cont_5"
  top: "c_5"
  top: "h_5"
}
layer {
  name: "lstm2_h_conted_5"
  type: "Eltwise"
  bottom: "h_5"
  bottom: "cont_6"
  top: "h_conted_5"
  eltwise_param {
    operation: SUM
    coeff_blob: true
  }
}
layer {
  name: "lstm2_transform_6"
  type: "InnerProduct"
  bottom: "h_conted_5"
  top: "W_hc_h_5"
  param {
    name: "W_hc"
  }
  inner_product_param {
    num_output: 8192
    bias_term: false
    weight_filler {
      type: "uniform"
      min: -0.01
      max: 0.01
    }
    axis: 2
  }
}
layer {
  name: "lstm2_gate_input_6"
  type: "Eltwise"
  bottom: "W_hc_h_5"
  bottom: "W_xc_x_6"
  top: "gate_input_6"
  eltwise_param {
    operation: SUM
  }
}
layer {
  name: "lstm2_unit_6"
  type: "LSTMUnit"
  bottom: "c_5"
  bottom: "gate_input_6"
  bottom: "cont_6"
  top: "c_6"
  top: "h_6"
}
layer {
  name: "lstm2_h_conted_6"
  type: "Eltwise"
  bottom: "h_6"
  bottom: "cont_7"
  top: "h_conted_6"
  eltwise_param {
    operation: SUM
    coeff_blob: true
  }
}
layer {
  name: "lstm2_transform_7"
  type: "InnerProduct"
  bottom: "h_conted_6"
  top: "W_hc_h_6"
  param {
    name: "W_hc"
  }
  inner_product_param {
    num_output: 8192
    bias_term: false
    weight_filler {
      type: "uniform"
      min: -0.01
      max: 0.01
    }
    axis: 2
  }
}
layer {
  name: "lstm2_gate_input_7"
  type: "Eltwise"
  bottom: "W_hc_h_6"
  bottom: "W_xc_x_7"
  top: "gate_input_7"
  eltwise_param {
    operation: SUM
  }
}
layer {
  name: "lstm2_unit_7"
  type: "LSTMUnit"
  bottom: "c_6"
  bottom: "gate_input_7"
  bottom: "cont_7"
  top: "c_7"
  top: "h_7"
}
layer {
  name: "lstm2_h_conted_7"
  type: "Eltwise"
  bottom: "h_7"
  bottom: "cont_8"
  top: "h_conted_7"
  eltwise_param {
    operation: SUM
    coeff_blob: true
  }
}
layer {
  name: "lstm2_transform_8"
  type: "InnerProduct"
  bottom: "h_conted_7"
  top: "W_hc_h_7"
  param {
    name: "W_hc"
  }
  inner_product_param {
    num_output: 8192
    bias_term: false
    weight_filler {
      type: "uniform"
      min: -0.01
      max: 0.01
    }
    axis: 2
  }
}
layer {
  name: "lstm2_gate_input_8"
  type: "Eltwise"
  bottom: "W_hc_h_7"
  bottom: "W_xc_x_8"
  top: "gate_input_8"
  eltwise_param {
    operation: SUM
  }
}
layer {
  name: "lstm2_unit_8"
  type: "LSTMUnit"
  bottom: "c_7"
  bottom: "gate_input_8"
  bottom: "cont_8"
  top: "c_8"
  top: "h_8"
}
layer {
  name: "lstm2_"
  type: "Split"
  bottom: "c_8"
  top: "c_T"
}
layer {
  name: "lstm2_h_concat"
  type: "Concat"
  bottom: "h_1"
  bottom: "h_2"
  bottom: "h_3"
  bottom: "h_4"
  bottom: "h_5"
  bottom: "h_6"
  bottom: "h_7"
  bottom: "h_8"
  top: "h"
  concat_param {
    axis: 0
  }
}
I0219 11:04:29.786308 18685 net.cpp:351] Input 0 -> x
I0219 11:04:29.786329 18685 net.cpp:351] Input 1 -> cont
I0219 11:04:29.786341 18685 net.cpp:351] Input 2 -> c_0
I0219 11:04:29.786352 18685 net.cpp:351] Input 3 -> h_0
I0219 11:04:29.786372 18685 layer_factory.hpp:74] Creating layer lstm2_cont_slice
I0219 11:04:29.786382 18685 net.cpp:94] Creating Layer lstm2_cont_slice
I0219 11:04:29.786388 18685 net.cpp:391] lstm2_cont_slice <- cont
I0219 11:04:29.786399 18685 net.cpp:349] lstm2_cont_slice -> cont_1
I0219 11:04:29.786414 18685 net.cpp:349] lstm2_cont_slice -> cont_2
I0219 11:04:29.786428 18685 net.cpp:349] lstm2_cont_slice -> cont_3
I0219 11:04:29.786443 18685 net.cpp:349] lstm2_cont_slice -> cont_4
I0219 11:04:29.786458 18685 net.cpp:349] lstm2_cont_slice -> cont_5
I0219 11:04:29.786474 18685 net.cpp:349] lstm2_cont_slice -> cont_6
I0219 11:04:29.786490 18685 net.cpp:349] lstm2_cont_slice -> cont_7
I0219 11:04:29.786505 18685 net.cpp:349] lstm2_cont_slice -> cont_8
I0219 11:04:29.786520 18685 net.cpp:123] Setting up lstm2_cont_slice
I0219 11:04:29.786535 18685 net.cpp:130] Top shape: 1 1 16 (16)
I0219 11:04:29.786542 18685 net.cpp:130] Top shape: 1 1 16 (16)
I0219 11:04:29.786548 18685 net.cpp:130] Top shape: 1 1 16 (16)
I0219 11:04:29.786555 18685 net.cpp:130] Top shape: 1 1 16 (16)
I0219 11:04:29.786559 18685 net.cpp:130] Top shape: 1 1 16 (16)
I0219 11:04:29.786566 18685 net.cpp:130] Top shape: 1 1 16 (16)
I0219 11:04:29.786571 18685 net.cpp:130] Top shape: 1 1 16 (16)
I0219 11:04:29.786577 18685 net.cpp:130] Top shape: 1 1 16 (16)
I0219 11:04:29.786582 18685 layer_factory.hpp:74] Creating layer cont_1_lstm2_cont_slice_0_split
I0219 11:04:29.786589 18685 net.cpp:94] Creating Layer cont_1_lstm2_cont_slice_0_split
I0219 11:04:29.786595 18685 net.cpp:391] cont_1_lstm2_cont_slice_0_split <- cont_1
I0219 11:04:29.786602 18685 net.cpp:349] cont_1_lstm2_cont_slice_0_split -> cont_1_lstm2_cont_slice_0_split_0
I0219 11:04:29.786609 18685 net.cpp:349] cont_1_lstm2_cont_slice_0_split -> cont_1_lstm2_cont_slice_0_split_1
I0219 11:04:29.786617 18685 net.cpp:123] Setting up cont_1_lstm2_cont_slice_0_split
I0219 11:04:29.786623 18685 net.cpp:130] Top shape: 1 1 16 (16)
I0219 11:04:29.786629 18685 net.cpp:130] Top shape: 1 1 16 (16)
I0219 11:04:29.786634 18685 layer_factory.hpp:74] Creating layer cont_2_lstm2_cont_slice_1_split
I0219 11:04:29.786640 18685 net.cpp:94] Creating Layer cont_2_lstm2_cont_slice_1_split
I0219 11:04:29.786646 18685 net.cpp:391] cont_2_lstm2_cont_slice_1_split <- cont_2
I0219 11:04:29.786653 18685 net.cpp:349] cont_2_lstm2_cont_slice_1_split -> cont_2_lstm2_cont_slice_1_split_0
I0219 11:04:29.786664 18685 net.cpp:349] cont_2_lstm2_cont_slice_1_split -> cont_2_lstm2_cont_slice_1_split_1
I0219 11:04:29.786674 18685 net.cpp:123] Setting up cont_2_lstm2_cont_slice_1_split
I0219 11:04:29.786689 18685 net.cpp:130] Top shape: 1 1 16 (16)
I0219 11:04:29.786700 18685 net.cpp:130] Top shape: 1 1 16 (16)
I0219 11:04:29.786708 18685 layer_factory.hpp:74] Creating layer cont_3_lstm2_cont_slice_2_split
I0219 11:04:29.786718 18685 net.cpp:94] Creating Layer cont_3_lstm2_cont_slice_2_split
I0219 11:04:29.786727 18685 net.cpp:391] cont_3_lstm2_cont_slice_2_split <- cont_3
I0219 11:04:29.786738 18685 net.cpp:349] cont_3_lstm2_cont_slice_2_split -> cont_3_lstm2_cont_slice_2_split_0
I0219 11:04:29.786754 18685 net.cpp:349] cont_3_lstm2_cont_slice_2_split -> cont_3_lstm2_cont_slice_2_split_1
I0219 11:04:29.786769 18685 net.cpp:123] Setting up cont_3_lstm2_cont_slice_2_split
I0219 11:04:29.786782 18685 net.cpp:130] Top shape: 1 1 16 (16)
I0219 11:04:29.786789 18685 net.cpp:130] Top shape: 1 1 16 (16)
I0219 11:04:29.786794 18685 layer_factory.hpp:74] Creating layer cont_4_lstm2_cont_slice_3_split
I0219 11:04:29.786803 18685 net.cpp:94] Creating Layer cont_4_lstm2_cont_slice_3_split
I0219 11:04:29.786811 18685 net.cpp:391] cont_4_lstm2_cont_slice_3_split <- cont_4
I0219 11:04:29.786821 18685 net.cpp:349] cont_4_lstm2_cont_slice_3_split -> cont_4_lstm2_cont_slice_3_split_0
I0219 11:04:29.786836 18685 net.cpp:349] cont_4_lstm2_cont_slice_3_split -> cont_4_lstm2_cont_slice_3_split_1
I0219 11:04:29.786854 18685 net.cpp:123] Setting up cont_4_lstm2_cont_slice_3_split
I0219 11:04:29.786861 18685 net.cpp:130] Top shape: 1 1 16 (16)
I0219 11:04:29.786870 18685 net.cpp:130] Top shape: 1 1 16 (16)
I0219 11:04:29.786877 18685 layer_factory.hpp:74] Creating layer cont_5_lstm2_cont_slice_4_split
I0219 11:04:29.786887 18685 net.cpp:94] Creating Layer cont_5_lstm2_cont_slice_4_split
I0219 11:04:29.786898 18685 net.cpp:391] cont_5_lstm2_cont_slice_4_split <- cont_5
I0219 11:04:29.786906 18685 net.cpp:349] cont_5_lstm2_cont_slice_4_split -> cont_5_lstm2_cont_slice_4_split_0
I0219 11:04:29.786914 18685 net.cpp:349] cont_5_lstm2_cont_slice_4_split -> cont_5_lstm2_cont_slice_4_split_1
I0219 11:04:29.786921 18685 net.cpp:123] Setting up cont_5_lstm2_cont_slice_4_split
I0219 11:04:29.786929 18685 net.cpp:130] Top shape: 1 1 16 (16)
I0219 11:04:29.786936 18685 net.cpp:130] Top shape: 1 1 16 (16)
I0219 11:04:29.786941 18685 layer_factory.hpp:74] Creating layer cont_6_lstm2_cont_slice_5_split
I0219 11:04:29.786948 18685 net.cpp:94] Creating Layer cont_6_lstm2_cont_slice_5_split
I0219 11:04:29.786957 18685 net.cpp:391] cont_6_lstm2_cont_slice_5_split <- cont_6
I0219 11:04:29.786967 18685 net.cpp:349] cont_6_lstm2_cont_slice_5_split -> cont_6_lstm2_cont_slice_5_split_0
I0219 11:04:29.786979 18685 net.cpp:349] cont_6_lstm2_cont_slice_5_split -> cont_6_lstm2_cont_slice_5_split_1
I0219 11:04:29.786991 18685 net.cpp:123] Setting up cont_6_lstm2_cont_slice_5_split
I0219 11:04:29.787004 18685 net.cpp:130] Top shape: 1 1 16 (16)
I0219 11:04:29.787011 18685 net.cpp:130] Top shape: 1 1 16 (16)
I0219 11:04:29.787019 18685 layer_factory.hpp:74] Creating layer cont_7_lstm2_cont_slice_6_split
I0219 11:04:29.787027 18685 net.cpp:94] Creating Layer cont_7_lstm2_cont_slice_6_split
I0219 11:04:29.787035 18685 net.cpp:391] cont_7_lstm2_cont_slice_6_split <- cont_7
I0219 11:04:29.787047 18685 net.cpp:349] cont_7_lstm2_cont_slice_6_split -> cont_7_lstm2_cont_slice_6_split_0
I0219 11:04:29.787060 18685 net.cpp:349] cont_7_lstm2_cont_slice_6_split -> cont_7_lstm2_cont_slice_6_split_1
I0219 11:04:29.787072 18685 net.cpp:123] Setting up cont_7_lstm2_cont_slice_6_split
I0219 11:04:29.787086 18685 net.cpp:130] Top shape: 1 1 16 (16)
I0219 11:04:29.787096 18685 net.cpp:130] Top shape: 1 1 16 (16)
I0219 11:04:29.787103 18685 layer_factory.hpp:74] Creating layer cont_8_lstm2_cont_slice_7_split
I0219 11:04:29.787114 18685 net.cpp:94] Creating Layer cont_8_lstm2_cont_slice_7_split
I0219 11:04:29.787124 18685 net.cpp:391] cont_8_lstm2_cont_slice_7_split <- cont_8
I0219 11:04:29.787134 18685 net.cpp:349] cont_8_lstm2_cont_slice_7_split -> cont_8_lstm2_cont_slice_7_split_0
I0219 11:04:29.787149 18685 net.cpp:349] cont_8_lstm2_cont_slice_7_split -> cont_8_lstm2_cont_slice_7_split_1
I0219 11:04:29.787163 18685 net.cpp:123] Setting up cont_8_lstm2_cont_slice_7_split
I0219 11:04:29.787174 18685 net.cpp:130] Top shape: 1 1 16 (16)
I0219 11:04:29.787185 18685 net.cpp:130] Top shape: 1 1 16 (16)
I0219 11:04:29.787194 18685 layer_factory.hpp:74] Creating layer lstm2_x_transform
I0219 11:04:29.787206 18685 net.cpp:94] Creating Layer lstm2_x_transform
I0219 11:04:29.787215 18685 net.cpp:391] lstm2_x_transform <- x
I0219 11:04:29.787227 18685 net.cpp:349] lstm2_x_transform -> W_xc_x
I0219 11:04:29.787241 18685 net.cpp:123] Setting up lstm2_x_transform
I0219 11:04:29.999660 18685 net.cpp:130] Top shape: 8 16 8192 (1048576)
I0219 11:04:29.999718 18685 layer_factory.hpp:74] Creating layer lstm2_W_xc_x_slice
I0219 11:04:29.999744 18685 net.cpp:94] Creating Layer lstm2_W_xc_x_slice
I0219 11:04:29.999754 18685 net.cpp:391] lstm2_W_xc_x_slice <- W_xc_x
I0219 11:04:29.999794 18685 net.cpp:349] lstm2_W_xc_x_slice -> W_xc_x_1
I0219 11:04:29.999815 18685 net.cpp:349] lstm2_W_xc_x_slice -> W_xc_x_2
I0219 11:04:29.999843 18685 net.cpp:349] lstm2_W_xc_x_slice -> W_xc_x_3
I0219 11:04:29.999858 18685 net.cpp:349] lstm2_W_xc_x_slice -> W_xc_x_4
I0219 11:04:29.999878 18685 net.cpp:349] lstm2_W_xc_x_slice -> W_xc_x_5
I0219 11:04:29.999897 18685 net.cpp:349] lstm2_W_xc_x_slice -> W_xc_x_6
I0219 11:04:29.999948 18685 net.cpp:349] lstm2_W_xc_x_slice -> W_xc_x_7
I0219 11:04:29.999979 18685 net.cpp:349] lstm2_W_xc_x_slice -> W_xc_x_8
I0219 11:04:29.999991 18685 net.cpp:123] Setting up lstm2_W_xc_x_slice
I0219 11:04:30.000010 18685 net.cpp:130] Top shape: 1 16 8192 (131072)
I0219 11:04:30.000021 18685 net.cpp:130] Top shape: 1 16 8192 (131072)
I0219 11:04:30.000031 18685 net.cpp:130] Top shape: 1 16 8192 (131072)
I0219 11:04:30.000041 18685 net.cpp:130] Top shape: 1 16 8192 (131072)
I0219 11:04:30.000051 18685 net.cpp:130] Top shape: 1 16 8192 (131072)
I0219 11:04:30.000061 18685 net.cpp:130] Top shape: 1 16 8192 (131072)
I0219 11:04:30.000072 18685 net.cpp:130] Top shape: 1 16 8192 (131072)
I0219 11:04:30.000082 18685 net.cpp:130] Top shape: 1 16 8192 (131072)
I0219 11:04:30.000092 18685 layer_factory.hpp:74] Creating layer lstm2_h_conted_0
I0219 11:04:30.000104 18685 net.cpp:94] Creating Layer lstm2_h_conted_0
I0219 11:04:30.000114 18685 net.cpp:391] lstm2_h_conted_0 <- h_0
I0219 11:04:30.000124 18685 net.cpp:391] lstm2_h_conted_0 <- cont_1_lstm2_cont_slice_0_split_0
I0219 11:04:30.000154 18685 net.cpp:349] lstm2_h_conted_0 -> h_conted_0
I0219 11:04:30.000165 18685 net.cpp:123] Setting up lstm2_h_conted_0
I0219 11:04:30.000180 18685 net.cpp:130] Top shape: 1 16 2048 (32768)
I0219 11:04:30.000190 18685 layer_factory.hpp:74] Creating layer lstm2_transform_1
I0219 11:04:30.000205 18685 net.cpp:94] Creating Layer lstm2_transform_1
I0219 11:04:30.000217 18685 net.cpp:391] lstm2_transform_1 <- h_conted_0
I0219 11:04:30.000229 18685 net.cpp:349] lstm2_transform_1 -> W_hc_h_0
I0219 11:04:30.000247 18685 net.cpp:123] Setting up lstm2_transform_1
I0219 11:04:30.104017 18685 net.cpp:130] Top shape: 1 16 8192 (131072)
I0219 11:04:30.104058 18685 layer_factory.hpp:74] Creating layer lstm2_gate_input_1
I0219 11:04:30.104074 18685 net.cpp:94] Creating Layer lstm2_gate_input_1
I0219 11:04:30.104080 18685 net.cpp:391] lstm2_gate_input_1 <- W_hc_h_0
I0219 11:04:30.104089 18685 net.cpp:391] lstm2_gate_input_1 <- W_xc_x_1
I0219 11:04:30.104096 18685 net.cpp:349] lstm2_gate_input_1 -> gate_input_1
I0219 11:04:30.104106 18685 net.cpp:123] Setting up lstm2_gate_input_1
I0219 11:04:30.104115 18685 net.cpp:130] Top shape: 1 16 8192 (131072)
I0219 11:04:30.104120 18685 layer_factory.hpp:74] Creating layer lstm2_unit_1
I0219 11:04:30.104127 18685 net.cpp:94] Creating Layer lstm2_unit_1
I0219 11:04:30.104135 18685 net.cpp:391] lstm2_unit_1 <- c_0
I0219 11:04:30.104153 18685 net.cpp:391] lstm2_unit_1 <- gate_input_1
I0219 11:04:30.104158 18685 net.cpp:391] lstm2_unit_1 <- cont_1_lstm2_cont_slice_0_split_1
I0219 11:04:30.104166 18685 net.cpp:349] lstm2_unit_1 -> c_1
I0219 11:04:30.104173 18685 net.cpp:349] lstm2_unit_1 -> h_1
I0219 11:04:30.104181 18685 net.cpp:123] Setting up lstm2_unit_1
I0219 11:04:30.104202 18685 net.cpp:130] Top shape: 1 16 2048 (32768)
I0219 11:04:30.104209 18685 net.cpp:130] Top shape: 1 16 2048 (32768)
I0219 11:04:30.104229 18685 layer_factory.hpp:74] Creating layer h_1_lstm2_unit_1_1_split
I0219 11:04:30.104238 18685 net.cpp:94] Creating Layer h_1_lstm2_unit_1_1_split
I0219 11:04:30.104241 18685 net.cpp:391] h_1_lstm2_unit_1_1_split <- h_1
I0219 11:04:30.104249 18685 net.cpp:349] h_1_lstm2_unit_1_1_split -> h_1_lstm2_unit_1_1_split_0
I0219 11:04:30.104255 18685 net.cpp:349] h_1_lstm2_unit_1_1_split -> h_1_lstm2_unit_1_1_split_1
I0219 11:04:30.104276 18685 net.cpp:123] Setting up h_1_lstm2_unit_1_1_split
I0219 11:04:30.104284 18685 net.cpp:130] Top shape: 1 16 2048 (32768)
I0219 11:04:30.104291 18685 net.cpp:130] Top shape: 1 16 2048 (32768)
I0219 11:04:30.104297 18685 layer_factory.hpp:74] Creating layer lstm2_h_conted_1
I0219 11:04:30.104308 18685 net.cpp:94] Creating Layer lstm2_h_conted_1
I0219 11:04:30.104322 18685 net.cpp:391] lstm2_h_conted_1 <- h_1_lstm2_unit_1_1_split_0
I0219 11:04:30.104329 18685 net.cpp:391] lstm2_h_conted_1 <- cont_2_lstm2_cont_slice_1_split_0
I0219 11:04:30.104337 18685 net.cpp:349] lstm2_h_conted_1 -> h_conted_1
I0219 11:04:30.104346 18685 net.cpp:123] Setting up lstm2_h_conted_1
I0219 11:04:30.104388 18685 net.cpp:130] Top shape: 1 16 2048 (32768)
I0219 11:04:30.104394 18685 layer_factory.hpp:74] Creating layer lstm2_transform_2
I0219 11:04:30.104406 18685 net.cpp:94] Creating Layer lstm2_transform_2
I0219 11:04:30.104413 18685 net.cpp:391] lstm2_transform_2 <- h_conted_1
I0219 11:04:30.104421 18685 net.cpp:349] lstm2_transform_2 -> W_hc_h_1
I0219 11:04:30.104429 18685 net.cpp:123] Setting up lstm2_transform_2
I0219 11:04:30.207582 18685 net.cpp:130] Top shape: 1 16 8192 (131072)
I0219 11:04:30.207617 18685 net.cpp:435] Sharing parameters 'W_hc' owned by layer 'lstm2_transform_1', param index 0
I0219 11:04:30.207625 18685 layer_factory.hpp:74] Creating layer lstm2_gate_input_2
I0219 11:04:30.207639 18685 net.cpp:94] Creating Layer lstm2_gate_input_2
I0219 11:04:30.207645 18685 net.cpp:391] lstm2_gate_input_2 <- W_hc_h_1
I0219 11:04:30.207666 18685 net.cpp:391] lstm2_gate_input_2 <- W_xc_x_2
I0219 11:04:30.207675 18685 net.cpp:349] lstm2_gate_input_2 -> gate_input_2
I0219 11:04:30.207687 18685 net.cpp:123] Setting up lstm2_gate_input_2
I0219 11:04:30.207696 18685 net.cpp:130] Top shape: 1 16 8192 (131072)
I0219 11:04:30.207701 18685 layer_factory.hpp:74] Creating layer lstm2_unit_2
I0219 11:04:30.207712 18685 net.cpp:94] Creating Layer lstm2_unit_2
I0219 11:04:30.207731 18685 net.cpp:391] lstm2_unit_2 <- c_1
I0219 11:04:30.207736 18685 net.cpp:391] lstm2_unit_2 <- gate_input_2
I0219 11:04:30.207746 18685 net.cpp:391] lstm2_unit_2 <- cont_2_lstm2_cont_slice_1_split_1
I0219 11:04:30.207756 18685 net.cpp:349] lstm2_unit_2 -> c_2
I0219 11:04:30.207773 18685 net.cpp:349] lstm2_unit_2 -> h_2
I0219 11:04:30.207780 18685 net.cpp:123] Setting up lstm2_unit_2
I0219 11:04:30.207788 18685 net.cpp:130] Top shape: 1 16 2048 (32768)
I0219 11:04:30.207798 18685 net.cpp:130] Top shape: 1 16 2048 (32768)
I0219 11:04:30.207805 18685 layer_factory.hpp:74] Creating layer h_2_lstm2_unit_2_1_split
I0219 11:04:30.207816 18685 net.cpp:94] Creating Layer h_2_lstm2_unit_2_1_split
I0219 11:04:30.207825 18685 net.cpp:391] h_2_lstm2_unit_2_1_split <- h_2
I0219 11:04:30.207839 18685 net.cpp:349] h_2_lstm2_unit_2_1_split -> h_2_lstm2_unit_2_1_split_0
I0219 11:04:30.207851 18685 net.cpp:349] h_2_lstm2_unit_2_1_split -> h_2_lstm2_unit_2_1_split_1
I0219 11:04:30.207862 18685 net.cpp:123] Setting up h_2_lstm2_unit_2_1_split
I0219 11:04:30.207875 18685 net.cpp:130] Top shape: 1 16 2048 (32768)
I0219 11:04:30.207888 18685 net.cpp:130] Top shape: 1 16 2048 (32768)
I0219 11:04:30.207898 18685 layer_factory.hpp:74] Creating layer lstm2_h_conted_2
I0219 11:04:30.207909 18685 net.cpp:94] Creating Layer lstm2_h_conted_2
I0219 11:04:30.207921 18685 net.cpp:391] lstm2_h_conted_2 <- h_2_lstm2_unit_2_1_split_0
I0219 11:04:30.207929 18685 net.cpp:391] lstm2_h_conted_2 <- cont_3_lstm2_cont_slice_2_split_0
I0219 11:04:30.207942 18685 net.cpp:349] lstm2_h_conted_2 -> h_conted_2
I0219 11:04:30.207954 18685 net.cpp:123] Setting up lstm2_h_conted_2
I0219 11:04:30.207970 18685 net.cpp:130] Top shape: 1 16 2048 (32768)
I0219 11:04:30.207981 18685 layer_factory.hpp:74] Creating layer lstm2_transform_3
I0219 11:04:30.207994 18685 net.cpp:94] Creating Layer lstm2_transform_3
I0219 11:04:30.208000 18685 net.cpp:391] lstm2_transform_3 <- h_conted_2
I0219 11:04:30.208009 18685 net.cpp:349] lstm2_transform_3 -> W_hc_h_2
I0219 11:04:30.208019 18685 net.cpp:123] Setting up lstm2_transform_3
I0219 11:04:30.313823 18685 net.cpp:130] Top shape: 1 16 8192 (131072)
I0219 11:04:30.313858 18685 net.cpp:435] Sharing parameters 'W_hc' owned by layer 'lstm2_transform_1', param index 0
I0219 11:04:30.313868 18685 layer_factory.hpp:74] Creating layer lstm2_gate_input_3
I0219 11:04:30.313884 18685 net.cpp:94] Creating Layer lstm2_gate_input_3
I0219 11:04:30.313894 18685 net.cpp:391] lstm2_gate_input_3 <- W_hc_h_2
I0219 11:04:30.313910 18685 net.cpp:391] lstm2_gate_input_3 <- W_xc_x_3
I0219 11:04:30.313921 18685 net.cpp:349] lstm2_gate_input_3 -> gate_input_3
I0219 11:04:30.313935 18685 net.cpp:123] Setting up lstm2_gate_input_3
I0219 11:04:30.313948 18685 net.cpp:130] Top shape: 1 16 8192 (131072)
I0219 11:04:30.313989 18685 layer_factory.hpp:74] Creating layer lstm2_unit_3
I0219 11:04:30.314005 18685 net.cpp:94] Creating Layer lstm2_unit_3
I0219 11:04:30.314015 18685 net.cpp:391] lstm2_unit_3 <- c_2
I0219 11:04:30.314024 18685 net.cpp:391] lstm2_unit_3 <- gate_input_3
I0219 11:04:30.314034 18685 net.cpp:391] lstm2_unit_3 <- cont_3_lstm2_cont_slice_2_split_1
I0219 11:04:30.314049 18685 net.cpp:349] lstm2_unit_3 -> c_3
I0219 11:04:30.314064 18685 net.cpp:349] lstm2_unit_3 -> h_3
I0219 11:04:30.314077 18685 net.cpp:123] Setting up lstm2_unit_3
I0219 11:04:30.314093 18685 net.cpp:130] Top shape: 1 16 2048 (32768)
I0219 11:04:30.314105 18685 net.cpp:130] Top shape: 1 16 2048 (32768)
I0219 11:04:30.314113 18685 layer_factory.hpp:74] Creating layer h_3_lstm2_unit_3_1_split
I0219 11:04:30.314126 18685 net.cpp:94] Creating Layer h_3_lstm2_unit_3_1_split
I0219 11:04:30.314136 18685 net.cpp:391] h_3_lstm2_unit_3_1_split <- h_3
I0219 11:04:30.314148 18685 net.cpp:349] h_3_lstm2_unit_3_1_split -> h_3_lstm2_unit_3_1_split_0
I0219 11:04:30.314162 18685 net.cpp:349] h_3_lstm2_unit_3_1_split -> h_3_lstm2_unit_3_1_split_1
I0219 11:04:30.314174 18685 net.cpp:123] Setting up h_3_lstm2_unit_3_1_split
I0219 11:04:30.314190 18685 net.cpp:130] Top shape: 1 16 2048 (32768)
I0219 11:04:30.314203 18685 net.cpp:130] Top shape: 1 16 2048 (32768)
I0219 11:04:30.314208 18685 layer_factory.hpp:74] Creating layer lstm2_h_conted_3
I0219 11:04:30.314220 18685 net.cpp:94] Creating Layer lstm2_h_conted_3
I0219 11:04:30.314229 18685 net.cpp:391] lstm2_h_conted_3 <- h_3_lstm2_unit_3_1_split_0
I0219 11:04:30.314241 18685 net.cpp:391] lstm2_h_conted_3 <- cont_4_lstm2_cont_slice_3_split_0
I0219 11:04:30.314251 18685 net.cpp:349] lstm2_h_conted_3 -> h_conted_3
I0219 11:04:30.314303 18685 net.cpp:123] Setting up lstm2_h_conted_3
I0219 11:04:30.314313 18685 net.cpp:130] Top shape: 1 16 2048 (32768)
I0219 11:04:30.314318 18685 layer_factory.hpp:74] Creating layer lstm2_transform_4
I0219 11:04:30.314332 18685 net.cpp:94] Creating Layer lstm2_transform_4
I0219 11:04:30.314339 18685 net.cpp:391] lstm2_transform_4 <- h_conted_3
I0219 11:04:30.314353 18685 net.cpp:349] lstm2_transform_4 -> W_hc_h_3
I0219 11:04:30.314365 18685 net.cpp:123] Setting up lstm2_transform_4
I0219 11:04:30.418043 18685 net.cpp:130] Top shape: 1 16 8192 (131072)
I0219 11:04:30.418083 18685 net.cpp:435] Sharing parameters 'W_hc' owned by layer 'lstm2_transform_1', param index 0
I0219 11:04:30.418093 18685 layer_factory.hpp:74] Creating layer lstm2_gate_input_4
I0219 11:04:30.418112 18685 net.cpp:94] Creating Layer lstm2_gate_input_4
I0219 11:04:30.418122 18685 net.cpp:391] lstm2_gate_input_4 <- W_hc_h_3
I0219 11:04:30.418154 18685 net.cpp:391] lstm2_gate_input_4 <- W_xc_x_4
I0219 11:04:30.418180 18685 net.cpp:349] lstm2_gate_input_4 -> gate_input_4
I0219 11:04:30.418200 18685 net.cpp:123] Setting up lstm2_gate_input_4
I0219 11:04:30.418229 18685 net.cpp:130] Top shape: 1 16 8192 (131072)
I0219 11:04:30.418238 18685 layer_factory.hpp:74] Creating layer lstm2_unit_4
I0219 11:04:30.418251 18685 net.cpp:94] Creating Layer lstm2_unit_4
I0219 11:04:30.418320 18685 net.cpp:391] lstm2_unit_4 <- c_3
I0219 11:04:30.418347 18685 net.cpp:391] lstm2_unit_4 <- gate_input_4
I0219 11:04:30.418357 18685 net.cpp:391] lstm2_unit_4 <- cont_4_lstm2_cont_slice_3_split_1
I0219 11:04:30.418371 18685 net.cpp:349] lstm2_unit_4 -> c_4
I0219 11:04:30.418401 18685 net.cpp:349] lstm2_unit_4 -> h_4
I0219 11:04:30.418414 18685 net.cpp:123] Setting up lstm2_unit_4
I0219 11:04:30.418429 18685 net.cpp:130] Top shape: 1 16 2048 (32768)
I0219 11:04:30.418452 18685 net.cpp:130] Top shape: 1 16 2048 (32768)
I0219 11:04:30.418460 18685 layer_factory.hpp:74] Creating layer h_4_lstm2_unit_4_1_split
I0219 11:04:30.418473 18685 net.cpp:94] Creating Layer h_4_lstm2_unit_4_1_split
I0219 11:04:30.418495 18685 net.cpp:391] h_4_lstm2_unit_4_1_split <- h_4
I0219 11:04:30.418509 18685 net.cpp:349] h_4_lstm2_unit_4_1_split -> h_4_lstm2_unit_4_1_split_0
I0219 11:04:30.418522 18685 net.cpp:349] h_4_lstm2_unit_4_1_split -> h_4_lstm2_unit_4_1_split_1
I0219 11:04:30.418579 18685 net.cpp:123] Setting up h_4_lstm2_unit_4_1_split
I0219 11:04:30.418592 18685 net.cpp:130] Top shape: 1 16 2048 (32768)
I0219 11:04:30.418603 18685 net.cpp:130] Top shape: 1 16 2048 (32768)
I0219 11:04:30.418612 18685 layer_factory.hpp:74] Creating layer lstm2_h_conted_4
I0219 11:04:30.418623 18685 net.cpp:94] Creating Layer lstm2_h_conted_4
I0219 11:04:30.418633 18685 net.cpp:391] lstm2_h_conted_4 <- h_4_lstm2_unit_4_1_split_0
I0219 11:04:30.418643 18685 net.cpp:391] lstm2_h_conted_4 <- cont_5_lstm2_cont_slice_4_split_0
I0219 11:04:30.418670 18685 net.cpp:349] lstm2_h_conted_4 -> h_conted_4
I0219 11:04:30.418683 18685 net.cpp:123] Setting up lstm2_h_conted_4
I0219 11:04:30.418695 18685 net.cpp:130] Top shape: 1 16 2048 (32768)
I0219 11:04:30.418704 18685 layer_factory.hpp:74] Creating layer lstm2_transform_5
I0219 11:04:30.418725 18685 net.cpp:94] Creating Layer lstm2_transform_5
I0219 11:04:30.418732 18685 net.cpp:391] lstm2_transform_5 <- h_conted_4
I0219 11:04:30.418745 18685 net.cpp:349] lstm2_transform_5 -> W_hc_h_4
I0219 11:04:30.418772 18685 net.cpp:123] Setting up lstm2_transform_5
I0219 11:04:30.522936 18685 net.cpp:130] Top shape: 1 16 8192 (131072)
I0219 11:04:30.522969 18685 net.cpp:435] Sharing parameters 'W_hc' owned by layer 'lstm2_transform_1', param index 0
I0219 11:04:30.522979 18685 layer_factory.hpp:74] Creating layer lstm2_gate_input_5
I0219 11:04:30.522994 18685 net.cpp:94] Creating Layer lstm2_gate_input_5
I0219 11:04:30.523005 18685 net.cpp:391] lstm2_gate_input_5 <- W_hc_h_4
I0219 11:04:30.523015 18685 net.cpp:391] lstm2_gate_input_5 <- W_xc_x_5
I0219 11:04:30.523051 18685 net.cpp:349] lstm2_gate_input_5 -> gate_input_5
I0219 11:04:30.523071 18685 net.cpp:123] Setting up lstm2_gate_input_5
I0219 11:04:30.523097 18685 net.cpp:130] Top shape: 1 16 8192 (131072)
I0219 11:04:30.523105 18685 layer_factory.hpp:74] Creating layer lstm2_unit_5
I0219 11:04:30.523116 18685 net.cpp:94] Creating Layer lstm2_unit_5
I0219 11:04:30.523138 18685 net.cpp:391] lstm2_unit_5 <- c_4
I0219 11:04:30.523149 18685 net.cpp:391] lstm2_unit_5 <- gate_input_5
I0219 11:04:30.523159 18685 net.cpp:391] lstm2_unit_5 <- cont_5_lstm2_cont_slice_4_split_1
I0219 11:04:30.523185 18685 net.cpp:349] lstm2_unit_5 -> c_5
I0219 11:04:30.523200 18685 net.cpp:349] lstm2_unit_5 -> h_5
I0219 11:04:30.523226 18685 net.cpp:123] Setting up lstm2_unit_5
I0219 11:04:30.523238 18685 net.cpp:130] Top shape: 1 16 2048 (32768)
I0219 11:04:30.523249 18685 net.cpp:130] Top shape: 1 16 2048 (32768)
I0219 11:04:30.523322 18685 layer_factory.hpp:74] Creating layer h_5_lstm2_unit_5_1_split
I0219 11:04:30.523334 18685 net.cpp:94] Creating Layer h_5_lstm2_unit_5_1_split
I0219 11:04:30.523344 18685 net.cpp:391] h_5_lstm2_unit_5_1_split <- h_5
I0219 11:04:30.523370 18685 net.cpp:349] h_5_lstm2_unit_5_1_split -> h_5_lstm2_unit_5_1_split_0
I0219 11:04:30.523382 18685 net.cpp:349] h_5_lstm2_unit_5_1_split -> h_5_lstm2_unit_5_1_split_1
I0219 11:04:30.523394 18685 net.cpp:123] Setting up h_5_lstm2_unit_5_1_split
I0219 11:04:30.523409 18685 net.cpp:130] Top shape: 1 16 2048 (32768)
I0219 11:04:30.523422 18685 net.cpp:130] Top shape: 1 16 2048 (32768)
I0219 11:04:30.523444 18685 layer_factory.hpp:74] Creating layer lstm2_h_conted_5
I0219 11:04:30.523457 18685 net.cpp:94] Creating Layer lstm2_h_conted_5
I0219 11:04:30.523465 18685 net.cpp:391] lstm2_h_conted_5 <- h_5_lstm2_unit_5_1_split_0
I0219 11:04:30.523488 18685 net.cpp:391] lstm2_h_conted_5 <- cont_6_lstm2_cont_slice_5_split_0
I0219 11:04:30.523502 18685 net.cpp:349] lstm2_h_conted_5 -> h_conted_5
I0219 11:04:30.523514 18685 net.cpp:123] Setting up lstm2_h_conted_5
I0219 11:04:30.523530 18685 net.cpp:130] Top shape: 1 16 2048 (32768)
I0219 11:04:30.523537 18685 layer_factory.hpp:74] Creating layer lstm2_transform_6
I0219 11:04:30.523553 18685 net.cpp:94] Creating Layer lstm2_transform_6
I0219 11:04:30.523562 18685 net.cpp:391] lstm2_transform_6 <- h_conted_5
I0219 11:04:30.523576 18685 net.cpp:349] lstm2_transform_6 -> W_hc_h_5
I0219 11:04:30.523620 18685 net.cpp:123] Setting up lstm2_transform_6
I0219 11:04:30.630127 18685 net.cpp:130] Top shape: 1 16 8192 (131072)
I0219 11:04:30.630159 18685 net.cpp:435] Sharing parameters 'W_hc' owned by layer 'lstm2_transform_1', param index 0
I0219 11:04:30.630169 18685 layer_factory.hpp:74] Creating layer lstm2_gate_input_6
I0219 11:04:30.630185 18685 net.cpp:94] Creating Layer lstm2_gate_input_6
I0219 11:04:30.630199 18685 net.cpp:391] lstm2_gate_input_6 <- W_hc_h_5
I0219 11:04:30.630234 18685 net.cpp:391] lstm2_gate_input_6 <- W_xc_x_6
I0219 11:04:30.630303 18685 net.cpp:349] lstm2_gate_input_6 -> gate_input_6
I0219 11:04:30.630321 18685 net.cpp:123] Setting up lstm2_gate_input_6
I0219 11:04:30.630350 18685 net.cpp:130] Top shape: 1 16 8192 (131072)
I0219 11:04:30.630359 18685 layer_factory.hpp:74] Creating layer lstm2_unit_6
I0219 11:04:30.630370 18685 net.cpp:94] Creating Layer lstm2_unit_6
I0219 11:04:30.630394 18685 net.cpp:391] lstm2_unit_6 <- c_5
I0219 11:04:30.630422 18685 net.cpp:391] lstm2_unit_6 <- gate_input_6
I0219 11:04:30.630434 18685 net.cpp:391] lstm2_unit_6 <- cont_6_lstm2_cont_slice_5_split_1
I0219 11:04:30.630445 18685 net.cpp:349] lstm2_unit_6 -> c_6
I0219 11:04:30.630475 18685 net.cpp:349] lstm2_unit_6 -> h_6
I0219 11:04:30.630487 18685 net.cpp:123] Setting up lstm2_unit_6
I0219 11:04:30.630502 18685 net.cpp:130] Top shape: 1 16 2048 (32768)
I0219 11:04:30.630528 18685 net.cpp:130] Top shape: 1 16 2048 (32768)
I0219 11:04:30.630537 18685 layer_factory.hpp:74] Creating layer h_6_lstm2_unit_6_1_split
I0219 11:04:30.630549 18685 net.cpp:94] Creating Layer h_6_lstm2_unit_6_1_split
I0219 11:04:30.630573 18685 net.cpp:391] h_6_lstm2_unit_6_1_split <- h_6
I0219 11:04:30.630586 18685 net.cpp:349] h_6_lstm2_unit_6_1_split -> h_6_lstm2_unit_6_1_split_0
I0219 11:04:30.630599 18685 net.cpp:349] h_6_lstm2_unit_6_1_split -> h_6_lstm2_unit_6_1_split_1
I0219 11:04:30.630614 18685 net.cpp:123] Setting up h_6_lstm2_unit_6_1_split
I0219 11:04:30.630640 18685 net.cpp:130] Top shape: 1 16 2048 (32768)
I0219 11:04:30.630650 18685 net.cpp:130] Top shape: 1 16 2048 (32768)
I0219 11:04:30.630657 18685 layer_factory.hpp:74] Creating layer lstm2_h_conted_6
I0219 11:04:30.630668 18685 net.cpp:94] Creating Layer lstm2_h_conted_6
I0219 11:04:30.630679 18685 net.cpp:391] lstm2_h_conted_6 <- h_6_lstm2_unit_6_1_split_0
I0219 11:04:30.630702 18685 net.cpp:391] lstm2_h_conted_6 <- cont_7_lstm2_cont_slice_6_split_0
I0219 11:04:30.630713 18685 net.cpp:349] lstm2_h_conted_6 -> h_conted_6
I0219 11:04:30.630727 18685 net.cpp:123] Setting up lstm2_h_conted_6
I0219 11:04:30.630741 18685 net.cpp:130] Top shape: 1 16 2048 (32768)
I0219 11:04:30.630761 18685 layer_factory.hpp:74] Creating layer lstm2_transform_7
I0219 11:04:30.630776 18685 net.cpp:94] Creating Layer lstm2_transform_7
I0219 11:04:30.630796 18685 net.cpp:391] lstm2_transform_7 <- h_conted_6
I0219 11:04:30.630811 18685 net.cpp:349] lstm2_transform_7 -> W_hc_h_6
I0219 11:04:30.630837 18685 net.cpp:123] Setting up lstm2_transform_7
I0219 11:04:30.736484 18685 net.cpp:130] Top shape: 1 16 8192 (131072)
I0219 11:04:30.736522 18685 net.cpp:435] Sharing parameters 'W_hc' owned by layer 'lstm2_transform_1', param index 0
I0219 11:04:30.736532 18685 layer_factory.hpp:74] Creating layer lstm2_gate_input_7
I0219 11:04:30.736549 18685 net.cpp:94] Creating Layer lstm2_gate_input_7
I0219 11:04:30.736559 18685 net.cpp:391] lstm2_gate_input_7 <- W_hc_h_6
I0219 11:04:30.736600 18685 net.cpp:391] lstm2_gate_input_7 <- W_xc_x_7
I0219 11:04:30.736626 18685 net.cpp:349] lstm2_gate_input_7 -> gate_input_7
I0219 11:04:30.736644 18685 net.cpp:123] Setting up lstm2_gate_input_7
I0219 11:04:30.736675 18685 net.cpp:130] Top shape: 1 16 8192 (131072)
I0219 11:04:30.736685 18685 layer_factory.hpp:74] Creating layer lstm2_unit_7
I0219 11:04:30.736696 18685 net.cpp:94] Creating Layer lstm2_unit_7
I0219 11:04:30.736721 18685 net.cpp:391] lstm2_unit_7 <- c_6
I0219 11:04:30.736732 18685 net.cpp:391] lstm2_unit_7 <- gate_input_7
I0219 11:04:30.736742 18685 net.cpp:391] lstm2_unit_7 <- cont_7_lstm2_cont_slice_6_split_1
I0219 11:04:30.736788 18685 net.cpp:349] lstm2_unit_7 -> c_7
I0219 11:04:30.736815 18685 net.cpp:349] lstm2_unit_7 -> h_7
I0219 11:04:30.736829 18685 net.cpp:123] Setting up lstm2_unit_7
I0219 11:04:30.736843 18685 net.cpp:130] Top shape: 1 16 2048 (32768)
I0219 11:04:30.736855 18685 net.cpp:130] Top shape: 1 16 2048 (32768)
I0219 11:04:30.736863 18685 layer_factory.hpp:74] Creating layer h_7_lstm2_unit_7_1_split
I0219 11:04:30.736881 18685 net.cpp:94] Creating Layer h_7_lstm2_unit_7_1_split
I0219 11:04:30.736891 18685 net.cpp:391] h_7_lstm2_unit_7_1_split <- h_7
I0219 11:04:30.736903 18685 net.cpp:349] h_7_lstm2_unit_7_1_split -> h_7_lstm2_unit_7_1_split_0
I0219 11:04:30.736917 18685 net.cpp:349] h_7_lstm2_unit_7_1_split -> h_7_lstm2_unit_7_1_split_1
I0219 11:04:30.736943 18685 net.cpp:123] Setting up h_7_lstm2_unit_7_1_split
I0219 11:04:30.736956 18685 net.cpp:130] Top shape: 1 16 2048 (32768)
I0219 11:04:30.736968 18685 net.cpp:130] Top shape: 1 16 2048 (32768)
I0219 11:04:30.736989 18685 layer_factory.hpp:74] Creating layer lstm2_h_conted_7
I0219 11:04:30.737000 18685 net.cpp:94] Creating Layer lstm2_h_conted_7
I0219 11:04:30.737010 18685 net.cpp:391] lstm2_h_conted_7 <- h_7_lstm2_unit_7_1_split_0
I0219 11:04:30.737020 18685 net.cpp:391] lstm2_h_conted_7 <- cont_8_lstm2_cont_slice_7_split_0
I0219 11:04:30.737046 18685 net.cpp:349] lstm2_h_conted_7 -> h_conted_7
I0219 11:04:30.737058 18685 net.cpp:123] Setting up lstm2_h_conted_7
I0219 11:04:30.737071 18685 net.cpp:130] Top shape: 1 16 2048 (32768)
I0219 11:04:30.737082 18685 layer_factory.hpp:74] Creating layer lstm2_transform_8
I0219 11:04:30.737095 18685 net.cpp:94] Creating Layer lstm2_transform_8
I0219 11:04:30.737105 18685 net.cpp:391] lstm2_transform_8 <- h_conted_7
I0219 11:04:30.737118 18685 net.cpp:349] lstm2_transform_8 -> W_hc_h_7
I0219 11:04:30.737131 18685 net.cpp:123] Setting up lstm2_transform_8
I0219 11:04:30.842950 18685 net.cpp:130] Top shape: 1 16 8192 (131072)
I0219 11:04:30.842983 18685 net.cpp:435] Sharing parameters 'W_hc' owned by layer 'lstm2_transform_1', param index 0
I0219 11:04:30.842993 18685 layer_factory.hpp:74] Creating layer lstm2_gate_input_8
I0219 11:04:30.843008 18685 net.cpp:94] Creating Layer lstm2_gate_input_8
I0219 11:04:30.843019 18685 net.cpp:391] lstm2_gate_input_8 <- W_hc_h_7
I0219 11:04:30.843030 18685 net.cpp:391] lstm2_gate_input_8 <- W_xc_x_8
I0219 11:04:30.843070 18685 net.cpp:349] lstm2_gate_input_8 -> gate_input_8
I0219 11:04:30.843088 18685 net.cpp:123] Setting up lstm2_gate_input_8
I0219 11:04:30.843114 18685 net.cpp:130] Top shape: 1 16 8192 (131072)
I0219 11:04:30.843123 18685 layer_factory.hpp:74] Creating layer lstm2_unit_8
I0219 11:04:30.843134 18685 net.cpp:94] Creating Layer lstm2_unit_8
I0219 11:04:30.843163 18685 net.cpp:391] lstm2_unit_8 <- c_7
I0219 11:04:30.843174 18685 net.cpp:391] lstm2_unit_8 <- gate_input_8
I0219 11:04:30.843185 18685 net.cpp:391] lstm2_unit_8 <- cont_8_lstm2_cont_slice_7_split_1
I0219 11:04:30.843209 18685 net.cpp:349] lstm2_unit_8 -> c_8
I0219 11:04:30.843224 18685 net.cpp:349] lstm2_unit_8 -> h_8
I0219 11:04:30.843248 18685 net.cpp:123] Setting up lstm2_unit_8
I0219 11:04:30.843318 18685 net.cpp:130] Top shape: 1 16 2048 (32768)
I0219 11:04:30.843329 18685 net.cpp:130] Top shape: 1 16 2048 (32768)
I0219 11:04:30.843338 18685 layer_factory.hpp:74] Creating layer lstm2_
I0219 11:04:30.843360 18685 net.cpp:94] Creating Layer lstm2_
I0219 11:04:30.843369 18685 net.cpp:391] lstm2_ <- c_8
I0219 11:04:30.843380 18685 net.cpp:349] lstm2_ -> c_T
I0219 11:04:30.843394 18685 net.cpp:123] Setting up lstm2_
I0219 11:04:30.843407 18685 net.cpp:130] Top shape: 1 16 2048 (32768)
I0219 11:04:30.843417 18685 layer_factory.hpp:74] Creating layer lstm2_h_concat
I0219 11:04:30.843432 18685 net.cpp:94] Creating Layer lstm2_h_concat
I0219 11:04:30.843442 18685 net.cpp:391] lstm2_h_concat <- h_1_lstm2_unit_1_1_split_1
I0219 11:04:30.843452 18685 net.cpp:391] lstm2_h_concat <- h_2_lstm2_unit_2_1_split_1
I0219 11:04:30.843473 18685 net.cpp:391] lstm2_h_concat <- h_3_lstm2_unit_3_1_split_1
I0219 11:04:30.843526 18685 net.cpp:391] lstm2_h_concat <- h_4_lstm2_unit_4_1_split_1
I0219 11:04:30.843536 18685 net.cpp:391] lstm2_h_concat <- h_5_lstm2_unit_5_1_split_1
I0219 11:04:30.843545 18685 net.cpp:391] lstm2_h_concat <- h_6_lstm2_unit_6_1_split_1
I0219 11:04:30.843554 18685 net.cpp:391] lstm2_h_concat <- h_7_lstm2_unit_7_1_split_1
I0219 11:04:30.843561 18685 net.cpp:391] lstm2_h_concat <- h_8
I0219 11:04:30.843592 18685 net.cpp:349] lstm2_h_concat -> h
I0219 11:04:30.843605 18685 net.cpp:123] Setting up lstm2_h_concat
I0219 11:04:30.843621 18685 net.cpp:130] Top shape: 8 16 2048 (262144)
I0219 11:04:30.843629 18685 net.cpp:179] lstm2_h_concat does not need backward computation.
I0219 11:04:30.843637 18685 net.cpp:179] lstm2_ does not need backward computation.
I0219 11:04:30.843644 18685 net.cpp:179] lstm2_unit_8 does not need backward computation.
I0219 11:04:30.843652 18685 net.cpp:179] lstm2_gate_input_8 does not need backward computation.
I0219 11:04:30.843659 18685 net.cpp:179] lstm2_transform_8 does not need backward computation.
…
