…
I0308 19:49:59.911367 27741 net.cpp:268] The NetState phase (0) differed from the phase (1) specified by a rule in layer loss
I0308 19:49:59.911622 27741 net.cpp:52] Initializing net from parameters: 
name: "TORCS_Net"
state {
  phase: TRAIN
}
layer {
  name: "data"
  type: "DataLstmTrainHist"
  top: "data"
  top: "label"
  top: "hist"
  top: "marker"
  include {
    phase: TRAIN
  }
  data_lstm_train_hist_param {
    source: "nonparametric/data/TORCS_smooth_np_train"
    sequence_size: 8
    sequence_num: 16
    interval: 200
    mean_file: "nonparametric/data/TORCS_smooth_np_train_mean.binaryproto"
  }
}
layer {
  name: "conv1"
  type: "Convolution"
  bottom: "data"
  top: "conv1"
  param {
    lr_mult: 1
    decay_mult: 1
  }
  param {
    lr_mult: 2
    decay_mult: 0
  }
  convolution_param {
    num_output: 96
    kernel_size: 11
    stride: 4
    weight_filler {
      type: "gaussian"
      std: 0.01
    }
    bias_filler {
      type: "constant"
      value: 0
    }
  }
}
layer {
  name: "nprelu1"
  type: "NonParaReLUSinCos"
  bottom: "conv1"
  top: "conv1"
}
layer {
  name: "pool1"
  type: "Pooling"
  bottom: "conv1"
  top: "pool1"
  pooling_param {
    pool: MAX
    kernel_size: 3
    stride: 2
  }
}
layer {
  name: "norm1"
  type: "LRN"
  bottom: "pool1"
  top: "norm1"
  lrn_param {
    local_size: 5
    alpha: 0.0001
    beta: 0.75
  }
}
layer {
  name: "conv2"
  type: "Convolution"
  bottom: "norm1"
  top: "conv2"
  param {
    lr_mult: 1
    decay_mult: 1
  }
  param {
    lr_mult: 2
    decay_mult: 0
  }
  convolution_param {
    num_output: 256
    pad: 2
    kernel_size: 5
    group: 2
    weight_filler {
      type: "gaussian"
      std: 0.01
    }
    bias_filler {
      type: "constant"
      value: 1
    }
  }
}
layer {
  name: "nprelu2"
  type: "NonParaReLUSinCos"
  bottom: "conv2"
  top: "conv2"
}
layer {
  name: "pool2"
  type: "Pooling"
  bottom: "conv2"
  top: "pool2"
  pooling_param {
    pool: MAX
    kernel_size: 3
    stride: 2
  }
}
layer {
  name: "norm2"
  type: "LRN"
  bottom: "pool2"
  top: "norm2"
  lrn_param {
    local_size: 5
    alpha: 0.0001
    beta: 0.75
  }
}
layer {
  name: "conv3"
  type: "Convolution"
  bottom: "norm2"
  top: "conv3"
  param {
    lr_mult: 1
    decay_mult: 1
  }
  param {
    lr_mult: 2
    decay_mult: 0
  }
  convolution_param {
    num_output: 384
    pad: 1
    kernel_size: 3
    weight_filler {
      type: "gaussian"
      std: 0.01
    }
    bias_filler {
      type: "constant"
      value: 0
    }
  }
}
layer {
  name: "nprelu3"
  type: "NonParaReLUSinCos"
  bottom: "conv3"
  top: "conv3"
}
layer {
  name: "conv4"
  type: "Convolution"
  bottom: "conv3"
  top: "conv4"
  param {
    lr_mult: 1
    decay_mult: 1
  }
  param {
    lr_mult: 2
    decay_mult: 0
  }
  convolution_param {
    num_output: 384
    pad: 1
    kernel_size: 3
    group: 2
    weight_filler {
      type: "gaussian"
      std: 0.01
    }
    bias_filler {
      type: "constant"
      value: 1
    }
  }
}
layer {
  name: "nprelu4"
  type: "NonParaReLUSinCos"
  bottom: "conv4"
  top: "conv4"
}
layer {
  name: "conv5"
  type: "Convolution"
  bottom: "conv4"
  top: "conv5"
  param {
    lr_mult: 1
    decay_mult: 1
  }
  param {
    lr_mult: 2
    decay_mult: 0
  }
  convolution_param {
    num_output: 256
    pad: 1
    kernel_size: 3
    group: 2
    weight_filler {
      type: "gaussian"
      std: 0.01
    }
    bias_filler {
      type: "constant"
      value: 1
    }
  }
}
layer {
  name: "nprelu5"
  type: "NonParaReLUSinCos"
  bottom: "conv5"
  top: "conv5"
}
layer {
  name: "pool5"
  type: "Pooling"
  bottom: "conv5"
  top: "pool5"
  pooling_param {
    pool: MAX
    kernel_size: 3
    stride: 2
  }
}
layer {
  name: "fc6"
  type: "InnerProduct"
  bottom: "pool5"
  top: "fc6"
  param {
    lr_mult: 1
    decay_mult: 1
  }
  param {
    lr_mult: 2
    decay_mult: 0
  }
  inner_product_param {
    num_output: 4096
    weight_filler {
      type: "gaussian"
      std: 0.005
    }
    bias_filler {
      type: "constant"
      value: 1
    }
  }
}
layer {
  name: "nprelu6"
  type: "NonParaReLUSinCos"
  bottom: "fc6"
  top: "fc6"
}
layer {
  name: "drop6"
  type: "Dropout"
  bottom: "fc6"
  top: "fc6"
  dropout_param {
    dropout_ratio: 0.5
  }
}
layer {
  name: "reshape-fc6"
  type: "Reshape"
  bottom: "fc6"
  top: "reshape-fc6"
  reshape_param {
    shape {
      dim: 8
      dim: 16
      dim: 4096
    }
  }
}
layer {
  name: "reshape-label"
  type: "Reshape"
  bottom: "label"
  top: "reshape-label"
  reshape_param {
    shape {
      dim: 8
      dim: 16
      dim: 14
    }
  }
}
layer {
  name: "reshape-hist"
  type: "Reshape"
  bottom: "hist"
  top: "reshape-hist"
  reshape_param {
    shape {
      dim: 8
      dim: 16
      dim: 14
    }
  }
}
layer {
  name: "reshape-marker"
  type: "Reshape"
  bottom: "marker"
  top: "reshape-marker"
  reshape_param {
    shape {
      dim: 8
      dim: 16
    }
  }
}
layer {
  name: "lstm1"
  type: "LSTM"
  bottom: "reshape-hist"
  bottom: "reshape-marker"
  top: "lstm1"
  recurrent_param {
    num_output: 128
    weight_filler {
      type: "uniform"
      min: -0.01
      max: 0.01
    }
    bias_filler {
      type: "constant"
      value: 0
    }
  }
}
layer {
  name: "lstm1-drop"
  type: "Dropout"
  bottom: "lstm1"
  top: "lstm1"
  dropout_param {
    dropout_ratio: 0.5
  }
}
layer {
  name: "concat"
  type: "Concat"
  bottom: "reshape-fc6"
  bottom: "lstm1"
  top: "concat-data"
  concat_param {
    axis: 2
  }
}
layer {
  name: "lstm2"
  type: "LSTM"
  bottom: "concat-data"
  bottom: "reshape-marker"
  top: "lstm2"
  recurrent_param {
    num_output: 2048
    weight_filler {
      type: "uniform"
      min: -0.01
      max: 0.01
    }
    bias_filler {
      type: "constant"
      value: 0
    }
  }
}
layer {
  name: "lstm2-drop"
  type: "Dropout"
  bottom: "lstm2"
  top: "lstm2"
  dropout_param {
    dropout_ratio: 0.5
  }
}
layer {
  name: "fc9c"
  type: "InnerProduct"
  bottom: "lstm2"
  top: "fc9c"
  param {
    lr_mult: 1
    decay_mult: 1
  }
  param {
    lr_mult: 2
    decay_mult: 0
  }
  inner_product_param {
    num_output: 14
    weight_filler {
      type: "gaussian"
      std: 0.01
    }
    bias_filler {
      type: "constant"
      value: 0
    }
    axis: 2
  }
}
layer {
  name: "relu9"
  type: "Sigmoid"
  bottom: "fc9c"
  top: "fc9c"
}
layer {
  name: "loss"
  type: "EuclideanLossDriving"
  bottom: "fc9c"
  bottom: "reshape-label"
  top: "loss"
  include {
    phase: TRAIN
  }
}
I0308 19:49:59.911841 27741 layer_factory.hpp:74] Creating layer data
I0308 19:49:59.911866 27741 net.cpp:94] Creating Layer data
I0308 19:49:59.911876 27741 net.cpp:349] data -> data
I0308 19:49:59.911903 27741 net.cpp:349] data -> label
I0308 19:49:59.911916 27741 net.cpp:349] data -> hist
I0308 19:49:59.911926 27741 net.cpp:349] data -> marker
I0308 19:49:59.911932 27741 net.cpp:123] Setting up data
I0308 19:49:59.911967 27741 data_lstm_train_hist_layer.cpp:50] Opening leveldb nonparametric/data/TORCS_smooth_np_train
I0308 19:49:59.914830 27741 data_lstm_train_hist_layer.cpp:90] output data size: 128,3,210,280
I0308 19:49:59.914844 27741 data_lstm_train_hist_layer.cpp:107] Loading mean file from: nonparametric/data/TORCS_smooth_np_train_mean.binaryproto
I0308 19:49:59.947021 27741 net.cpp:130] Top shape: 128 3 210 280 (22579200)
I0308 19:49:59.947033 27741 net.cpp:130] Top shape: 128 1 1 14 (1792)
I0308 19:49:59.947039 27741 net.cpp:130] Top shape: 128 1 1 14 (1792)
I0308 19:49:59.947046 27741 net.cpp:130] Top shape: 128 1 1 1 (128)
I0308 19:49:59.947065 27741 layer_factory.hpp:74] Creating layer conv1
I0308 19:49:59.947124 27741 net.cpp:94] Creating Layer conv1
I0308 19:49:59.947134 27741 net.cpp:391] conv1 <- data
I0308 19:49:59.947181 27741 net.cpp:349] conv1 -> conv1
I0308 19:49:59.947197 27741 net.cpp:123] Setting up conv1
I0308 19:49:59.948472 27741 net.cpp:130] Top shape: 128 96 50 68 (41779200)
I0308 19:49:59.948490 27741 layer_factory.hpp:74] Creating layer nprelu1
I0308 19:49:59.948503 27741 net.cpp:94] Creating Layer nprelu1
I0308 19:49:59.948508 27741 net.cpp:391] nprelu1 <- conv1
I0308 19:49:59.948516 27741 net.cpp:338] nprelu1 -> conv1 (in-place)
I0308 19:49:59.948523 27741 net.cpp:123] Setting up nprelu1
I0308 19:49:59.949939 27741 net.cpp:130] Top shape: 128 96 50 68 (41779200)
I0308 19:49:59.949954 27741 layer_factory.hpp:74] Creating layer pool1
I0308 19:49:59.949962 27741 net.cpp:94] Creating Layer pool1
I0308 19:49:59.949968 27741 net.cpp:391] pool1 <- conv1
I0308 19:49:59.949975 27741 net.cpp:349] pool1 -> pool1
I0308 19:49:59.949985 27741 net.cpp:123] Setting up pool1
I0308 19:49:59.950006 27741 net.cpp:130] Top shape: 128 96 25 34 (10444800)
I0308 19:49:59.950017 27741 layer_factory.hpp:74] Creating layer norm1
I0308 19:49:59.950031 27741 net.cpp:94] Creating Layer norm1
I0308 19:49:59.950048 27741 net.cpp:391] norm1 <- pool1
I0308 19:49:59.950057 27741 net.cpp:349] norm1 -> norm1
I0308 19:49:59.950064 27741 net.cpp:123] Setting up norm1
I0308 19:49:59.950075 27741 net.cpp:130] Top shape: 128 96 25 34 (10444800)
I0308 19:49:59.950080 27741 layer_factory.hpp:74] Creating layer conv2
I0308 19:49:59.950088 27741 net.cpp:94] Creating Layer conv2
I0308 19:49:59.950093 27741 net.cpp:391] conv2 <- norm1
I0308 19:49:59.950100 27741 net.cpp:349] conv2 -> conv2
I0308 19:49:59.950109 27741 net.cpp:123] Setting up conv2
I0308 19:49:59.958667 27741 net.cpp:130] Top shape: 128 256 25 34 (27852800)
I0308 19:49:59.958681 27741 layer_factory.hpp:74] Creating layer nprelu2
I0308 19:49:59.958689 27741 net.cpp:94] Creating Layer nprelu2
I0308 19:49:59.958694 27741 net.cpp:391] nprelu2 <- conv2
I0308 19:49:59.958701 27741 net.cpp:338] nprelu2 -> conv2 (in-place)
I0308 19:49:59.958708 27741 net.cpp:123] Setting up nprelu2
I0308 19:49:59.959856 27741 net.cpp:130] Top shape: 128 256 25 34 (27852800)
I0308 19:49:59.959869 27741 layer_factory.hpp:74] Creating layer pool2
I0308 19:49:59.959877 27741 net.cpp:94] Creating Layer pool2
I0308 19:49:59.959882 27741 net.cpp:391] pool2 <- conv2
I0308 19:49:59.959889 27741 net.cpp:349] pool2 -> pool2
I0308 19:49:59.959897 27741 net.cpp:123] Setting up pool2
I0308 19:49:59.959906 27741 net.cpp:130] Top shape: 128 256 12 17 (6684672)
I0308 19:49:59.959913 27741 layer_factory.hpp:74] Creating layer norm2
I0308 19:49:59.959919 27741 net.cpp:94] Creating Layer norm2
I0308 19:49:59.959924 27741 net.cpp:391] norm2 <- pool2
I0308 19:49:59.959933 27741 net.cpp:349] norm2 -> norm2
I0308 19:49:59.959939 27741 net.cpp:123] Setting up norm2
I0308 19:49:59.959947 27741 net.cpp:130] Top shape: 128 256 12 17 (6684672)
I0308 19:49:59.959952 27741 layer_factory.hpp:74] Creating layer conv3
I0308 19:49:59.959959 27741 net.cpp:94] Creating Layer conv3
I0308 19:49:59.959964 27741 net.cpp:391] conv3 <- norm2
I0308 19:49:59.959971 27741 net.cpp:349] conv3 -> conv3
I0308 19:49:59.959978 27741 net.cpp:123] Setting up conv3
I0308 19:49:59.984030 27741 net.cpp:130] Top shape: 128 384 12 17 (10027008)
I0308 19:49:59.984046 27741 layer_factory.hpp:74] Creating layer nprelu3
I0308 19:49:59.984055 27741 net.cpp:94] Creating Layer nprelu3
I0308 19:49:59.984060 27741 net.cpp:391] nprelu3 <- conv3
I0308 19:49:59.984066 27741 net.cpp:338] nprelu3 -> conv3 (in-place)
I0308 19:49:59.984072 27741 net.cpp:123] Setting up nprelu3
I0308 19:49:59.984369 27741 net.cpp:130] Top shape: 128 384 12 17 (10027008)
I0308 19:49:59.984381 27741 layer_factory.hpp:74] Creating layer conv4
I0308 19:49:59.984390 27741 net.cpp:94] Creating Layer conv4
I0308 19:49:59.984395 27741 net.cpp:391] conv4 <- conv3
I0308 19:49:59.984402 27741 net.cpp:349] conv4 -> conv4
I0308 19:49:59.984422 27741 net.cpp:123] Setting up conv4
I0308 19:50:00.002611 27741 net.cpp:130] Top shape: 128 384 12 17 (10027008)
I0308 19:50:00.002624 27741 layer_factory.hpp:74] Creating layer nprelu4
I0308 19:50:00.002631 27741 net.cpp:94] Creating Layer nprelu4
I0308 19:50:00.002637 27741 net.cpp:391] nprelu4 <- conv4
I0308 19:50:00.002643 27741 net.cpp:338] nprelu4 -> conv4 (in-place)
I0308 19:50:00.002650 27741 net.cpp:123] Setting up nprelu4
I0308 19:50:00.002944 27741 net.cpp:130] Top shape: 128 384 12 17 (10027008)
I0308 19:50:00.002956 27741 layer_factory.hpp:74] Creating layer conv5
I0308 19:50:00.002964 27741 net.cpp:94] Creating Layer conv5
I0308 19:50:00.002969 27741 net.cpp:391] conv5 <- conv4
I0308 19:50:00.002976 27741 net.cpp:349] conv5 -> conv5
I0308 19:50:00.002984 27741 net.cpp:123] Setting up conv5
I0308 19:50:00.015096 27741 net.cpp:130] Top shape: 128 256 12 17 (6684672)
I0308 19:50:00.015112 27741 layer_factory.hpp:74] Creating layer nprelu5
I0308 19:50:00.015120 27741 net.cpp:94] Creating Layer nprelu5
I0308 19:50:00.015125 27741 net.cpp:391] nprelu5 <- conv5
I0308 19:50:00.015132 27741 net.cpp:338] nprelu5 -> conv5 (in-place)
I0308 19:50:00.015138 27741 net.cpp:123] Setting up nprelu5
I0308 19:50:00.015272 27741 net.cpp:130] Top shape: 128 256 12 17 (6684672)
I0308 19:50:00.015283 27741 layer_factory.hpp:74] Creating layer pool5
I0308 19:50:00.015291 27741 net.cpp:94] Creating Layer pool5
I0308 19:50:00.015296 27741 net.cpp:391] pool5 <- conv5
I0308 19:50:00.015302 27741 net.cpp:349] pool5 -> pool5
I0308 19:50:00.015311 27741 net.cpp:123] Setting up pool5
I0308 19:50:00.015318 27741 net.cpp:130] Top shape: 128 256 6 8 (1572864)
I0308 19:50:00.015323 27741 layer_factory.hpp:74] Creating layer fc6
I0308 19:50:00.015336 27741 net.cpp:94] Creating Layer fc6
I0308 19:50:00.015341 27741 net.cpp:391] fc6 <- pool5
I0308 19:50:00.015347 27741 net.cpp:349] fc6 -> fc6
I0308 19:50:00.015357 27741 net.cpp:123] Setting up fc6
I0308 19:50:01.304733 27741 net.cpp:130] Top shape: 128 4096 (524288)
I0308 19:50:01.304826 27741 layer_factory.hpp:74] Creating layer nprelu6
I0308 19:50:01.304864 27741 net.cpp:94] Creating Layer nprelu6
I0308 19:50:01.304874 27741 net.cpp:391] nprelu6 <- fc6
I0308 19:50:01.304884 27741 net.cpp:338] nprelu6 -> fc6 (in-place)
I0308 19:50:01.304894 27741 net.cpp:123] Setting up nprelu6
I0308 19:50:01.304946 27741 net.cpp:130] Top shape: 128 4096 (524288)
I0308 19:50:01.304956 27741 layer_factory.hpp:74] Creating layer drop6
I0308 19:50:01.304975 27741 net.cpp:94] Creating Layer drop6
I0308 19:50:01.304982 27741 net.cpp:391] drop6 <- fc6
I0308 19:50:01.304988 27741 net.cpp:338] drop6 -> fc6 (in-place)
I0308 19:50:01.305004 27741 net.cpp:123] Setting up drop6
I0308 19:50:01.305019 27741 net.cpp:130] Top shape: 128 4096 (524288)
I0308 19:50:01.305027 27741 layer_factory.hpp:74] Creating layer reshape-fc6
I0308 19:50:01.305037 27741 net.cpp:94] Creating Layer reshape-fc6
I0308 19:50:01.305043 27741 net.cpp:391] reshape-fc6 <- fc6
I0308 19:50:01.305052 27741 net.cpp:349] reshape-fc6 -> reshape-fc6
I0308 19:50:01.305064 27741 net.cpp:123] Setting up reshape-fc6
I0308 19:50:01.305079 27741 net.cpp:130] Top shape: 8 16 4096 (524288)
I0308 19:50:01.305086 27741 layer_factory.hpp:74] Creating layer reshape-label
I0308 19:50:01.305094 27741 net.cpp:94] Creating Layer reshape-label
I0308 19:50:01.305099 27741 net.cpp:391] reshape-label <- label
I0308 19:50:01.305105 27741 net.cpp:349] reshape-label -> reshape-label
I0308 19:50:01.305116 27741 net.cpp:123] Setting up reshape-label
I0308 19:50:01.305129 27741 net.cpp:130] Top shape: 8 16 14 (1792)
I0308 19:50:01.305135 27741 layer_factory.hpp:74] Creating layer reshape-hist
I0308 19:50:01.305141 27741 net.cpp:94] Creating Layer reshape-hist
I0308 19:50:01.305146 27741 net.cpp:391] reshape-hist <- hist
I0308 19:50:01.305153 27741 net.cpp:349] reshape-hist -> reshape-hist
I0308 19:50:01.305160 27741 net.cpp:123] Setting up reshape-hist
I0308 19:50:01.305167 27741 net.cpp:130] Top shape: 8 16 14 (1792)
I0308 19:50:01.305202 27741 layer_factory.hpp:74] Creating layer reshape-marker
I0308 19:50:01.305212 27741 net.cpp:94] Creating Layer reshape-marker
I0308 19:50:01.305217 27741 net.cpp:391] reshape-marker <- marker
I0308 19:50:01.305222 27741 net.cpp:349] reshape-marker -> reshape-marker
I0308 19:50:01.305230 27741 net.cpp:123] Setting up reshape-marker
I0308 19:50:01.305238 27741 net.cpp:130] Top shape: 8 16 (128)
I0308 19:50:01.305243 27741 layer_factory.hpp:74] Creating layer reshape-marker_reshape-marker_0_split
I0308 19:50:01.305253 27741 net.cpp:94] Creating Layer reshape-marker_reshape-marker_0_split
I0308 19:50:01.305258 27741 net.cpp:391] reshape-marker_reshape-marker_0_split <- reshape-marker
I0308 19:50:01.305264 27741 net.cpp:349] reshape-marker_reshape-marker_0_split -> reshape-marker_reshape-marker_0_split_0
I0308 19:50:01.305271 27741 net.cpp:349] reshape-marker_reshape-marker_0_split -> reshape-marker_reshape-marker_0_split_1
I0308 19:50:01.305279 27741 net.cpp:123] Setting up reshape-marker_reshape-marker_0_split
I0308 19:50:01.305287 27741 net.cpp:130] Top shape: 8 16 (128)
I0308 19:50:01.305294 27741 net.cpp:130] Top shape: 8 16 (128)
I0308 19:50:01.305299 27741 layer_factory.hpp:74] Creating layer lstm1
I0308 19:50:01.305308 27741 net.cpp:94] Creating Layer lstm1
I0308 19:50:01.305315 27741 net.cpp:391] lstm1 <- reshape-hist
I0308 19:50:01.305320 27741 net.cpp:391] lstm1 <- reshape-marker_reshape-marker_0_split_0
I0308 19:50:01.305327 27741 net.cpp:349] lstm1 -> lstm1
I0308 19:50:01.305336 27741 net.cpp:123] Setting up lstm1
I0308 19:50:01.305343 27741 recurrent_layer.cpp:27] Initializing recurrent layer: assuming input batch contains 8 timesteps of 16 independent streams.
I0308 19:50:01.305891 27741 net.cpp:52] Initializing net from parameters: 
input: "x"
input: "cont"
input: "c_0"
input: "h_0"
force_backward: true
input_shape {
  dim: 8
  dim: 16
  dim: 14
}
input_shape {
  dim: 1
  dim: 8
  dim: 16
}
input_shape {
  dim: 1
  dim: 16
  dim: 128
}
input_shape {
  dim: 1
  dim: 16
  dim: 128
}
layer {
  name: "lstm1_cont_slice"
  type: "Slice"
  bottom: "cont"
  top: "cont_1"
  top: "cont_2"
  top: "cont_3"
  top: "cont_4"
  top: "cont_5"
  top: "cont_6"
  top: "cont_7"
  top: "cont_8"
  slice_param {
    axis: 1
  }
}
layer {
  name: "lstm1_x_transform"
  type: "InnerProduct"
  bottom: "x"
  top: "W_xc_x"
  param {
    name: "W_xc"
  }
  param {
    name: "b_c"
  }
  inner_product_param {
    num_output: 512
    bias_term: true
    weight_filler {
      type: "uniform"
      min: -0.01
      max: 0.01
    }
    bias_filler {
      type: "constant"
      value: 0
    }
    axis: 2
  }
}
layer {
  name: "lstm1_W_xc_x_slice"
  type: "Slice"
  bottom: "W_xc_x"
  top: "W_xc_x_1"
  top: "W_xc_x_2"
  top: "W_xc_x_3"
  top: "W_xc_x_4"
  top: "W_xc_x_5"
  top: "W_xc_x_6"
  top: "W_xc_x_7"
  top: "W_xc_x_8"
  slice_param {
    axis: 0
  }
}
layer {
  name: "lstm1_h_conted_0"
  type: "Eltwise"
  bottom: "h_0"
  bottom: "cont_1"
  top: "h_conted_0"
  eltwise_param {
    operation: SUM
    coeff_blob: true
  }
}
layer {
  name: "lstm1_transform_1"
  type: "InnerProduct"
  bottom: "h_conted_0"
  top: "W_hc_h_0"
  param {
    name: "W_hc"
  }
  inner_product_param {
    num_output: 512
    bias_term: false
    weight_filler {
      type: "uniform"
      min: -0.01
      max: 0.01
    }
    axis: 2
  }
}
layer {
  name: "lstm1_gate_input_1"
  type: "Eltwise"
  bottom: "W_hc_h_0"
  bottom: "W_xc_x_1"
  top: "gate_input_1"
  eltwise_param {
    operation: SUM
  }
}
layer {
  name: "lstm1_unit_1"
  type: "LSTMUnit"
  bottom: "c_0"
  bottom: "gate_input_1"
  bottom: "cont_1"
  top: "c_1"
  top: "h_1"
}
layer {
  name: "lstm1_h_conted_1"
  type: "Eltwise"
  bottom: "h_1"
  bottom: "cont_2"
  top: "h_conted_1"
  eltwise_param {
    operation: SUM
    coeff_blob: true
  }
}
layer {
  name: "lstm1_transform_2"
  type: "InnerProduct"
  bottom: "h_conted_1"
  top: "W_hc_h_1"
  param {
    name: "W_hc"
  }
  inner_product_param {
    num_output: 512
    bias_term: false
    weight_filler {
      type: "uniform"
      min: -0.01
      max: 0.01
    }
    axis: 2
  }
}
layer {
  name: "lstm1_gate_input_2"
  type: "Eltwise"
  bottom: "W_hc_h_1"
  bottom: "W_xc_x_2"
  top: "gate_input_2"
  eltwise_param {
    operation: SUM
  }
}
layer {
  name: "lstm1_unit_2"
  type: "LSTMUnit"
  bottom: "c_1"
  bottom: "gate_input_2"
  bottom: "cont_2"
  top: "c_2"
  top: "h_2"
}
layer {
  name: "lstm1_h_conted_2"
  type: "Eltwise"
  bottom: "h_2"
  bottom: "cont_3"
  top: "h_conted_2"
  eltwise_param {
    operation: SUM
    coeff_blob: true
  }
}
layer {
  name: "lstm1_transform_3"
  type: "InnerProduct"
  bottom: "h_conted_2"
  top: "W_hc_h_2"
  param {
    name: "W_hc"
  }
  inner_product_param {
    num_output: 512
    bias_term: false
    weight_filler {
      type: "uniform"
      min: -0.01
      max: 0.01
    }
    axis: 2
  }
}
layer {
  name: "lstm1_gate_input_3"
  type: "Eltwise"
  bottom: "W_hc_h_2"
  bottom: "W_xc_x_3"
  top: "gate_input_3"
  eltwise_param {
    operation: SUM
  }
}
layer {
  name: "lstm1_unit_3"
  type: "LSTMUnit"
  bottom: "c_2"
  bottom: "gate_input_3"
  bottom: "cont_3"
  top: "c_3"
  top: "h_3"
}
layer {
  name: "lstm1_h_conted_3"
  type: "Eltwise"
  bottom: "h_3"
  bottom: "cont_4"
  top: "h_conted_3"
  eltwise_param {
    operation: SUM
    coeff_blob: true
  }
}
layer {
  name: "lstm1_transform_4"
  type: "InnerProduct"
  bottom: "h_conted_3"
  top: "W_hc_h_3"
  param {
    name: "W_hc"
  }
  inner_product_param {
    num_output: 512
    bias_term: false
    weight_filler {
      type: "uniform"
      min: -0.01
      max: 0.01
    }
    axis: 2
  }
}
layer {
  name: "lstm1_gate_input_4"
  type: "Eltwise"
  bottom: "W_hc_h_3"
  bottom: "W_xc_x_4"
  top: "gate_input_4"
  eltwise_param {
    operation: SUM
  }
}
layer {
  name: "lstm1_unit_4"
  type: "LSTMUnit"
  bottom: "c_3"
  bottom: "gate_input_4"
  bottom: "cont_4"
  top: "c_4"
  top: "h_4"
}
layer {
  name: "lstm1_h_conted_4"
  type: "Eltwise"
  bottom: "h_4"
  bottom: "cont_5"
  top: "h_conted_4"
  eltwise_param {
    operation: SUM
    coeff_blob: true
  }
}
layer {
  name: "lstm1_transform_5"
  type: "InnerProduct"
  bottom: "h_conted_4"
  top: "W_hc_h_4"
  param {
    name: "W_hc"
  }
  inner_product_param {
    num_output: 512
    bias_term: false
    weight_filler {
      type: "uniform"
      min: -0.01
      max: 0.01
    }
    axis: 2
  }
}
layer {
  name: "lstm1_gate_input_5"
  type: "Eltwise"
  bottom: "W_hc_h_4"
  bottom: "W_xc_x_5"
  top: "gate_input_5"
  eltwise_param {
    operation: SUM
  }
}
layer {
  name: "lstm1_unit_5"
  type: "LSTMUnit"
  bottom: "c_4"
  bottom: "gate_input_5"
  bottom: "cont_5"
  top: "c_5"
  top: "h_5"
}
layer {
  name: "lstm1_h_conted_5"
  type: "Eltwise"
  bottom: "h_5"
  bottom: "cont_6"
  top: "h_conted_5"
  eltwise_param {
    operation: SUM
    coeff_blob: true
  }
}
layer {
  name: "lstm1_transform_6"
  type: "InnerProduct"
  bottom: "h_conted_5"
  top: "W_hc_h_5"
  param {
    name: "W_hc"
  }
  inner_product_param {
    num_output: 512
    bias_term: false
    weight_filler {
      type: "uniform"
      min: -0.01
      max: 0.01
    }
    axis: 2
  }
}
layer {
  name: "lstm1_gate_input_6"
  type: "Eltwise"
  bottom: "W_hc_h_5"
  bottom: "W_xc_x_6"
  top: "gate_input_6"
  eltwise_param {
    operation: SUM
  }
}
layer {
  name: "lstm1_unit_6"
  type: "LSTMUnit"
  bottom: "c_5"
  bottom: "gate_input_6"
  bottom: "cont_6"
  top: "c_6"
  top: "h_6"
}
layer {
  name: "lstm1_h_conted_6"
  type: "Eltwise"
  bottom: "h_6"
  bottom: "cont_7"
  top: "h_conted_6"
  eltwise_param {
    operation: SUM
    coeff_blob: true
  }
}
layer {
  name: "lstm1_transform_7"
  type: "InnerProduct"
  bottom: "h_conted_6"
  top: "W_hc_h_6"
  param {
    name: "W_hc"
  }
  inner_product_param {
    num_output: 512
    bias_term: false
    weight_filler {
      type: "uniform"
      min: -0.01
      max: 0.01
    }
    axis: 2
  }
}
layer {
  name: "lstm1_gate_input_7"
  type: "Eltwise"
  bottom: "W_hc_h_6"
  bottom: "W_xc_x_7"
  top: "gate_input_7"
  eltwise_param {
    operation: SUM
  }
}
layer {
  name: "lstm1_unit_7"
  type: "LSTMUnit"
  bottom: "c_6"
  bottom: "gate_input_7"
  bottom: "cont_7"
  top: "c_7"
  top: "h_7"
}
layer {
  name: "lstm1_h_conted_7"
  type: "Eltwise"
  bottom: "h_7"
  bottom: "cont_8"
  top: "h_conted_7"
  eltwise_param {
    operation: SUM
    coeff_blob: true
  }
}
layer {
  name: "lstm1_transform_8"
  type: "InnerProduct"
  bottom: "h_conted_7"
  top: "W_hc_h_7"
  param {
    name: "W_hc"
  }
  inner_product_param {
    num_output: 512
    bias_term: false
    weight_filler {
      type: "uniform"
      min: -0.01
      max: 0.01
    }
    axis: 2
  }
}
layer {
  name: "lstm1_gate_input_8"
  type: "Eltwise"
  bottom: "W_hc_h_7"
  bottom: "W_xc_x_8"
  top: "gate_input_8"
  eltwise_param {
    operation: SUM
  }
}
layer {
  name: "lstm1_unit_8"
  type: "LSTMUnit"
  bottom: "c_7"
  bottom: "gate_input_8"
  bottom: "cont_8"
  top: "c_8"
  top: "h_8"
}
layer {
  name: "lstm1_"
  type: "Split"
  bottom: "c_8"
  top: "c_T"
}
layer {
  name: "lstm1_h_concat"
  type: "Concat"
  bottom: "h_1"
  bottom: "h_2"
  bottom: "h_3"
  bottom: "h_4"
  bottom: "h_5"
  bottom: "h_6"
  bottom: "h_7"
  bottom: "h_8"
  top: "h"
  concat_param {
    axis: 0
  }
}
I0308 19:50:01.306159 27741 net.cpp:351] Input 0 -> x
I0308 19:50:01.306169 27741 net.cpp:351] Input 1 -> cont
I0308 19:50:01.306175 27741 net.cpp:351] Input 2 -> c_0
I0308 19:50:01.306181 27741 net.cpp:351] Input 3 -> h_0
I0308 19:50:01.306193 27741 layer_factory.hpp:74] Creating layer lstm1_cont_slice
I0308 19:50:01.306206 27741 net.cpp:94] Creating Layer lstm1_cont_slice
I0308 19:50:01.306211 27741 net.cpp:391] lstm1_cont_slice <- cont
I0308 19:50:01.306217 27741 net.cpp:349] lstm1_cont_slice -> cont_1
I0308 19:50:01.306226 27741 net.cpp:349] lstm1_cont_slice -> cont_2
I0308 19:50:01.306232 27741 net.cpp:349] lstm1_cont_slice -> cont_3
I0308 19:50:01.306238 27741 net.cpp:349] lstm1_cont_slice -> cont_4
I0308 19:50:01.306246 27741 net.cpp:349] lstm1_cont_slice -> cont_5
I0308 19:50:01.306252 27741 net.cpp:349] lstm1_cont_slice -> cont_6
I0308 19:50:01.306258 27741 net.cpp:349] lstm1_cont_slice -> cont_7
I0308 19:50:01.306264 27741 net.cpp:349] lstm1_cont_slice -> cont_8
I0308 19:50:01.306272 27741 net.cpp:123] Setting up lstm1_cont_slice
I0308 19:50:01.306283 27741 net.cpp:130] Top shape: 1 1 16 (16)
I0308 19:50:01.306289 27741 net.cpp:130] Top shape: 1 1 16 (16)
I0308 19:50:01.306294 27741 net.cpp:130] Top shape: 1 1 16 (16)
I0308 19:50:01.306299 27741 net.cpp:130] Top shape: 1 1 16 (16)
I0308 19:50:01.306303 27741 net.cpp:130] Top shape: 1 1 16 (16)
I0308 19:50:01.306308 27741 net.cpp:130] Top shape: 1 1 16 (16)
I0308 19:50:01.306313 27741 net.cpp:130] Top shape: 1 1 16 (16)
I0308 19:50:01.306318 27741 net.cpp:130] Top shape: 1 1 16 (16)
I0308 19:50:01.306324 27741 layer_factory.hpp:74] Creating layer cont_1_lstm1_cont_slice_0_split
I0308 19:50:01.306329 27741 net.cpp:94] Creating Layer cont_1_lstm1_cont_slice_0_split
I0308 19:50:01.306334 27741 net.cpp:391] cont_1_lstm1_cont_slice_0_split <- cont_1
I0308 19:50:01.306339 27741 net.cpp:349] cont_1_lstm1_cont_slice_0_split -> cont_1_lstm1_cont_slice_0_split_0
I0308 19:50:01.306345 27741 net.cpp:349] cont_1_lstm1_cont_slice_0_split -> cont_1_lstm1_cont_slice_0_split_1
I0308 19:50:01.306351 27741 net.cpp:123] Setting up cont_1_lstm1_cont_slice_0_split
I0308 19:50:01.306357 27741 net.cpp:130] Top shape: 1 1 16 (16)
I0308 19:50:01.306362 27741 net.cpp:130] Top shape: 1 1 16 (16)
I0308 19:50:01.306366 27741 layer_factory.hpp:74] Creating layer cont_2_lstm1_cont_slice_1_split
I0308 19:50:01.306372 27741 net.cpp:94] Creating Layer cont_2_lstm1_cont_slice_1_split
I0308 19:50:01.306376 27741 net.cpp:391] cont_2_lstm1_cont_slice_1_split <- cont_2
I0308 19:50:01.306382 27741 net.cpp:349] cont_2_lstm1_cont_slice_1_split -> cont_2_lstm1_cont_slice_1_split_0
I0308 19:50:01.306388 27741 net.cpp:349] cont_2_lstm1_cont_slice_1_split -> cont_2_lstm1_cont_slice_1_split_1
I0308 19:50:01.306393 27741 net.cpp:123] Setting up cont_2_lstm1_cont_slice_1_split
I0308 19:50:01.306404 27741 net.cpp:130] Top shape: 1 1 16 (16)
I0308 19:50:01.306409 27741 net.cpp:130] Top shape: 1 1 16 (16)
I0308 19:50:01.306421 27741 layer_factory.hpp:74] Creating layer cont_3_lstm1_cont_slice_2_split
I0308 19:50:01.306427 27741 net.cpp:94] Creating Layer cont_3_lstm1_cont_slice_2_split
I0308 19:50:01.306430 27741 net.cpp:391] cont_3_lstm1_cont_slice_2_split <- cont_3
I0308 19:50:01.306448 27741 net.cpp:349] cont_3_lstm1_cont_slice_2_split -> cont_3_lstm1_cont_slice_2_split_0
I0308 19:50:01.306458 27741 net.cpp:349] cont_3_lstm1_cont_slice_2_split -> cont_3_lstm1_cont_slice_2_split_1
I0308 19:50:01.306464 27741 net.cpp:123] Setting up cont_3_lstm1_cont_slice_2_split
I0308 19:50:01.306470 27741 net.cpp:130] Top shape: 1 1 16 (16)
I0308 19:50:01.306475 27741 net.cpp:130] Top shape: 1 1 16 (16)
I0308 19:50:01.306480 27741 layer_factory.hpp:74] Creating layer cont_4_lstm1_cont_slice_3_split
I0308 19:50:01.306485 27741 net.cpp:94] Creating Layer cont_4_lstm1_cont_slice_3_split
I0308 19:50:01.306490 27741 net.cpp:391] cont_4_lstm1_cont_slice_3_split <- cont_4
I0308 19:50:01.306495 27741 net.cpp:349] cont_4_lstm1_cont_slice_3_split -> cont_4_lstm1_cont_slice_3_split_0
I0308 19:50:01.306502 27741 net.cpp:349] cont_4_lstm1_cont_slice_3_split -> cont_4_lstm1_cont_slice_3_split_1
I0308 19:50:01.306509 27741 net.cpp:123] Setting up cont_4_lstm1_cont_slice_3_split
I0308 19:50:01.306515 27741 net.cpp:130] Top shape: 1 1 16 (16)
I0308 19:50:01.306520 27741 net.cpp:130] Top shape: 1 1 16 (16)
I0308 19:50:01.306524 27741 layer_factory.hpp:74] Creating layer cont_5_lstm1_cont_slice_4_split
I0308 19:50:01.306529 27741 net.cpp:94] Creating Layer cont_5_lstm1_cont_slice_4_split
I0308 19:50:01.306535 27741 net.cpp:391] cont_5_lstm1_cont_slice_4_split <- cont_5
I0308 19:50:01.306540 27741 net.cpp:349] cont_5_lstm1_cont_slice_4_split -> cont_5_lstm1_cont_slice_4_split_0
I0308 19:50:01.306547 27741 net.cpp:349] cont_5_lstm1_cont_slice_4_split -> cont_5_lstm1_cont_slice_4_split_1
I0308 19:50:01.306553 27741 net.cpp:123] Setting up cont_5_lstm1_cont_slice_4_split
I0308 19:50:01.306560 27741 net.cpp:130] Top shape: 1 1 16 (16)
I0308 19:50:01.306565 27741 net.cpp:130] Top shape: 1 1 16 (16)
I0308 19:50:01.306570 27741 layer_factory.hpp:74] Creating layer cont_6_lstm1_cont_slice_5_split
I0308 19:50:01.306574 27741 net.cpp:94] Creating Layer cont_6_lstm1_cont_slice_5_split
I0308 19:50:01.306578 27741 net.cpp:391] cont_6_lstm1_cont_slice_5_split <- cont_6
I0308 19:50:01.306583 27741 net.cpp:349] cont_6_lstm1_cont_slice_5_split -> cont_6_lstm1_cont_slice_5_split_0
I0308 19:50:01.306589 27741 net.cpp:349] cont_6_lstm1_cont_slice_5_split -> cont_6_lstm1_cont_slice_5_split_1
I0308 19:50:01.306596 27741 net.cpp:123] Setting up cont_6_lstm1_cont_slice_5_split
I0308 19:50:01.306602 27741 net.cpp:130] Top shape: 1 1 16 (16)
I0308 19:50:01.306607 27741 net.cpp:130] Top shape: 1 1 16 (16)
I0308 19:50:01.306610 27741 layer_factory.hpp:74] Creating layer cont_7_lstm1_cont_slice_6_split
I0308 19:50:01.306617 27741 net.cpp:94] Creating Layer cont_7_lstm1_cont_slice_6_split
I0308 19:50:01.306622 27741 net.cpp:391] cont_7_lstm1_cont_slice_6_split <- cont_7
I0308 19:50:01.306627 27741 net.cpp:349] cont_7_lstm1_cont_slice_6_split -> cont_7_lstm1_cont_slice_6_split_0
I0308 19:50:01.306634 27741 net.cpp:349] cont_7_lstm1_cont_slice_6_split -> cont_7_lstm1_cont_slice_6_split_1
I0308 19:50:01.306640 27741 net.cpp:123] Setting up cont_7_lstm1_cont_slice_6_split
I0308 19:50:01.306646 27741 net.cpp:130] Top shape: 1 1 16 (16)
I0308 19:50:01.306651 27741 net.cpp:130] Top shape: 1 1 16 (16)
I0308 19:50:01.306655 27741 layer_factory.hpp:74] Creating layer cont_8_lstm1_cont_slice_7_split
I0308 19:50:01.306661 27741 net.cpp:94] Creating Layer cont_8_lstm1_cont_slice_7_split
I0308 19:50:01.306665 27741 net.cpp:391] cont_8_lstm1_cont_slice_7_split <- cont_8
I0308 19:50:01.306670 27741 net.cpp:349] cont_8_lstm1_cont_slice_7_split -> cont_8_lstm1_cont_slice_7_split_0
I0308 19:50:01.306676 27741 net.cpp:349] cont_8_lstm1_cont_slice_7_split -> cont_8_lstm1_cont_slice_7_split_1
I0308 19:50:01.306682 27741 net.cpp:123] Setting up cont_8_lstm1_cont_slice_7_split
I0308 19:50:01.306689 27741 net.cpp:130] Top shape: 1 1 16 (16)
I0308 19:50:01.306702 27741 net.cpp:130] Top shape: 1 1 16 (16)
I0308 19:50:01.306706 27741 layer_factory.hpp:74] Creating layer lstm1_x_transform
I0308 19:50:01.306716 27741 net.cpp:94] Creating Layer lstm1_x_transform
I0308 19:50:01.306720 27741 net.cpp:391] lstm1_x_transform <- x
I0308 19:50:01.306728 27741 net.cpp:349] lstm1_x_transform -> W_xc_x
I0308 19:50:01.306736 27741 net.cpp:123] Setting up lstm1_x_transform
I0308 19:50:01.306802 27741 net.cpp:130] Top shape: 8 16 512 (65536)
I0308 19:50:01.306812 27741 layer_factory.hpp:74] Creating layer lstm1_W_xc_x_slice
I0308 19:50:01.306819 27741 net.cpp:94] Creating Layer lstm1_W_xc_x_slice
I0308 19:50:01.306823 27741 net.cpp:391] lstm1_W_xc_x_slice <- W_xc_x
I0308 19:50:01.306829 27741 net.cpp:349] lstm1_W_xc_x_slice -> W_xc_x_1
I0308 19:50:01.306836 27741 net.cpp:349] lstm1_W_xc_x_slice -> W_xc_x_2
I0308 19:50:01.306845 27741 net.cpp:349] lstm1_W_xc_x_slice -> W_xc_x_3
I0308 19:50:01.306852 27741 net.cpp:349] lstm1_W_xc_x_slice -> W_xc_x_4
I0308 19:50:01.306860 27741 net.cpp:349] lstm1_W_xc_x_slice -> W_xc_x_5
I0308 19:50:01.306869 27741 net.cpp:349] lstm1_W_xc_x_slice -> W_xc_x_6
I0308 19:50:01.306876 27741 net.cpp:349] lstm1_W_xc_x_slice -> W_xc_x_7
I0308 19:50:01.306882 27741 net.cpp:349] lstm1_W_xc_x_slice -> W_xc_x_8
I0308 19:50:01.306888 27741 net.cpp:123] Setting up lstm1_W_xc_x_slice
I0308 19:50:01.306896 27741 net.cpp:130] Top shape: 1 16 512 (8192)
I0308 19:50:01.306901 27741 net.cpp:130] Top shape: 1 16 512 (8192)
I0308 19:50:01.306906 27741 net.cpp:130] Top shape: 1 16 512 (8192)
I0308 19:50:01.306911 27741 net.cpp:130] Top shape: 1 16 512 (8192)
I0308 19:50:01.306916 27741 net.cpp:130] Top shape: 1 16 512 (8192)
I0308 19:50:01.306921 27741 net.cpp:130] Top shape: 1 16 512 (8192)
I0308 19:50:01.306926 27741 net.cpp:130] Top shape: 1 16 512 (8192)
I0308 19:50:01.306931 27741 net.cpp:130] Top shape: 1 16 512 (8192)
I0308 19:50:01.306934 27741 layer_factory.hpp:74] Creating layer lstm1_h_conted_0
I0308 19:50:01.306942 27741 net.cpp:94] Creating Layer lstm1_h_conted_0
I0308 19:50:01.306946 27741 net.cpp:391] lstm1_h_conted_0 <- h_0
I0308 19:50:01.306951 27741 net.cpp:391] lstm1_h_conted_0 <- cont_1_lstm1_cont_slice_0_split_0
I0308 19:50:01.306959 27741 net.cpp:349] lstm1_h_conted_0 -> h_conted_0
I0308 19:50:01.306965 27741 net.cpp:123] Setting up lstm1_h_conted_0
I0308 19:50:01.306974 27741 net.cpp:130] Top shape: 1 16 128 (2048)
I0308 19:50:01.306979 27741 layer_factory.hpp:74] Creating layer lstm1_transform_1
I0308 19:50:01.306985 27741 net.cpp:94] Creating Layer lstm1_transform_1
I0308 19:50:01.306989 27741 net.cpp:391] lstm1_transform_1 <- h_conted_0
I0308 19:50:01.307008 27741 net.cpp:349] lstm1_transform_1 -> W_hc_h_0
I0308 19:50:01.307013 27741 net.cpp:123] Setting up lstm1_transform_1
I0308 19:50:01.307406 27741 net.cpp:130] Top shape: 1 16 512 (8192)
I0308 19:50:01.307416 27741 layer_factory.hpp:74] Creating layer lstm1_gate_input_1
I0308 19:50:01.307422 27741 net.cpp:94] Creating Layer lstm1_gate_input_1
I0308 19:50:01.307426 27741 net.cpp:391] lstm1_gate_input_1 <- W_hc_h_0
I0308 19:50:01.307432 27741 net.cpp:391] lstm1_gate_input_1 <- W_xc_x_1
I0308 19:50:01.307451 27741 net.cpp:349] lstm1_gate_input_1 -> gate_input_1
I0308 19:50:01.307459 27741 net.cpp:123] Setting up lstm1_gate_input_1
I0308 19:50:01.307467 27741 net.cpp:130] Top shape: 1 16 512 (8192)
I0308 19:50:01.307472 27741 layer_factory.hpp:74] Creating layer lstm1_unit_1
I0308 19:50:01.307478 27741 net.cpp:94] Creating Layer lstm1_unit_1
I0308 19:50:01.307483 27741 net.cpp:391] lstm1_unit_1 <- c_0
I0308 19:50:01.307488 27741 net.cpp:391] lstm1_unit_1 <- gate_input_1
I0308 19:50:01.307494 27741 net.cpp:391] lstm1_unit_1 <- cont_1_lstm1_cont_slice_0_split_1
I0308 19:50:01.307502 27741 net.cpp:349] lstm1_unit_1 -> c_1
I0308 19:50:01.307508 27741 net.cpp:349] lstm1_unit_1 -> h_1
I0308 19:50:01.307515 27741 net.cpp:123] Setting up lstm1_unit_1
I0308 19:50:01.307525 27741 net.cpp:130] Top shape: 1 16 128 (2048)
I0308 19:50:01.307533 27741 net.cpp:130] Top shape: 1 16 128 (2048)
I0308 19:50:01.307546 27741 layer_factory.hpp:74] Creating layer h_1_lstm1_unit_1_1_split
I0308 19:50:01.307554 27741 net.cpp:94] Creating Layer h_1_lstm1_unit_1_1_split
I0308 19:50:01.307557 27741 net.cpp:391] h_1_lstm1_unit_1_1_split <- h_1
I0308 19:50:01.307564 27741 net.cpp:349] h_1_lstm1_unit_1_1_split -> h_1_lstm1_unit_1_1_split_0
I0308 19:50:01.307574 27741 net.cpp:349] h_1_lstm1_unit_1_1_split -> h_1_lstm1_unit_1_1_split_1
I0308 19:50:01.307580 27741 net.cpp:123] Setting up h_1_lstm1_unit_1_1_split
I0308 19:50:01.307586 27741 net.cpp:130] Top shape: 1 16 128 (2048)
I0308 19:50:01.307592 27741 net.cpp:130] Top shape: 1 16 128 (2048)
I0308 19:50:01.307597 27741 layer_factory.hpp:74] Creating layer lstm1_h_conted_1
I0308 19:50:01.307605 27741 net.cpp:94] Creating Layer lstm1_h_conted_1
I0308 19:50:01.307611 27741 net.cpp:391] lstm1_h_conted_1 <- h_1_lstm1_unit_1_1_split_0
I0308 19:50:01.307616 27741 net.cpp:391] lstm1_h_conted_1 <- cont_2_lstm1_cont_slice_1_split_0
I0308 19:50:01.307622 27741 net.cpp:349] lstm1_h_conted_1 -> h_conted_1
I0308 19:50:01.307628 27741 net.cpp:123] Setting up lstm1_h_conted_1
I0308 19:50:01.307634 27741 net.cpp:130] Top shape: 1 16 128 (2048)
I0308 19:50:01.307641 27741 layer_factory.hpp:74] Creating layer lstm1_transform_2
I0308 19:50:01.307646 27741 net.cpp:94] Creating Layer lstm1_transform_2
I0308 19:50:01.307651 27741 net.cpp:391] lstm1_transform_2 <- h_conted_1
I0308 19:50:01.307658 27741 net.cpp:349] lstm1_transform_2 -> W_hc_h_1
I0308 19:50:01.307665 27741 net.cpp:123] Setting up lstm1_transform_2
I0308 19:50:01.308050 27741 net.cpp:130] Top shape: 1 16 512 (8192)
I0308 19:50:01.308059 27741 net.cpp:435] Sharing parameters 'W_hc' owned by layer 'lstm1_transform_1', param index 0
I0308 19:50:01.308063 27741 layer_factory.hpp:74] Creating layer lstm1_gate_input_2
I0308 19:50:01.308069 27741 net.cpp:94] Creating Layer lstm1_gate_input_2
I0308 19:50:01.308073 27741 net.cpp:391] lstm1_gate_input_2 <- W_hc_h_1
I0308 19:50:01.308079 27741 net.cpp:391] lstm1_gate_input_2 <- W_xc_x_2
I0308 19:50:01.308086 27741 net.cpp:349] lstm1_gate_input_2 -> gate_input_2
I0308 19:50:01.308094 27741 net.cpp:123] Setting up lstm1_gate_input_2
I0308 19:50:01.308101 27741 net.cpp:130] Top shape: 1 16 512 (8192)
I0308 19:50:01.308105 27741 layer_factory.hpp:74] Creating layer lstm1_unit_2
I0308 19:50:01.308111 27741 net.cpp:94] Creating Layer lstm1_unit_2
I0308 19:50:01.308116 27741 net.cpp:391] lstm1_unit_2 <- c_1
I0308 19:50:01.308121 27741 net.cpp:391] lstm1_unit_2 <- gate_input_2
I0308 19:50:01.308126 27741 net.cpp:391] lstm1_unit_2 <- cont_2_lstm1_cont_slice_1_split_1
I0308 19:50:01.308132 27741 net.cpp:349] lstm1_unit_2 -> c_2
I0308 19:50:01.308138 27741 net.cpp:349] lstm1_unit_2 -> h_2
I0308 19:50:01.308145 27741 net.cpp:123] Setting up lstm1_unit_2
I0308 19:50:01.308152 27741 net.cpp:130] Top shape: 1 16 128 (2048)
I0308 19:50:01.308158 27741 net.cpp:130] Top shape: 1 16 128 (2048)
I0308 19:50:01.308162 27741 layer_factory.hpp:74] Creating layer h_2_lstm1_unit_2_1_split
I0308 19:50:01.308169 27741 net.cpp:94] Creating Layer h_2_lstm1_unit_2_1_split
I0308 19:50:01.308176 27741 net.cpp:391] h_2_lstm1_unit_2_1_split <- h_2
I0308 19:50:01.308181 27741 net.cpp:349] h_2_lstm1_unit_2_1_split -> h_2_lstm1_unit_2_1_split_0
I0308 19:50:01.308192 27741 net.cpp:349] h_2_lstm1_unit_2_1_split -> h_2_lstm1_unit_2_1_split_1
I0308 19:50:01.308198 27741 net.cpp:123] Setting up h_2_lstm1_unit_2_1_split
I0308 19:50:01.308204 27741 net.cpp:130] Top shape: 1 16 128 (2048)
I0308 19:50:01.308209 27741 net.cpp:130] Top shape: 1 16 128 (2048)
I0308 19:50:01.308213 27741 layer_factory.hpp:74] Creating layer lstm1_h_conted_2
I0308 19:50:01.308218 27741 net.cpp:94] Creating Layer lstm1_h_conted_2
I0308 19:50:01.308223 27741 net.cpp:391] lstm1_h_conted_2 <- h_2_lstm1_unit_2_1_split_0
I0308 19:50:01.308228 27741 net.cpp:391] lstm1_h_conted_2 <- cont_3_lstm1_cont_slice_2_split_0
I0308 19:50:01.308234 27741 net.cpp:349] lstm1_h_conted_2 -> h_conted_2
I0308 19:50:01.308240 27741 net.cpp:123] Setting up lstm1_h_conted_2
I0308 19:50:01.308254 27741 net.cpp:130] Top shape: 1 16 128 (2048)
I0308 19:50:01.308259 27741 layer_factory.hpp:74] Creating layer lstm1_transform_3
I0308 19:50:01.308267 27741 net.cpp:94] Creating Layer lstm1_transform_3
I0308 19:50:01.308274 27741 net.cpp:391] lstm1_transform_3 <- h_conted_2
I0308 19:50:01.308279 27741 net.cpp:349] lstm1_transform_3 -> W_hc_h_2
I0308 19:50:01.308286 27741 net.cpp:123] Setting up lstm1_transform_3
I0308 19:50:01.308686 27741 net.cpp:130] Top shape: 1 16 512 (8192)
I0308 19:50:01.308694 27741 net.cpp:435] Sharing parameters 'W_hc' owned by layer 'lstm1_transform_1', param index 0
I0308 19:50:01.308699 27741 layer_factory.hpp:74] Creating layer lstm1_gate_input_3
I0308 19:50:01.308706 27741 net.cpp:94] Creating Layer lstm1_gate_input_3
I0308 19:50:01.308709 27741 net.cpp:391] lstm1_gate_input_3 <- W_hc_h_2
I0308 19:50:01.308714 27741 net.cpp:391] lstm1_gate_input_3 <- W_xc_x_3
I0308 19:50:01.308719 27741 net.cpp:349] lstm1_gate_input_3 -> gate_input_3
I0308 19:50:01.308727 27741 net.cpp:123] Setting up lstm1_gate_input_3
I0308 19:50:01.308733 27741 net.cpp:130] Top shape: 1 16 512 (8192)
I0308 19:50:01.308737 27741 layer_factory.hpp:74] Creating layer lstm1_unit_3
I0308 19:50:01.308745 27741 net.cpp:94] Creating Layer lstm1_unit_3
I0308 19:50:01.308750 27741 net.cpp:391] lstm1_unit_3 <- c_2
I0308 19:50:01.308755 27741 net.cpp:391] lstm1_unit_3 <- gate_input_3
I0308 19:50:01.308760 27741 net.cpp:391] lstm1_unit_3 <- cont_3_lstm1_cont_slice_2_split_1
I0308 19:50:01.308766 27741 net.cpp:349] lstm1_unit_3 -> c_3
I0308 19:50:01.308773 27741 net.cpp:349] lstm1_unit_3 -> h_3
I0308 19:50:01.308779 27741 net.cpp:123] Setting up lstm1_unit_3
I0308 19:50:01.308787 27741 net.cpp:130] Top shape: 1 16 128 (2048)
I0308 19:50:01.308794 27741 net.cpp:130] Top shape: 1 16 128 (2048)
I0308 19:50:01.308799 27741 layer_factory.hpp:74] Creating layer h_3_lstm1_unit_3_1_split
I0308 19:50:01.308804 27741 net.cpp:94] Creating Layer h_3_lstm1_unit_3_1_split
I0308 19:50:01.308807 27741 net.cpp:391] h_3_lstm1_unit_3_1_split <- h_3
I0308 19:50:01.308814 27741 net.cpp:349] h_3_lstm1_unit_3_1_split -> h_3_lstm1_unit_3_1_split_0
I0308 19:50:01.308820 27741 net.cpp:349] h_3_lstm1_unit_3_1_split -> h_3_lstm1_unit_3_1_split_1
I0308 19:50:01.308825 27741 net.cpp:123] Setting up h_3_lstm1_unit_3_1_split
I0308 19:50:01.308832 27741 net.cpp:130] Top shape: 1 16 128 (2048)
I0308 19:50:01.308838 27741 net.cpp:130] Top shape: 1 16 128 (2048)
I0308 19:50:01.308842 27741 layer_factory.hpp:74] Creating layer lstm1_h_conted_3
I0308 19:50:01.308850 27741 net.cpp:94] Creating Layer lstm1_h_conted_3
I0308 19:50:01.308862 27741 net.cpp:391] lstm1_h_conted_3 <- h_3_lstm1_unit_3_1_split_0
I0308 19:50:01.308866 27741 net.cpp:391] lstm1_h_conted_3 <- cont_4_lstm1_cont_slice_3_split_0
I0308 19:50:01.308872 27741 net.cpp:349] lstm1_h_conted_3 -> h_conted_3
I0308 19:50:01.308879 27741 net.cpp:123] Setting up lstm1_h_conted_3
I0308 19:50:01.308886 27741 net.cpp:130] Top shape: 1 16 128 (2048)
I0308 19:50:01.308889 27741 layer_factory.hpp:74] Creating layer lstm1_transform_4
I0308 19:50:01.308897 27741 net.cpp:94] Creating Layer lstm1_transform_4
I0308 19:50:01.308902 27741 net.cpp:391] lstm1_transform_4 <- h_conted_3
I0308 19:50:01.308908 27741 net.cpp:349] lstm1_transform_4 -> W_hc_h_3
I0308 19:50:01.308914 27741 net.cpp:123] Setting up lstm1_transform_4
I0308 19:50:01.309294 27741 net.cpp:130] Top shape: 1 16 512 (8192)
I0308 19:50:01.309303 27741 net.cpp:435] Sharing parameters 'W_hc' owned by layer 'lstm1_transform_1', param index 0
I0308 19:50:01.309308 27741 layer_factory.hpp:74] Creating layer lstm1_gate_input_4
I0308 19:50:01.309314 27741 net.cpp:94] Creating Layer lstm1_gate_input_4
I0308 19:50:01.309317 27741 net.cpp:391] lstm1_gate_input_4 <- W_hc_h_3
I0308 19:50:01.309322 27741 net.cpp:391] lstm1_gate_input_4 <- W_xc_x_4
I0308 19:50:01.309332 27741 net.cpp:349] lstm1_gate_input_4 -> gate_input_4
I0308 19:50:01.309340 27741 net.cpp:123] Setting up lstm1_gate_input_4
I0308 19:50:01.309346 27741 net.cpp:130] Top shape: 1 16 512 (8192)
I0308 19:50:01.309360 27741 layer_factory.hpp:74] Creating layer lstm1_unit_4
I0308 19:50:01.309366 27741 net.cpp:94] Creating Layer lstm1_unit_4
I0308 19:50:01.309371 27741 net.cpp:391] lstm1_unit_4 <- c_3
I0308 19:50:01.309376 27741 net.cpp:391] lstm1_unit_4 <- gate_input_4
I0308 19:50:01.309381 27741 net.cpp:391] lstm1_unit_4 <- cont_4_lstm1_cont_slice_3_split_1
I0308 19:50:01.309388 27741 net.cpp:349] lstm1_unit_4 -> c_4
I0308 19:50:01.309396 27741 net.cpp:349] lstm1_unit_4 -> h_4
I0308 19:50:01.309402 27741 net.cpp:123] Setting up lstm1_unit_4
I0308 19:50:01.309409 27741 net.cpp:130] Top shape: 1 16 128 (2048)
I0308 19:50:01.309415 27741 net.cpp:130] Top shape: 1 16 128 (2048)
I0308 19:50:01.309420 27741 layer_factory.hpp:74] Creating layer h_4_lstm1_unit_4_1_split
I0308 19:50:01.309425 27741 net.cpp:94] Creating Layer h_4_lstm1_unit_4_1_split
I0308 19:50:01.309429 27741 net.cpp:391] h_4_lstm1_unit_4_1_split <- h_4
I0308 19:50:01.309444 27741 net.cpp:349] h_4_lstm1_unit_4_1_split -> h_4_lstm1_unit_4_1_split_0
I0308 19:50:01.309453 27741 net.cpp:349] h_4_lstm1_unit_4_1_split -> h_4_lstm1_unit_4_1_split_1
I0308 19:50:01.309465 27741 net.cpp:123] Setting up h_4_lstm1_unit_4_1_split
I0308 19:50:01.309473 27741 net.cpp:130] Top shape: 1 16 128 (2048)
I0308 19:50:01.309478 27741 net.cpp:130] Top shape: 1 16 128 (2048)
I0308 19:50:01.309483 27741 layer_factory.hpp:74] Creating layer lstm1_h_conted_4
I0308 19:50:01.309487 27741 net.cpp:94] Creating Layer lstm1_h_conted_4
I0308 19:50:01.309491 27741 net.cpp:391] lstm1_h_conted_4 <- h_4_lstm1_unit_4_1_split_0
I0308 19:50:01.309496 27741 net.cpp:391] lstm1_h_conted_4 <- cont_5_lstm1_cont_slice_4_split_0
I0308 19:50:01.309502 27741 net.cpp:349] lstm1_h_conted_4 -> h_conted_4
I0308 19:50:01.309507 27741 net.cpp:123] Setting up lstm1_h_conted_4
I0308 19:50:01.309514 27741 net.cpp:130] Top shape: 1 16 128 (2048)
I0308 19:50:01.309520 27741 layer_factory.hpp:74] Creating layer lstm1_transform_5
I0308 19:50:01.309530 27741 net.cpp:94] Creating Layer lstm1_transform_5
I0308 19:50:01.309535 27741 net.cpp:391] lstm1_transform_5 <- h_conted_4
I0308 19:50:01.309543 27741 net.cpp:349] lstm1_transform_5 -> W_hc_h_4
I0308 19:50:01.309551 27741 net.cpp:123] Setting up lstm1_transform_5
I0308 19:50:01.309937 27741 net.cpp:130] Top shape: 1 16 512 (8192)
I0308 19:50:01.309945 27741 net.cpp:435] Sharing parameters 'W_hc' owned by layer 'lstm1_transform_1', param index 0
I0308 19:50:01.309949 27741 layer_factory.hpp:74] Creating layer lstm1_gate_input_5
I0308 19:50:01.309955 27741 net.cpp:94] Creating Layer lstm1_gate_input_5
I0308 19:50:01.309959 27741 net.cpp:391] lstm1_gate_input_5 <- W_hc_h_4
I0308 19:50:01.309964 27741 net.cpp:391] lstm1_gate_input_5 <- W_xc_x_5
I0308 19:50:01.309970 27741 net.cpp:349] lstm1_gate_input_5 -> gate_input_5
I0308 19:50:01.309976 27741 net.cpp:123] Setting up lstm1_gate_input_5
I0308 19:50:01.309983 27741 net.cpp:130] Top shape: 1 16 512 (8192)
I0308 19:50:01.309988 27741 layer_factory.hpp:74] Creating layer lstm1_unit_5
I0308 19:50:01.309995 27741 net.cpp:94] Creating Layer lstm1_unit_5
I0308 19:50:01.309999 27741 net.cpp:391] lstm1_unit_5 <- c_4
I0308 19:50:01.310004 27741 net.cpp:391] lstm1_unit_5 <- gate_input_5
I0308 19:50:01.310009 27741 net.cpp:391] lstm1_unit_5 <- cont_5_lstm1_cont_slice_4_split_1
I0308 19:50:01.310015 27741 net.cpp:349] lstm1_unit_5 -> c_5
I0308 19:50:01.310024 27741 net.cpp:349] lstm1_unit_5 -> h_5
I0308 19:50:01.310030 27741 net.cpp:123] Setting up lstm1_unit_5
I0308 19:50:01.310037 27741 net.cpp:130] Top shape: 1 16 128 (2048)
I0308 19:50:01.310042 27741 net.cpp:130] Top shape: 1 16 128 (2048)
I0308 19:50:01.310046 27741 layer_factory.hpp:74] Creating layer h_5_lstm1_unit_5_1_split
I0308 19:50:01.310051 27741 net.cpp:94] Creating Layer h_5_lstm1_unit_5_1_split
I0308 19:50:01.310055 27741 net.cpp:391] h_5_lstm1_unit_5_1_split <- h_5
I0308 19:50:01.310061 27741 net.cpp:349] h_5_lstm1_unit_5_1_split -> h_5_lstm1_unit_5_1_split_0
I0308 19:50:01.310067 27741 net.cpp:349] h_5_lstm1_unit_5_1_split -> h_5_lstm1_unit_5_1_split_1
I0308 19:50:01.310083 27741 net.cpp:123] Setting up h_5_lstm1_unit_5_1_split
I0308 19:50:01.310091 27741 net.cpp:130] Top shape: 1 16 128 (2048)
I0308 19:50:01.310096 27741 net.cpp:130] Top shape: 1 16 128 (2048)
I0308 19:50:01.310101 27741 layer_factory.hpp:74] Creating layer lstm1_h_conted_5
I0308 19:50:01.310107 27741 net.cpp:94] Creating Layer lstm1_h_conted_5
I0308 19:50:01.310112 27741 net.cpp:391] lstm1_h_conted_5 <- h_5_lstm1_unit_5_1_split_0
I0308 19:50:01.310117 27741 net.cpp:391] lstm1_h_conted_5 <- cont_6_lstm1_cont_slice_5_split_0
I0308 19:50:01.310122 27741 net.cpp:349] lstm1_h_conted_5 -> h_conted_5
I0308 19:50:01.310128 27741 net.cpp:123] Setting up lstm1_h_conted_5
I0308 19:50:01.310134 27741 net.cpp:130] Top shape: 1 16 128 (2048)
I0308 19:50:01.310138 27741 layer_factory.hpp:74] Creating layer lstm1_transform_6
I0308 19:50:01.310147 27741 net.cpp:94] Creating Layer lstm1_transform_6
I0308 19:50:01.310150 27741 net.cpp:391] lstm1_transform_6 <- h_conted_5
I0308 19:50:01.310156 27741 net.cpp:349] lstm1_transform_6 -> W_hc_h_5
I0308 19:50:01.310163 27741 net.cpp:123] Setting up lstm1_transform_6
I0308 19:50:01.310559 27741 net.cpp:130] Top shape: 1 16 512 (8192)
I0308 19:50:01.310569 27741 net.cpp:435] Sharing parameters 'W_hc' owned by layer 'lstm1_transform_1', param index 0
I0308 19:50:01.310573 27741 layer_factory.hpp:74] Creating layer lstm1_gate_input_6
I0308 19:50:01.310581 27741 net.cpp:94] Creating Layer lstm1_gate_input_6
I0308 19:50:01.310585 27741 net.cpp:391] lstm1_gate_input_6 <- W_hc_h_5
I0308 19:50:01.310590 27741 net.cpp:391] lstm1_gate_input_6 <- W_xc_x_6
I0308 19:50:01.310596 27741 net.cpp:349] lstm1_gate_input_6 -> gate_input_6
I0308 19:50:01.310603 27741 net.cpp:123] Setting up lstm1_gate_input_6
I0308 19:50:01.310611 27741 net.cpp:130] Top shape: 1 16 512 (8192)
I0308 19:50:01.310614 27741 layer_factory.hpp:74] Creating layer lstm1_unit_6
I0308 19:50:01.310621 27741 net.cpp:94] Creating Layer lstm1_unit_6
I0308 19:50:01.310627 27741 net.cpp:391] lstm1_unit_6 <- c_5
I0308 19:50:01.310632 27741 net.cpp:391] lstm1_unit_6 <- gate_input_6
I0308 19:50:01.310637 27741 net.cpp:391] lstm1_unit_6 <- cont_6_lstm1_cont_slice_5_split_1
I0308 19:50:01.310642 27741 net.cpp:349] lstm1_unit_6 -> c_6
I0308 19:50:01.310649 27741 net.cpp:349] lstm1_unit_6 -> h_6
I0308 19:50:01.310654 27741 net.cpp:123] Setting up lstm1_unit_6
I0308 19:50:01.310662 27741 net.cpp:130] Top shape: 1 16 128 (2048)
I0308 19:50:01.310667 27741 net.cpp:130] Top shape: 1 16 128 (2048)
I0308 19:50:01.310672 27741 layer_factory.hpp:74] Creating layer h_6_lstm1_unit_6_1_split
I0308 19:50:01.310678 27741 net.cpp:94] Creating Layer h_6_lstm1_unit_6_1_split
I0308 19:50:01.310681 27741 net.cpp:391] h_6_lstm1_unit_6_1_split <- h_6
I0308 19:50:01.310688 27741 net.cpp:349] h_6_lstm1_unit_6_1_split -> h_6_lstm1_unit_6_1_split_0
I0308 19:50:01.310695 27741 net.cpp:349] h_6_lstm1_unit_6_1_split -> h_6_lstm1_unit_6_1_split_1
I0308 19:50:01.310701 27741 net.cpp:123] Setting up h_6_lstm1_unit_6_1_split
I0308 19:50:01.310708 27741 net.cpp:130] Top shape: 1 16 128 (2048)
I0308 19:50:01.310714 27741 net.cpp:130] Top shape: 1 16 128 (2048)
I0308 19:50:01.310717 27741 layer_factory.hpp:74] Creating layer lstm1_h_conted_6
I0308 19:50:01.310724 27741 net.cpp:94] Creating Layer lstm1_h_conted_6
I0308 19:50:01.310729 27741 net.cpp:391] lstm1_h_conted_6 <- h_6_lstm1_unit_6_1_split_0
I0308 19:50:01.310734 27741 net.cpp:391] lstm1_h_conted_6 <- cont_7_lstm1_cont_slice_6_split_0
I0308 19:50:01.310739 27741 net.cpp:349] lstm1_h_conted_6 -> h_conted_6
I0308 19:50:01.310745 27741 net.cpp:123] Setting up lstm1_h_conted_6
I0308 19:50:01.310750 27741 net.cpp:130] Top shape: 1 16 128 (2048)
I0308 19:50:01.310755 27741 layer_factory.hpp:74] Creating layer lstm1_transform_7
I0308 19:50:01.310761 27741 net.cpp:94] Creating Layer lstm1_transform_7
I0308 19:50:01.310766 27741 net.cpp:391] lstm1_transform_7 <- h_conted_6
I0308 19:50:01.310773 27741 net.cpp:349] lstm1_transform_7 -> W_hc_h_6
I0308 19:50:01.310781 27741 net.cpp:123] Setting up lstm1_transform_7
I0308 19:50:01.311175 27741 net.cpp:130] Top shape: 1 16 512 (8192)
I0308 19:50:01.311184 27741 net.cpp:435] Sharing parameters 'W_hc' owned by layer 'lstm1_transform_1', param index 0
I0308 19:50:01.311189 27741 layer_factory.hpp:74] Creating layer lstm1_gate_input_7
I0308 19:50:01.311195 27741 net.cpp:94] Creating Layer lstm1_gate_input_7
I0308 19:50:01.311199 27741 net.cpp:391] lstm1_gate_input_7 <- W_hc_h_6
I0308 19:50:01.311204 27741 net.cpp:391] lstm1_gate_input_7 <- W_xc_x_7
I0308 19:50:01.311210 27741 net.cpp:349] lstm1_gate_input_7 -> gate_input_7
I0308 19:50:01.311216 27741 net.cpp:123] Setting up lstm1_gate_input_7
I0308 19:50:01.311223 27741 net.cpp:130] Top shape: 1 16 512 (8192)
I0308 19:50:01.311228 27741 layer_factory.hpp:74] Creating layer lstm1_unit_7
I0308 19:50:01.311233 27741 net.cpp:94] Creating Layer lstm1_unit_7
I0308 19:50:01.311238 27741 net.cpp:391] lstm1_unit_7 <- c_6
I0308 19:50:01.311241 27741 net.cpp:391] lstm1_unit_7 <- gate_input_7
I0308 19:50:01.311246 27741 net.cpp:391] lstm1_unit_7 <- cont_7_lstm1_cont_slice_6_split_1
I0308 19:50:01.311254 27741 net.cpp:349] lstm1_unit_7 -> c_7
I0308 19:50:01.311261 27741 net.cpp:349] lstm1_unit_7 -> h_7
I0308 19:50:01.311267 27741 net.cpp:123] Setting up lstm1_unit_7
I0308 19:50:01.311275 27741 net.cpp:130] Top shape: 1 16 128 (2048)
I0308 19:50:01.311280 27741 net.cpp:130] Top shape: 1 16 128 (2048)
I0308 19:50:01.311285 27741 layer_factory.hpp:74] Creating layer h_7_lstm1_unit_7_1_split
I0308 19:50:01.311290 27741 net.cpp:94] Creating Layer h_7_lstm1_unit_7_1_split
I0308 19:50:01.311295 27741 net.cpp:391] h_7_lstm1_unit_7_1_split <- h_7
I0308 19:50:01.311301 27741 net.cpp:349] h_7_lstm1_unit_7_1_split -> h_7_lstm1_unit_7_1_split_0
I0308 19:50:01.311307 27741 net.cpp:349] h_7_lstm1_unit_7_1_split -> h_7_lstm1_unit_7_1_split_1
I0308 19:50:01.311313 27741 net.cpp:123] Setting up h_7_lstm1_unit_7_1_split
I0308 19:50:01.311319 27741 net.cpp:130] Top shape: 1 16 128 (2048)
I0308 19:50:01.311324 27741 net.cpp:130] Top shape: 1 16 128 (2048)
I0308 19:50:01.311328 27741 layer_factory.hpp:74] Creating layer lstm1_h_conted_7
I0308 19:50:01.311333 27741 net.cpp:94] Creating Layer lstm1_h_conted_7
I0308 19:50:01.311337 27741 net.cpp:391] lstm1_h_conted_7 <- h_7_lstm1_unit_7_1_split_0
I0308 19:50:01.311342 27741 net.cpp:391] lstm1_h_conted_7 <- cont_8_lstm1_cont_slice_7_split_0
I0308 19:50:01.311350 27741 net.cpp:349] lstm1_h_conted_7 -> h_conted_7
I0308 19:50:01.311358 27741 net.cpp:123] Setting up lstm1_h_conted_7
I0308 19:50:01.311364 27741 net.cpp:130] Top shape: 1 16 128 (2048)
I0308 19:50:01.311368 27741 layer_factory.hpp:74] Creating layer lstm1_transform_8
I0308 19:50:01.311374 27741 net.cpp:94] Creating Layer lstm1_transform_8
I0308 19:50:01.311379 27741 net.cpp:391] lstm1_transform_8 <- h_conted_7
I0308 19:50:01.311390 27741 net.cpp:349] lstm1_transform_8 -> W_hc_h_7
I0308 19:50:01.311398 27741 net.cpp:123] Setting up lstm1_transform_8
I0308 19:50:01.311805 27741 net.cpp:130] Top shape: 1 16 512 (8192)
I0308 19:50:01.311812 27741 net.cpp:435] Sharing parameters 'W_hc' owned by layer 'lstm1_transform_1', param index 0
I0308 19:50:01.311817 27741 layer_factory.hpp:74] Creating layer lstm1_gate_input_8
I0308 19:50:01.311823 27741 net.cpp:94] Creating Layer lstm1_gate_input_8
I0308 19:50:01.311827 27741 net.cpp:391] lstm1_gate_input_8 <- W_hc_h_7
I0308 19:50:01.311832 27741 net.cpp:391] lstm1_gate_input_8 <- W_xc_x_8
I0308 19:50:01.311841 27741 net.cpp:349] lstm1_gate_input_8 -> gate_input_8
I0308 19:50:01.311847 27741 net.cpp:123] Setting up lstm1_gate_input_8
I0308 19:50:01.311853 27741 net.cpp:130] Top shape: 1 16 512 (8192)
I0308 19:50:01.311859 27741 layer_factory.hpp:74] Creating layer lstm1_unit_8
I0308 19:50:01.311864 27741 net.cpp:94] Creating Layer lstm1_unit_8
I0308 19:50:01.311869 27741 net.cpp:391] lstm1_unit_8 <- c_7
I0308 19:50:01.311873 27741 net.cpp:391] lstm1_unit_8 <- gate_input_8
I0308 19:50:01.311878 27741 net.cpp:391] lstm1_unit_8 <- cont_8_lstm1_cont_slice_7_split_1
I0308 19:50:01.311883 27741 net.cpp:349] lstm1_unit_8 -> c_8
I0308 19:50:01.311892 27741 net.cpp:349] lstm1_unit_8 -> h_8
I0308 19:50:01.311905 27741 net.cpp:123] Setting up lstm1_unit_8
I0308 19:50:01.311914 27741 net.cpp:130] Top shape: 1 16 128 (2048)
I0308 19:50:01.311920 27741 net.cpp:130] Top shape: 1 16 128 (2048)
I0308 19:50:01.311924 27741 layer_factory.hpp:74] Creating layer lstm1_
I0308 19:50:01.311929 27741 net.cpp:94] Creating Layer lstm1_
I0308 19:50:01.311933 27741 net.cpp:391] lstm1_ <- c_8
I0308 19:50:01.311939 27741 net.cpp:349] lstm1_ -> c_T
I0308 19:50:01.311944 27741 net.cpp:123] Setting up lstm1_
I0308 19:50:01.311951 27741 net.cpp:130] Top shape: 1 16 128 (2048)
I0308 19:50:01.311955 27741 layer_factory.hpp:74] Creating layer lstm1_h_concat
I0308 19:50:01.311965 27741 net.cpp:94] Creating Layer lstm1_h_concat
I0308 19:50:01.311971 27741 net.cpp:391] lstm1_h_concat <- h_1_lstm1_unit_1_1_split_1
I0308 19:50:01.311976 27741 net.cpp:391] lstm1_h_concat <- h_2_lstm1_unit_2_1_split_1
I0308 19:50:01.311981 27741 net.cpp:391] lstm1_h_concat <- h_3_lstm1_unit_3_1_split_1
I0308 19:50:01.311985 27741 net.cpp:391] lstm1_h_concat <- h_4_lstm1_unit_4_1_split_1
I0308 19:50:01.311990 27741 net.cpp:391] lstm1_h_concat <- h_5_lstm1_unit_5_1_split_1
I0308 19:50:01.311995 27741 net.cpp:391] lstm1_h_concat <- h_6_lstm1_unit_6_1_split_1
I0308 19:50:01.311998 27741 net.cpp:391] lstm1_h_concat <- h_7_lstm1_unit_7_1_split_1
I0308 19:50:01.312003 27741 net.cpp:391] lstm1_h_concat <- h_8
I0308 19:50:01.312008 27741 net.cpp:349] lstm1_h_concat -> h
I0308 19:50:01.312014 27741 net.cpp:123] Setting up lstm1_h_concat
I0308 19:50:01.312026 27741 net.cpp:130] Top shape: 8 16 128 (16384)
I0308 19:50:01.312032 27741 net.cpp:179] lstm1_h_concat does not need backward computation.
I0308 19:50:01.312036 27741 net.cpp:179] lstm1_ does not need backward computation.
I0308 19:50:01.312041 27741 net.cpp:179] lstm1_unit_8 does not need backward computation.
I0308 19:50:01.312043 27741 net.cpp:179] lstm1_gate_input_8 does not need backward computation.
I0308 19:50:01.312047 27741 net.cpp:179] lstm1_transform_8 does not need backward computation.
…
I0308 19:50:01.312227 27741 net.cpp:215] This network produces output c_T
I0308 19:50:01.312232 27741 net.cpp:215] This network produces output h
I0308 19:50:01.312276 27741 net.cpp:456] Collecting Learning Rate and Weight Decay.
I0308 19:50:01.312289 27741 net.cpp:228] Network initialization done.
I0308 19:50:01.312294 27741 net.cpp:229] Memory required for data: 1435136
I0308 19:50:01.312378 27741 recurrent_layer.cpp:135] Adding parameter 0: W_xc
I0308 19:50:01.312386 27741 recurrent_layer.cpp:135] Adding parameter 1: b_c
I0308 19:50:01.312391 27741 recurrent_layer.cpp:135] Adding parameter 2: W_hc
I0308 19:50:01.312423 27741 net.cpp:130] Top shape: 8 16 128 (16384)
I0308 19:50:01.312443 27741 layer_factory.hpp:74] Creating layer lstm1-drop
I0308 19:50:01.312450 27741 net.cpp:94] Creating Layer lstm1-drop
I0308 19:50:01.312456 27741 net.cpp:391] lstm1-drop <- lstm1
I0308 19:50:01.312463 27741 net.cpp:338] lstm1-drop -> lstm1 (in-place)
I0308 19:50:01.312468 27741 net.cpp:123] Setting up lstm1-drop
I0308 19:50:01.312474 27741 net.cpp:130] Top shape: 8 16 128 (16384)
I0308 19:50:01.312479 27741 layer_factory.hpp:74] Creating layer concat
I0308 19:50:01.312485 27741 net.cpp:94] Creating Layer concat
I0308 19:50:01.312491 27741 net.cpp:391] concat <- reshape-fc6
I0308 19:50:01.312496 27741 net.cpp:391] concat <- lstm1
I0308 19:50:01.312501 27741 net.cpp:349] concat -> concat-data
I0308 19:50:01.312507 27741 net.cpp:123] Setting up concat
I0308 19:50:01.312513 27741 net.cpp:130] Top shape: 8 16 4224 (540672)
I0308 19:50:01.312530 27741 layer_factory.hpp:74] Creating layer lstm2
I0308 19:50:01.312538 27741 net.cpp:94] Creating Layer lstm2
I0308 19:50:01.312542 27741 net.cpp:391] lstm2 <- concat-data
I0308 19:50:01.312547 27741 net.cpp:391] lstm2 <- reshape-marker_reshape-marker_0_split_1
I0308 19:50:01.312553 27741 net.cpp:349] lstm2 -> lstm2
I0308 19:50:01.312561 27741 net.cpp:123] Setting up lstm2
I0308 19:50:01.312566 27741 recurrent_layer.cpp:27] Initializing recurrent layer: assuming input batch contains 8 timesteps of 16 independent streams.
I0308 19:50:01.312856 27741 net.cpp:52] Initializing net from parameters: 
input: "x"
input: "cont"
input: "c_0"
input: "h_0"
force_backward: true
input_shape {
  dim: 8
  dim: 16
  dim: 4224
}
input_shape {
  dim: 1
  dim: 8
  dim: 16
}
input_shape {
  dim: 1
  dim: 16
  dim: 2048
}
input_shape {
  dim: 1
  dim: 16
  dim: 2048
}
layer {
  name: "lstm2_cont_slice"
  type: "Slice"
  bottom: "cont"
  top: "cont_1"
  top: "cont_2"
  top: "cont_3"
  top: "cont_4"
  top: "cont_5"
  top: "cont_6"
  top: "cont_7"
  top: "cont_8"
  slice_param {
    axis: 1
  }
}
layer {
  name: "lstm2_x_transform"
  type: "InnerProduct"
  bottom: "x"
  top: "W_xc_x"
  param {
    name: "W_xc"
  }
  param {
    name: "b_c"
  }
  inner_product_param {
    num_output: 8192
    bias_term: true
    weight_filler {
      type: "uniform"
      min: -0.01
      max: 0.01
    }
    bias_filler {
      type: "constant"
      value: 0
    }
    axis: 2
  }
}
layer {
  name: "lstm2_W_xc_x_slice"
  type: "Slice"
  bottom: "W_xc_x"
  top: "W_xc_x_1"
  top: "W_xc_x_2"
  top: "W_xc_x_3"
  top: "W_xc_x_4"
  top: "W_xc_x_5"
  top: "W_xc_x_6"
  top: "W_xc_x_7"
  top: "W_xc_x_8"
  slice_param {
    axis: 0
  }
}
layer {
  name: "lstm2_h_conted_0"
  type: "Eltwise"
  bottom: "h_0"
  bottom: "cont_1"
  top: "h_conted_0"
  eltwise_param {
    operation: SUM
    coeff_blob: true
  }
}
layer {
  name: "lstm2_transform_1"
  type: "InnerProduct"
  bottom: "h_conted_0"
  top: "W_hc_h_0"
  param {
    name: "W_hc"
  }
  inner_product_param {
    num_output: 8192
    bias_term: false
    weight_filler {
      type: "uniform"
      min: -0.01
      max: 0.01
    }
    axis: 2
  }
}
layer {
  name: "lstm2_gate_input_1"
  type: "Eltwise"
  bottom: "W_hc_h_0"
  bottom: "W_xc_x_1"
  top: "gate_input_1"
  eltwise_param {
    operation: SUM
  }
}
layer {
  name: "lstm2_unit_1"
  type: "LSTMUnit"
  bottom: "c_0"
  bottom: "gate_input_1"
  bottom: "cont_1"
  top: "c_1"
  top: "h_1"
}
layer {
  name: "lstm2_h_conted_1"
  type: "Eltwise"
  bottom: "h_1"
  bottom: "cont_2"
  top: "h_conted_1"
  eltwise_param {
    operation: SUM
    coeff_blob: true
  }
}
layer {
  name: "lstm2_transform_2"
  type: "InnerProduct"
  bottom: "h_conted_1"
  top: "W_hc_h_1"
  param {
    name: "W_hc"
  }
  inner_product_param {
    num_output: 8192
    bias_term: false
    weight_filler {
      type: "uniform"
      min: -0.01
      max: 0.01
    }
    axis: 2
  }
}
layer {
  name: "lstm2_gate_input_2"
  type: "Eltwise"
  bottom: "W_hc_h_1"
  bottom: "W_xc_x_2"
  top: "gate_input_2"
  eltwise_param {
    operation: SUM
  }
}
layer {
  name: "lstm2_unit_2"
  type: "LSTMUnit"
  bottom: "c_1"
  bottom: "gate_input_2"
  bottom: "cont_2"
  top: "c_2"
  top: "h_2"
}
layer {
  name: "lstm2_h_conted_2"
  type: "Eltwise"
  bottom: "h_2"
  bottom: "cont_3"
  top: "h_conted_2"
  eltwise_param {
    operation: SUM
    coeff_blob: true
  }
}
layer {
  name: "lstm2_transform_3"
  type: "InnerProduct"
  bottom: "h_conted_2"
  top: "W_hc_h_2"
  param {
    name: "W_hc"
  }
  inner_product_param {
    num_output: 8192
    bias_term: false
    weight_filler {
      type: "uniform"
      min: -0.01
      max: 0.01
    }
    axis: 2
  }
}
layer {
  name: "lstm2_gate_input_3"
  type: "Eltwise"
  bottom: "W_hc_h_2"
  bottom: "W_xc_x_3"
  top: "gate_input_3"
  eltwise_param {
    operation: SUM
  }
}
layer {
  name: "lstm2_unit_3"
  type: "LSTMUnit"
  bottom: "c_2"
  bottom: "gate_input_3"
  bottom: "cont_3"
  top: "c_3"
  top: "h_3"
}
layer {
  name: "lstm2_h_conted_3"
  type: "Eltwise"
  bottom: "h_3"
  bottom: "cont_4"
  top: "h_conted_3"
  eltwise_param {
    operation: SUM
    coeff_blob: true
  }
}
layer {
  name: "lstm2_transform_4"
  type: "InnerProduct"
  bottom: "h_conted_3"
  top: "W_hc_h_3"
  param {
    name: "W_hc"
  }
  inner_product_param {
    num_output: 8192
    bias_term: false
    weight_filler {
      type: "uniform"
      min: -0.01
      max: 0.01
    }
    axis: 2
  }
}
layer {
  name: "lstm2_gate_input_4"
  type: "Eltwise"
  bottom: "W_hc_h_3"
  bottom: "W_xc_x_4"
  top: "gate_input_4"
  eltwise_param {
    operation: SUM
  }
}
layer {
  name: "lstm2_unit_4"
  type: "LSTMUnit"
  bottom: "c_3"
  bottom: "gate_input_4"
  bottom: "cont_4"
  top: "c_4"
  top: "h_4"
}
layer {
  name: "lstm2_h_conted_4"
  type: "Eltwise"
  bottom: "h_4"
  bottom: "cont_5"
  top: "h_conted_4"
  eltwise_param {
    operation: SUM
    coeff_blob: true
  }
}
layer {
  name: "lstm2_transform_5"
  type: "InnerProduct"
  bottom: "h_conted_4"
  top: "W_hc_h_4"
  param {
    name: "W_hc"
  }
  inner_product_param {
    num_output: 8192
    bias_term: false
    weight_filler {
      type: "uniform"
      min: -0.01
      max: 0.01
    }
    axis: 2
  }
}
layer {
  name: "lstm2_gate_input_5"
  type: "Eltwise"
  bottom: "W_hc_h_4"
  bottom: "W_xc_x_5"
  top: "gate_input_5"
  eltwise_param {
    operation: SUM
  }
}
layer {
  name: "lstm2_unit_5"
  type: "LSTMUnit"
  bottom: "c_4"
  bottom: "gate_input_5"
  bottom: "cont_5"
  top: "c_5"
  top: "h_5"
}
layer {
  name: "lstm2_h_conted_5"
  type: "Eltwise"
  bottom: "h_5"
  bottom: "cont_6"
  top: "h_conted_5"
  eltwise_param {
    operation: SUM
    coeff_blob: true
  }
}
layer {
  name: "lstm2_transform_6"
  type: "InnerProduct"
  bottom: "h_conted_5"
  top: "W_hc_h_5"
  param {
    name: "W_hc"
  }
  inner_product_param {
    num_output: 8192
    bias_term: false
    weight_filler {
      type: "uniform"
      min: -0.01
      max: 0.01
    }
    axis: 2
  }
}
layer {
  name: "lstm2_gate_input_6"
  type: "Eltwise"
  bottom: "W_hc_h_5"
  bottom: "W_xc_x_6"
  top: "gate_input_6"
  eltwise_param {
    operation: SUM
  }
}
layer {
  name: "lstm2_unit_6"
  type: "LSTMUnit"
  bottom: "c_5"
  bottom: "gate_input_6"
  bottom: "cont_6"
  top: "c_6"
  top: "h_6"
}
layer {
  name: "lstm2_h_conted_6"
  type: "Eltwise"
  bottom: "h_6"
  bottom: "cont_7"
  top: "h_conted_6"
  eltwise_param {
    operation: SUM
    coeff_blob: true
  }
}
layer {
  name: "lstm2_transform_7"
  type: "InnerProduct"
  bottom: "h_conted_6"
  top: "W_hc_h_6"
  param {
    name: "W_hc"
  }
  inner_product_param {
    num_output: 8192
    bias_term: false
    weight_filler {
      type: "uniform"
      min: -0.01
      max: 0.01
    }
    axis: 2
  }
}
layer {
  name: "lstm2_gate_input_7"
  type: "Eltwise"
  bottom: "W_hc_h_6"
  bottom: "W_xc_x_7"
  top: "gate_input_7"
  eltwise_param {
    operation: SUM
  }
}
layer {
  name: "lstm2_unit_7"
  type: "LSTMUnit"
  bottom: "c_6"
  bottom: "gate_input_7"
  bottom: "cont_7"
  top: "c_7"
  top: "h_7"
}
layer {
  name: "lstm2_h_conted_7"
  type: "Eltwise"
  bottom: "h_7"
  bottom: "cont_8"
  top: "h_conted_7"
  eltwise_param {
    operation: SUM
    coeff_blob: true
  }
}
layer {
  name: "lstm2_transform_8"
  type: "InnerProduct"
  bottom: "h_conted_7"
  top: "W_hc_h_7"
  param {
    name: "W_hc"
  }
  inner_product_param {
    num_output: 8192
    bias_term: false
    weight_filler {
      type: "uniform"
      min: -0.01
      max: 0.01
    }
    axis: 2
  }
}
layer {
  name: "lstm2_gate_input_8"
  type: "Eltwise"
  bottom: "W_hc_h_7"
  bottom: "W_xc_x_8"
  top: "gate_input_8"
  eltwise_param {
    operation: SUM
  }
}
layer {
  name: "lstm2_unit_8"
  type: "LSTMUnit"
  bottom: "c_7"
  bottom: "gate_input_8"
  bottom: "cont_8"
  top: "c_8"
  top: "h_8"
}
layer {
  name: "lstm2_"
  type: "Split"
  bottom: "c_8"
  top: "c_T"
}
layer {
  name: "lstm2_h_concat"
  type: "Concat"
  bottom: "h_1"
  bottom: "h_2"
  bottom: "h_3"
  bottom: "h_4"
  bottom: "h_5"
  bottom: "h_6"
  bottom: "h_7"
  bottom: "h_8"
  top: "h"
  concat_param {
    axis: 0
  }
}
I0308 19:50:01.313084 27741 net.cpp:351] Input 0 -> x
I0308 19:50:01.313094 27741 net.cpp:351] Input 1 -> cont
I0308 19:50:01.313101 27741 net.cpp:351] Input 2 -> c_0
I0308 19:50:01.313107 27741 net.cpp:351] Input 3 -> h_0
I0308 19:50:01.313117 27741 layer_factory.hpp:74] Creating layer lstm2_cont_slice
I0308 19:50:01.313123 27741 net.cpp:94] Creating Layer lstm2_cont_slice
I0308 19:50:01.313127 27741 net.cpp:391] lstm2_cont_slice <- cont
I0308 19:50:01.313133 27741 net.cpp:349] lstm2_cont_slice -> cont_1
I0308 19:50:01.313141 27741 net.cpp:349] lstm2_cont_slice -> cont_2
I0308 19:50:01.313148 27741 net.cpp:349] lstm2_cont_slice -> cont_3
I0308 19:50:01.313154 27741 net.cpp:349] lstm2_cont_slice -> cont_4
I0308 19:50:01.313161 27741 net.cpp:349] lstm2_cont_slice -> cont_5
I0308 19:50:01.313169 27741 net.cpp:349] lstm2_cont_slice -> cont_6
I0308 19:50:01.313174 27741 net.cpp:349] lstm2_cont_slice -> cont_7
I0308 19:50:01.313181 27741 net.cpp:349] lstm2_cont_slice -> cont_8
I0308 19:50:01.313186 27741 net.cpp:123] Setting up lstm2_cont_slice
I0308 19:50:01.313195 27741 net.cpp:130] Top shape: 1 1 16 (16)
I0308 19:50:01.313201 27741 net.cpp:130] Top shape: 1 1 16 (16)
I0308 19:50:01.313206 27741 net.cpp:130] Top shape: 1 1 16 (16)
I0308 19:50:01.313210 27741 net.cpp:130] Top shape: 1 1 16 (16)
I0308 19:50:01.313215 27741 net.cpp:130] Top shape: 1 1 16 (16)
I0308 19:50:01.313220 27741 net.cpp:130] Top shape: 1 1 16 (16)
I0308 19:50:01.313225 27741 net.cpp:130] Top shape: 1 1 16 (16)
I0308 19:50:01.313231 27741 net.cpp:130] Top shape: 1 1 16 (16)
I0308 19:50:01.313235 27741 layer_factory.hpp:74] Creating layer cont_1_lstm2_cont_slice_0_split
I0308 19:50:01.313241 27741 net.cpp:94] Creating Layer cont_1_lstm2_cont_slice_0_split
I0308 19:50:01.313246 27741 net.cpp:391] cont_1_lstm2_cont_slice_0_split <- cont_1
I0308 19:50:01.313251 27741 net.cpp:349] cont_1_lstm2_cont_slice_0_split -> cont_1_lstm2_cont_slice_0_split_0
I0308 19:50:01.313257 27741 net.cpp:349] cont_1_lstm2_cont_slice_0_split -> cont_1_lstm2_cont_slice_0_split_1
I0308 19:50:01.313263 27741 net.cpp:123] Setting up cont_1_lstm2_cont_slice_0_split
I0308 19:50:01.313269 27741 net.cpp:130] Top shape: 1 1 16 (16)
I0308 19:50:01.313274 27741 net.cpp:130] Top shape: 1 1 16 (16)
I0308 19:50:01.313279 27741 layer_factory.hpp:74] Creating layer cont_2_lstm2_cont_slice_1_split
I0308 19:50:01.313284 27741 net.cpp:94] Creating Layer cont_2_lstm2_cont_slice_1_split
I0308 19:50:01.313289 27741 net.cpp:391] cont_2_lstm2_cont_slice_1_split <- cont_2
I0308 19:50:01.313294 27741 net.cpp:349] cont_2_lstm2_cont_slice_1_split -> cont_2_lstm2_cont_slice_1_split_0
I0308 19:50:01.313300 27741 net.cpp:349] cont_2_lstm2_cont_slice_1_split -> cont_2_lstm2_cont_slice_1_split_1
I0308 19:50:01.313307 27741 net.cpp:123] Setting up cont_2_lstm2_cont_slice_1_split
I0308 19:50:01.313313 27741 net.cpp:130] Top shape: 1 1 16 (16)
I0308 19:50:01.313318 27741 net.cpp:130] Top shape: 1 1 16 (16)
I0308 19:50:01.313321 27741 layer_factory.hpp:74] Creating layer cont_3_lstm2_cont_slice_2_split
I0308 19:50:01.313326 27741 net.cpp:94] Creating Layer cont_3_lstm2_cont_slice_2_split
I0308 19:50:01.313331 27741 net.cpp:391] cont_3_lstm2_cont_slice_2_split <- cont_3
I0308 19:50:01.313336 27741 net.cpp:349] cont_3_lstm2_cont_slice_2_split -> cont_3_lstm2_cont_slice_2_split_0
I0308 19:50:01.313344 27741 net.cpp:349] cont_3_lstm2_cont_slice_2_split -> cont_3_lstm2_cont_slice_2_split_1
I0308 19:50:01.313349 27741 net.cpp:123] Setting up cont_3_lstm2_cont_slice_2_split
I0308 19:50:01.313355 27741 net.cpp:130] Top shape: 1 1 16 (16)
I0308 19:50:01.313360 27741 net.cpp:130] Top shape: 1 1 16 (16)
I0308 19:50:01.313365 27741 layer_factory.hpp:74] Creating layer cont_4_lstm2_cont_slice_3_split
I0308 19:50:01.313370 27741 net.cpp:94] Creating Layer cont_4_lstm2_cont_slice_3_split
I0308 19:50:01.313375 27741 net.cpp:391] cont_4_lstm2_cont_slice_3_split <- cont_4
I0308 19:50:01.313380 27741 net.cpp:349] cont_4_lstm2_cont_slice_3_split -> cont_4_lstm2_cont_slice_3_split_0
I0308 19:50:01.313386 27741 net.cpp:349] cont_4_lstm2_cont_slice_3_split -> cont_4_lstm2_cont_slice_3_split_1
I0308 19:50:01.313398 27741 net.cpp:123] Setting up cont_4_lstm2_cont_slice_3_split
I0308 19:50:01.313405 27741 net.cpp:130] Top shape: 1 1 16 (16)
I0308 19:50:01.313411 27741 net.cpp:130] Top shape: 1 1 16 (16)
I0308 19:50:01.313416 27741 layer_factory.hpp:74] Creating layer cont_5_lstm2_cont_slice_4_split
I0308 19:50:01.313421 27741 net.cpp:94] Creating Layer cont_5_lstm2_cont_slice_4_split
I0308 19:50:01.313426 27741 net.cpp:391] cont_5_lstm2_cont_slice_4_split <- cont_5
I0308 19:50:01.313431 27741 net.cpp:349] cont_5_lstm2_cont_slice_4_split -> cont_5_lstm2_cont_slice_4_split_0
I0308 19:50:01.313448 27741 net.cpp:349] cont_5_lstm2_cont_slice_4_split -> cont_5_lstm2_cont_slice_4_split_1
I0308 19:50:01.313454 27741 net.cpp:123] Setting up cont_5_lstm2_cont_slice_4_split
I0308 19:50:01.313462 27741 net.cpp:130] Top shape: 1 1 16 (16)
I0308 19:50:01.313467 27741 net.cpp:130] Top shape: 1 1 16 (16)
I0308 19:50:01.313470 27741 layer_factory.hpp:74] Creating layer cont_6_lstm2_cont_slice_5_split
I0308 19:50:01.313475 27741 net.cpp:94] Creating Layer cont_6_lstm2_cont_slice_5_split
I0308 19:50:01.313480 27741 net.cpp:391] cont_6_lstm2_cont_slice_5_split <- cont_6
I0308 19:50:01.313485 27741 net.cpp:349] cont_6_lstm2_cont_slice_5_split -> cont_6_lstm2_cont_slice_5_split_0
I0308 19:50:01.313491 27741 net.cpp:349] cont_6_lstm2_cont_slice_5_split -> cont_6_lstm2_cont_slice_5_split_1
I0308 19:50:01.313498 27741 net.cpp:123] Setting up cont_6_lstm2_cont_slice_5_split
I0308 19:50:01.313503 27741 net.cpp:130] Top shape: 1 1 16 (16)
I0308 19:50:01.313508 27741 net.cpp:130] Top shape: 1 1 16 (16)
I0308 19:50:01.313513 27741 layer_factory.hpp:74] Creating layer cont_7_lstm2_cont_slice_6_split
I0308 19:50:01.313518 27741 net.cpp:94] Creating Layer cont_7_lstm2_cont_slice_6_split
I0308 19:50:01.313522 27741 net.cpp:391] cont_7_lstm2_cont_slice_6_split <- cont_7
I0308 19:50:01.313527 27741 net.cpp:349] cont_7_lstm2_cont_slice_6_split -> cont_7_lstm2_cont_slice_6_split_0
I0308 19:50:01.313534 27741 net.cpp:349] cont_7_lstm2_cont_slice_6_split -> cont_7_lstm2_cont_slice_6_split_1
I0308 19:50:01.313539 27741 net.cpp:123] Setting up cont_7_lstm2_cont_slice_6_split
I0308 19:50:01.313545 27741 net.cpp:130] Top shape: 1 1 16 (16)
I0308 19:50:01.313550 27741 net.cpp:130] Top shape: 1 1 16 (16)
I0308 19:50:01.313555 27741 layer_factory.hpp:74] Creating layer cont_8_lstm2_cont_slice_7_split
I0308 19:50:01.313560 27741 net.cpp:94] Creating Layer cont_8_lstm2_cont_slice_7_split
I0308 19:50:01.313565 27741 net.cpp:391] cont_8_lstm2_cont_slice_7_split <- cont_8
I0308 19:50:01.313570 27741 net.cpp:349] cont_8_lstm2_cont_slice_7_split -> cont_8_lstm2_cont_slice_7_split_0
I0308 19:50:01.313576 27741 net.cpp:349] cont_8_lstm2_cont_slice_7_split -> cont_8_lstm2_cont_slice_7_split_1
I0308 19:50:01.313582 27741 net.cpp:123] Setting up cont_8_lstm2_cont_slice_7_split
I0308 19:50:01.313588 27741 net.cpp:130] Top shape: 1 1 16 (16)
I0308 19:50:01.313593 27741 net.cpp:130] Top shape: 1 1 16 (16)
I0308 19:50:01.313597 27741 layer_factory.hpp:74] Creating layer lstm2_x_transform
I0308 19:50:01.313603 27741 net.cpp:94] Creating Layer lstm2_x_transform
I0308 19:50:01.313608 27741 net.cpp:391] lstm2_x_transform <- x
I0308 19:50:01.313614 27741 net.cpp:349] lstm2_x_transform -> W_xc_x
I0308 19:50:01.313621 27741 net.cpp:123] Setting up lstm2_x_transform
I0308 19:50:01.504130 27741 net.cpp:130] Top shape: 8 16 8192 (1048576)
I0308 19:50:01.504194 27741 layer_factory.hpp:74] Creating layer lstm2_W_xc_x_slice
I0308 19:50:01.504210 27741 net.cpp:94] Creating Layer lstm2_W_xc_x_slice
I0308 19:50:01.504217 27741 net.cpp:391] lstm2_W_xc_x_slice <- W_xc_x
I0308 19:50:01.504227 27741 net.cpp:349] lstm2_W_xc_x_slice -> W_xc_x_1
I0308 19:50:01.504238 27741 net.cpp:349] lstm2_W_xc_x_slice -> W_xc_x_2
I0308 19:50:01.504247 27741 net.cpp:349] lstm2_W_xc_x_slice -> W_xc_x_3
I0308 19:50:01.504254 27741 net.cpp:349] lstm2_W_xc_x_slice -> W_xc_x_4
I0308 19:50:01.504266 27741 net.cpp:349] lstm2_W_xc_x_slice -> W_xc_x_5
I0308 19:50:01.504273 27741 net.cpp:349] lstm2_W_xc_x_slice -> W_xc_x_6
I0308 19:50:01.504325 27741 net.cpp:349] lstm2_W_xc_x_slice -> W_xc_x_7
I0308 19:50:01.504333 27741 net.cpp:349] lstm2_W_xc_x_slice -> W_xc_x_8
I0308 19:50:01.504339 27741 net.cpp:123] Setting up lstm2_W_xc_x_slice
I0308 19:50:01.504350 27741 net.cpp:130] Top shape: 1 16 8192 (131072)
I0308 19:50:01.504356 27741 net.cpp:130] Top shape: 1 16 8192 (131072)
I0308 19:50:01.504361 27741 net.cpp:130] Top shape: 1 16 8192 (131072)
I0308 19:50:01.504366 27741 net.cpp:130] Top shape: 1 16 8192 (131072)
I0308 19:50:01.504371 27741 net.cpp:130] Top shape: 1 16 8192 (131072)
I0308 19:50:01.504376 27741 net.cpp:130] Top shape: 1 16 8192 (131072)
I0308 19:50:01.504381 27741 net.cpp:130] Top shape: 1 16 8192 (131072)
I0308 19:50:01.504386 27741 net.cpp:130] Top shape: 1 16 8192 (131072)
I0308 19:50:01.504391 27741 layer_factory.hpp:74] Creating layer lstm2_h_conted_0
I0308 19:50:01.504400 27741 net.cpp:94] Creating Layer lstm2_h_conted_0
I0308 19:50:01.504416 27741 net.cpp:391] lstm2_h_conted_0 <- h_0
I0308 19:50:01.504422 27741 net.cpp:391] lstm2_h_conted_0 <- cont_1_lstm2_cont_slice_0_split_0
I0308 19:50:01.504429 27741 net.cpp:349] lstm2_h_conted_0 -> h_conted_0
I0308 19:50:01.504446 27741 net.cpp:123] Setting up lstm2_h_conted_0
I0308 19:50:01.504456 27741 net.cpp:130] Top shape: 1 16 2048 (32768)
I0308 19:50:01.504459 27741 layer_factory.hpp:74] Creating layer lstm2_transform_1
I0308 19:50:01.504469 27741 net.cpp:94] Creating Layer lstm2_transform_1
I0308 19:50:01.504474 27741 net.cpp:391] lstm2_transform_1 <- h_conted_0
I0308 19:50:01.504490 27741 net.cpp:349] lstm2_transform_1 -> W_hc_h_0
I0308 19:50:01.504498 27741 net.cpp:123] Setting up lstm2_transform_1
I0308 19:50:01.597192 27741 net.cpp:130] Top shape: 1 16 8192 (131072)
I0308 19:50:01.597254 27741 layer_factory.hpp:74] Creating layer lstm2_gate_input_1
I0308 19:50:01.597270 27741 net.cpp:94] Creating Layer lstm2_gate_input_1
I0308 19:50:01.597277 27741 net.cpp:391] lstm2_gate_input_1 <- W_hc_h_0
I0308 19:50:01.597286 27741 net.cpp:391] lstm2_gate_input_1 <- W_xc_x_1
I0308 19:50:01.597293 27741 net.cpp:349] lstm2_gate_input_1 -> gate_input_1
I0308 19:50:01.597303 27741 net.cpp:123] Setting up lstm2_gate_input_1
I0308 19:50:01.597312 27741 net.cpp:130] Top shape: 1 16 8192 (131072)
I0308 19:50:01.597317 27741 layer_factory.hpp:74] Creating layer lstm2_unit_1
I0308 19:50:01.597326 27741 net.cpp:94] Creating Layer lstm2_unit_1
I0308 19:50:01.597332 27741 net.cpp:391] lstm2_unit_1 <- c_0
I0308 19:50:01.597337 27741 net.cpp:391] lstm2_unit_1 <- gate_input_1
I0308 19:50:01.597342 27741 net.cpp:391] lstm2_unit_1 <- cont_1_lstm2_cont_slice_0_split_1
I0308 19:50:01.597349 27741 net.cpp:349] lstm2_unit_1 -> c_1
I0308 19:50:01.597357 27741 net.cpp:349] lstm2_unit_1 -> h_1
I0308 19:50:01.597363 27741 net.cpp:123] Setting up lstm2_unit_1
I0308 19:50:01.597371 27741 net.cpp:130] Top shape: 1 16 2048 (32768)
I0308 19:50:01.597378 27741 net.cpp:130] Top shape: 1 16 2048 (32768)
I0308 19:50:01.597381 27741 layer_factory.hpp:74] Creating layer h_1_lstm2_unit_1_1_split
I0308 19:50:01.597389 27741 net.cpp:94] Creating Layer h_1_lstm2_unit_1_1_split
I0308 19:50:01.597393 27741 net.cpp:391] h_1_lstm2_unit_1_1_split <- h_1
I0308 19:50:01.597400 27741 net.cpp:349] h_1_lstm2_unit_1_1_split -> h_1_lstm2_unit_1_1_split_0
I0308 19:50:01.597417 27741 net.cpp:349] h_1_lstm2_unit_1_1_split -> h_1_lstm2_unit_1_1_split_1
I0308 19:50:01.597424 27741 net.cpp:123] Setting up h_1_lstm2_unit_1_1_split
I0308 19:50:01.597441 27741 net.cpp:130] Top shape: 1 16 2048 (32768)
I0308 19:50:01.597447 27741 net.cpp:130] Top shape: 1 16 2048 (32768)
I0308 19:50:01.597452 27741 layer_factory.hpp:74] Creating layer lstm2_h_conted_1
I0308 19:50:01.597461 27741 net.cpp:94] Creating Layer lstm2_h_conted_1
I0308 19:50:01.597468 27741 net.cpp:391] lstm2_h_conted_1 <- h_1_lstm2_unit_1_1_split_0
I0308 19:50:01.597475 27741 net.cpp:391] lstm2_h_conted_1 <- cont_2_lstm2_cont_slice_1_split_0
I0308 19:50:01.597481 27741 net.cpp:349] lstm2_h_conted_1 -> h_conted_1
I0308 19:50:01.597491 27741 net.cpp:123] Setting up lstm2_h_conted_1
I0308 19:50:01.597527 27741 net.cpp:130] Top shape: 1 16 2048 (32768)
I0308 19:50:01.597532 27741 layer_factory.hpp:74] Creating layer lstm2_transform_2
I0308 19:50:01.597542 27741 net.cpp:94] Creating Layer lstm2_transform_2
I0308 19:50:01.597551 27741 net.cpp:391] lstm2_transform_2 <- h_conted_1
I0308 19:50:01.597558 27741 net.cpp:349] lstm2_transform_2 -> W_hc_h_1
I0308 19:50:01.597566 27741 net.cpp:123] Setting up lstm2_transform_2
I0308 19:50:01.690439 27741 net.cpp:130] Top shape: 1 16 8192 (131072)
I0308 19:50:01.690487 27741 net.cpp:435] Sharing parameters 'W_hc' owned by layer 'lstm2_transform_1', param index 0
I0308 19:50:01.690495 27741 layer_factory.hpp:74] Creating layer lstm2_gate_input_2
I0308 19:50:01.690510 27741 net.cpp:94] Creating Layer lstm2_gate_input_2
I0308 19:50:01.690516 27741 net.cpp:391] lstm2_gate_input_2 <- W_hc_h_1
I0308 19:50:01.690526 27741 net.cpp:391] lstm2_gate_input_2 <- W_xc_x_2
I0308 19:50:01.690534 27741 net.cpp:349] lstm2_gate_input_2 -> gate_input_2
I0308 19:50:01.690546 27741 net.cpp:123] Setting up lstm2_gate_input_2
I0308 19:50:01.690556 27741 net.cpp:130] Top shape: 1 16 8192 (131072)
I0308 19:50:01.690562 27741 layer_factory.hpp:74] Creating layer lstm2_unit_2
I0308 19:50:01.690568 27741 net.cpp:94] Creating Layer lstm2_unit_2
I0308 19:50:01.690573 27741 net.cpp:391] lstm2_unit_2 <- c_1
I0308 19:50:01.690578 27741 net.cpp:391] lstm2_unit_2 <- gate_input_2
I0308 19:50:01.690584 27741 net.cpp:391] lstm2_unit_2 <- cont_2_lstm2_cont_slice_1_split_1
I0308 19:50:01.690590 27741 net.cpp:349] lstm2_unit_2 -> c_2
I0308 19:50:01.690598 27741 net.cpp:349] lstm2_unit_2 -> h_2
I0308 19:50:01.690605 27741 net.cpp:123] Setting up lstm2_unit_2
I0308 19:50:01.690613 27741 net.cpp:130] Top shape: 1 16 2048 (32768)
I0308 19:50:01.690629 27741 net.cpp:130] Top shape: 1 16 2048 (32768)
I0308 19:50:01.690634 27741 layer_factory.hpp:74] Creating layer h_2_lstm2_unit_2_1_split
I0308 19:50:01.690641 27741 net.cpp:94] Creating Layer h_2_lstm2_unit_2_1_split
I0308 19:50:01.690649 27741 net.cpp:391] h_2_lstm2_unit_2_1_split <- h_2
I0308 19:50:01.690655 27741 net.cpp:349] h_2_lstm2_unit_2_1_split -> h_2_lstm2_unit_2_1_split_0
I0308 19:50:01.690662 27741 net.cpp:349] h_2_lstm2_unit_2_1_split -> h_2_lstm2_unit_2_1_split_1
I0308 19:50:01.690670 27741 net.cpp:123] Setting up h_2_lstm2_unit_2_1_split
I0308 19:50:01.690678 27741 net.cpp:130] Top shape: 1 16 2048 (32768)
I0308 19:50:01.690685 27741 net.cpp:130] Top shape: 1 16 2048 (32768)
I0308 19:50:01.690690 27741 layer_factory.hpp:74] Creating layer lstm2_h_conted_2
I0308 19:50:01.690696 27741 net.cpp:94] Creating Layer lstm2_h_conted_2
I0308 19:50:01.690701 27741 net.cpp:391] lstm2_h_conted_2 <- h_2_lstm2_unit_2_1_split_0
I0308 19:50:01.690706 27741 net.cpp:391] lstm2_h_conted_2 <- cont_3_lstm2_cont_slice_2_split_0
I0308 19:50:01.690713 27741 net.cpp:349] lstm2_h_conted_2 -> h_conted_2
I0308 19:50:01.690719 27741 net.cpp:123] Setting up lstm2_h_conted_2
I0308 19:50:01.690726 27741 net.cpp:130] Top shape: 1 16 2048 (32768)
I0308 19:50:01.690731 27741 layer_factory.hpp:74] Creating layer lstm2_transform_3
I0308 19:50:01.690740 27741 net.cpp:94] Creating Layer lstm2_transform_3
I0308 19:50:01.690745 27741 net.cpp:391] lstm2_transform_3 <- h_conted_2
I0308 19:50:01.690752 27741 net.cpp:349] lstm2_transform_3 -> W_hc_h_2
I0308 19:50:01.690759 27741 net.cpp:123] Setting up lstm2_transform_3
I0308 19:50:01.783702 27741 net.cpp:130] Top shape: 1 16 8192 (131072)
I0308 19:50:01.783761 27741 net.cpp:435] Sharing parameters 'W_hc' owned by layer 'lstm2_transform_1', param index 0
I0308 19:50:01.783768 27741 layer_factory.hpp:74] Creating layer lstm2_gate_input_3
I0308 19:50:01.783784 27741 net.cpp:94] Creating Layer lstm2_gate_input_3
I0308 19:50:01.783792 27741 net.cpp:391] lstm2_gate_input_3 <- W_hc_h_2
I0308 19:50:01.783800 27741 net.cpp:391] lstm2_gate_input_3 <- W_xc_x_3
I0308 19:50:01.783808 27741 net.cpp:349] lstm2_gate_input_3 -> gate_input_3
I0308 19:50:01.783820 27741 net.cpp:123] Setting up lstm2_gate_input_3
I0308 19:50:01.783869 27741 net.cpp:130] Top shape: 1 16 8192 (131072)
I0308 19:50:01.783874 27741 layer_factory.hpp:74] Creating layer lstm2_unit_3
I0308 19:50:01.783881 27741 net.cpp:94] Creating Layer lstm2_unit_3
I0308 19:50:01.783896 27741 net.cpp:391] lstm2_unit_3 <- c_2
I0308 19:50:01.783902 27741 net.cpp:391] lstm2_unit_3 <- gate_input_3
I0308 19:50:01.783908 27741 net.cpp:391] lstm2_unit_3 <- cont_3_lstm2_cont_slice_2_split_1
I0308 19:50:01.783917 27741 net.cpp:349] lstm2_unit_3 -> c_3
I0308 19:50:01.783926 27741 net.cpp:349] lstm2_unit_3 -> h_3
I0308 19:50:01.783932 27741 net.cpp:123] Setting up lstm2_unit_3
I0308 19:50:01.783941 27741 net.cpp:130] Top shape: 1 16 2048 (32768)
I0308 19:50:01.783946 27741 net.cpp:130] Top shape: 1 16 2048 (32768)
I0308 19:50:01.783951 27741 layer_factory.hpp:74] Creating layer h_3_lstm2_unit_3_1_split
I0308 19:50:01.783957 27741 net.cpp:94] Creating Layer h_3_lstm2_unit_3_1_split
I0308 19:50:01.783962 27741 net.cpp:391] h_3_lstm2_unit_3_1_split <- h_3
I0308 19:50:01.783967 27741 net.cpp:349] h_3_lstm2_unit_3_1_split -> h_3_lstm2_unit_3_1_split_0
I0308 19:50:01.783974 27741 net.cpp:349] h_3_lstm2_unit_3_1_split -> h_3_lstm2_unit_3_1_split_1
I0308 19:50:01.783983 27741 net.cpp:123] Setting up h_3_lstm2_unit_3_1_split
I0308 19:50:01.783990 27741 net.cpp:130] Top shape: 1 16 2048 (32768)
I0308 19:50:01.783996 27741 net.cpp:130] Top shape: 1 16 2048 (32768)
I0308 19:50:01.784001 27741 layer_factory.hpp:74] Creating layer lstm2_h_conted_3
I0308 19:50:01.784008 27741 net.cpp:94] Creating Layer lstm2_h_conted_3
I0308 19:50:01.784015 27741 net.cpp:391] lstm2_h_conted_3 <- h_3_lstm2_unit_3_1_split_0
I0308 19:50:01.784020 27741 net.cpp:391] lstm2_h_conted_3 <- cont_4_lstm2_cont_slice_3_split_0
I0308 19:50:01.784027 27741 net.cpp:349] lstm2_h_conted_3 -> h_conted_3
I0308 19:50:01.784034 27741 net.cpp:123] Setting up lstm2_h_conted_3
I0308 19:50:01.784041 27741 net.cpp:130] Top shape: 1 16 2048 (32768)
I0308 19:50:01.784045 27741 layer_factory.hpp:74] Creating layer lstm2_transform_4
I0308 19:50:01.784054 27741 net.cpp:94] Creating Layer lstm2_transform_4
I0308 19:50:01.784062 27741 net.cpp:391] lstm2_transform_4 <- h_conted_3
I0308 19:50:01.784070 27741 net.cpp:349] lstm2_transform_4 -> W_hc_h_3
I0308 19:50:01.784076 27741 net.cpp:123] Setting up lstm2_transform_4
I0308 19:50:01.877709 27741 net.cpp:130] Top shape: 1 16 8192 (131072)
I0308 19:50:01.877766 27741 net.cpp:435] Sharing parameters 'W_hc' owned by layer 'lstm2_transform_1', param index 0
I0308 19:50:01.877774 27741 layer_factory.hpp:74] Creating layer lstm2_gate_input_4
I0308 19:50:01.877792 27741 net.cpp:94] Creating Layer lstm2_gate_input_4
I0308 19:50:01.877799 27741 net.cpp:391] lstm2_gate_input_4 <- W_hc_h_3
I0308 19:50:01.877809 27741 net.cpp:391] lstm2_gate_input_4 <- W_xc_x_4
I0308 19:50:01.877815 27741 net.cpp:349] lstm2_gate_input_4 -> gate_input_4
I0308 19:50:01.877825 27741 net.cpp:123] Setting up lstm2_gate_input_4
I0308 19:50:01.877835 27741 net.cpp:130] Top shape: 1 16 8192 (131072)
I0308 19:50:01.877840 27741 layer_factory.hpp:74] Creating layer lstm2_unit_4
I0308 19:50:01.877846 27741 net.cpp:94] Creating Layer lstm2_unit_4
I0308 19:50:01.877851 27741 net.cpp:391] lstm2_unit_4 <- c_3
I0308 19:50:01.877857 27741 net.cpp:391] lstm2_unit_4 <- gate_input_4
I0308 19:50:01.877862 27741 net.cpp:391] lstm2_unit_4 <- cont_4_lstm2_cont_slice_3_split_1
I0308 19:50:01.877868 27741 net.cpp:349] lstm2_unit_4 -> c_4
I0308 19:50:01.877876 27741 net.cpp:349] lstm2_unit_4 -> h_4
I0308 19:50:01.877882 27741 net.cpp:123] Setting up lstm2_unit_4
I0308 19:50:01.877892 27741 net.cpp:130] Top shape: 1 16 2048 (32768)
I0308 19:50:01.877897 27741 net.cpp:130] Top shape: 1 16 2048 (32768)
I0308 19:50:01.877902 27741 layer_factory.hpp:74] Creating layer h_4_lstm2_unit_4_1_split
I0308 19:50:01.877908 27741 net.cpp:94] Creating Layer h_4_lstm2_unit_4_1_split
I0308 19:50:01.877923 27741 net.cpp:391] h_4_lstm2_unit_4_1_split <- h_4
I0308 19:50:01.877928 27741 net.cpp:349] h_4_lstm2_unit_4_1_split -> h_4_lstm2_unit_4_1_split_0
I0308 19:50:01.877965 27741 net.cpp:349] h_4_lstm2_unit_4_1_split -> h_4_lstm2_unit_4_1_split_1
I0308 19:50:01.877982 27741 net.cpp:123] Setting up h_4_lstm2_unit_4_1_split
I0308 19:50:01.877995 27741 net.cpp:130] Top shape: 1 16 2048 (32768)
I0308 19:50:01.878002 27741 net.cpp:130] Top shape: 1 16 2048 (32768)
I0308 19:50:01.878006 27741 layer_factory.hpp:74] Creating layer lstm2_h_conted_4
I0308 19:50:01.878013 27741 net.cpp:94] Creating Layer lstm2_h_conted_4
I0308 19:50:01.878017 27741 net.cpp:391] lstm2_h_conted_4 <- h_4_lstm2_unit_4_1_split_0
I0308 19:50:01.878023 27741 net.cpp:391] lstm2_h_conted_4 <- cont_5_lstm2_cont_slice_4_split_0
I0308 19:50:01.878031 27741 net.cpp:349] lstm2_h_conted_4 -> h_conted_4
I0308 19:50:01.878038 27741 net.cpp:123] Setting up lstm2_h_conted_4
I0308 19:50:01.878044 27741 net.cpp:130] Top shape: 1 16 2048 (32768)
I0308 19:50:01.878051 27741 layer_factory.hpp:74] Creating layer lstm2_transform_5
I0308 19:50:01.878064 27741 net.cpp:94] Creating Layer lstm2_transform_5
I0308 19:50:01.878070 27741 net.cpp:391] lstm2_transform_5 <- h_conted_4
I0308 19:50:01.878077 27741 net.cpp:349] lstm2_transform_5 -> W_hc_h_4
I0308 19:50:01.878084 27741 net.cpp:123] Setting up lstm2_transform_5
I0308 19:50:01.971113 27741 net.cpp:130] Top shape: 1 16 8192 (131072)
I0308 19:50:01.971165 27741 net.cpp:435] Sharing parameters 'W_hc' owned by layer 'lstm2_transform_1', param index 0
I0308 19:50:01.971174 27741 layer_factory.hpp:74] Creating layer lstm2_gate_input_5
I0308 19:50:01.971189 27741 net.cpp:94] Creating Layer lstm2_gate_input_5
I0308 19:50:01.971194 27741 net.cpp:391] lstm2_gate_input_5 <- W_hc_h_4
I0308 19:50:01.971204 27741 net.cpp:391] lstm2_gate_input_5 <- W_xc_x_5
I0308 19:50:01.971210 27741 net.cpp:349] lstm2_gate_input_5 -> gate_input_5
I0308 19:50:01.971221 27741 net.cpp:123] Setting up lstm2_gate_input_5
I0308 19:50:01.971230 27741 net.cpp:130] Top shape: 1 16 8192 (131072)
I0308 19:50:01.971235 27741 layer_factory.hpp:74] Creating layer lstm2_unit_5
I0308 19:50:01.971242 27741 net.cpp:94] Creating Layer lstm2_unit_5
I0308 19:50:01.971247 27741 net.cpp:391] lstm2_unit_5 <- c_4
I0308 19:50:01.971252 27741 net.cpp:391] lstm2_unit_5 <- gate_input_5
I0308 19:50:01.971258 27741 net.cpp:391] lstm2_unit_5 <- cont_5_lstm2_cont_slice_4_split_1
I0308 19:50:01.971266 27741 net.cpp:349] lstm2_unit_5 -> c_5
I0308 19:50:01.971272 27741 net.cpp:349] lstm2_unit_5 -> h_5
I0308 19:50:01.971279 27741 net.cpp:123] Setting up lstm2_unit_5
I0308 19:50:01.971287 27741 net.cpp:130] Top shape: 1 16 2048 (32768)
I0308 19:50:01.971292 27741 net.cpp:130] Top shape: 1 16 2048 (32768)
I0308 19:50:01.971297 27741 layer_factory.hpp:74] Creating layer h_5_lstm2_unit_5_1_split
I0308 19:50:01.971303 27741 net.cpp:94] Creating Layer h_5_lstm2_unit_5_1_split
I0308 19:50:01.971308 27741 net.cpp:391] h_5_lstm2_unit_5_1_split <- h_5
I0308 19:50:01.971314 27741 net.cpp:349] h_5_lstm2_unit_5_1_split -> h_5_lstm2_unit_5_1_split_0
I0308 19:50:01.971321 27741 net.cpp:349] h_5_lstm2_unit_5_1_split -> h_5_lstm2_unit_5_1_split_1
I0308 19:50:01.971328 27741 net.cpp:123] Setting up h_5_lstm2_unit_5_1_split
I0308 19:50:01.971334 27741 net.cpp:130] Top shape: 1 16 2048 (32768)
I0308 19:50:01.971340 27741 net.cpp:130] Top shape: 1 16 2048 (32768)
I0308 19:50:01.971344 27741 layer_factory.hpp:74] Creating layer lstm2_h_conted_5
I0308 19:50:01.971350 27741 net.cpp:94] Creating Layer lstm2_h_conted_5
I0308 19:50:01.971355 27741 net.cpp:391] lstm2_h_conted_5 <- h_5_lstm2_unit_5_1_split_0
I0308 19:50:01.971360 27741 net.cpp:391] lstm2_h_conted_5 <- cont_6_lstm2_cont_slice_5_split_0
I0308 19:50:01.971366 27741 net.cpp:349] lstm2_h_conted_5 -> h_conted_5
I0308 19:50:01.971384 27741 net.cpp:123] Setting up lstm2_h_conted_5
I0308 19:50:01.971390 27741 net.cpp:130] Top shape: 1 16 2048 (32768)
I0308 19:50:01.971396 27741 layer_factory.hpp:74] Creating layer lstm2_transform_6
I0308 19:50:01.971405 27741 net.cpp:94] Creating Layer lstm2_transform_6
I0308 19:50:01.971411 27741 net.cpp:391] lstm2_transform_6 <- h_conted_5
I0308 19:50:01.971418 27741 net.cpp:349] lstm2_transform_6 -> W_hc_h_5
I0308 19:50:01.971469 27741 net.cpp:123] Setting up lstm2_transform_6
I0308 19:50:02.064512 27741 net.cpp:130] Top shape: 1 16 8192 (131072)
I0308 19:50:02.064558 27741 net.cpp:435] Sharing parameters 'W_hc' owned by layer 'lstm2_transform_1', param index 0
I0308 19:50:02.064566 27741 layer_factory.hpp:74] Creating layer lstm2_gate_input_6
I0308 19:50:02.064581 27741 net.cpp:94] Creating Layer lstm2_gate_input_6
I0308 19:50:02.064587 27741 net.cpp:391] lstm2_gate_input_6 <- W_hc_h_5
I0308 19:50:02.064595 27741 net.cpp:391] lstm2_gate_input_6 <- W_xc_x_6
I0308 19:50:02.064604 27741 net.cpp:349] lstm2_gate_input_6 -> gate_input_6
I0308 19:50:02.064615 27741 net.cpp:123] Setting up lstm2_gate_input_6
I0308 19:50:02.064625 27741 net.cpp:130] Top shape: 1 16 8192 (131072)
I0308 19:50:02.064630 27741 layer_factory.hpp:74] Creating layer lstm2_unit_6
I0308 19:50:02.064637 27741 net.cpp:94] Creating Layer lstm2_unit_6
I0308 19:50:02.064641 27741 net.cpp:391] lstm2_unit_6 <- c_5
I0308 19:50:02.064647 27741 net.cpp:391] lstm2_unit_6 <- gate_input_6
I0308 19:50:02.064652 27741 net.cpp:391] lstm2_unit_6 <- cont_6_lstm2_cont_slice_5_split_1
I0308 19:50:02.064659 27741 net.cpp:349] lstm2_unit_6 -> c_6
I0308 19:50:02.064667 27741 net.cpp:349] lstm2_unit_6 -> h_6
I0308 19:50:02.064673 27741 net.cpp:123] Setting up lstm2_unit_6
I0308 19:50:02.064682 27741 net.cpp:130] Top shape: 1 16 2048 (32768)
I0308 19:50:02.064687 27741 net.cpp:130] Top shape: 1 16 2048 (32768)
I0308 19:50:02.064692 27741 layer_factory.hpp:74] Creating layer h_6_lstm2_unit_6_1_split
I0308 19:50:02.064698 27741 net.cpp:94] Creating Layer h_6_lstm2_unit_6_1_split
I0308 19:50:02.064703 27741 net.cpp:391] h_6_lstm2_unit_6_1_split <- h_6
I0308 19:50:02.064709 27741 net.cpp:349] h_6_lstm2_unit_6_1_split -> h_6_lstm2_unit_6_1_split_0
I0308 19:50:02.064716 27741 net.cpp:349] h_6_lstm2_unit_6_1_split -> h_6_lstm2_unit_6_1_split_1
I0308 19:50:02.064723 27741 net.cpp:123] Setting up h_6_lstm2_unit_6_1_split
I0308 19:50:02.064730 27741 net.cpp:130] Top shape: 1 16 2048 (32768)
I0308 19:50:02.064735 27741 net.cpp:130] Top shape: 1 16 2048 (32768)
I0308 19:50:02.064751 27741 layer_factory.hpp:74] Creating layer lstm2_h_conted_6
I0308 19:50:02.064757 27741 net.cpp:94] Creating Layer lstm2_h_conted_6
I0308 19:50:02.064762 27741 net.cpp:391] lstm2_h_conted_6 <- h_6_lstm2_unit_6_1_split_0
I0308 19:50:02.064767 27741 net.cpp:391] lstm2_h_conted_6 <- cont_7_lstm2_cont_slice_6_split_0
I0308 19:50:02.064774 27741 net.cpp:349] lstm2_h_conted_6 -> h_conted_6
I0308 19:50:02.064781 27741 net.cpp:123] Setting up lstm2_h_conted_6
I0308 19:50:02.064788 27741 net.cpp:130] Top shape: 1 16 2048 (32768)
I0308 19:50:02.064795 27741 layer_factory.hpp:74] Creating layer lstm2_transform_7
I0308 19:50:02.064803 27741 net.cpp:94] Creating Layer lstm2_transform_7
I0308 19:50:02.064808 27741 net.cpp:391] lstm2_transform_7 <- h_conted_6
I0308 19:50:02.064816 27741 net.cpp:349] lstm2_transform_7 -> W_hc_h_6
I0308 19:50:02.064826 27741 net.cpp:123] Setting up lstm2_transform_7
I0308 19:50:02.157812 27741 net.cpp:130] Top shape: 1 16 8192 (131072)
I0308 19:50:02.157865 27741 net.cpp:435] Sharing parameters 'W_hc' owned by layer 'lstm2_transform_1', param index 0
I0308 19:50:02.157872 27741 layer_factory.hpp:74] Creating layer lstm2_gate_input_7
I0308 19:50:02.157886 27741 net.cpp:94] Creating Layer lstm2_gate_input_7
I0308 19:50:02.157892 27741 net.cpp:391] lstm2_gate_input_7 <- W_hc_h_6
I0308 19:50:02.157902 27741 net.cpp:391] lstm2_gate_input_7 <- W_xc_x_7
I0308 19:50:02.157908 27741 net.cpp:349] lstm2_gate_input_7 -> gate_input_7
I0308 19:50:02.157919 27741 net.cpp:123] Setting up lstm2_gate_input_7
I0308 19:50:02.157928 27741 net.cpp:130] Top shape: 1 16 8192 (131072)
I0308 19:50:02.157933 27741 layer_factory.hpp:74] Creating layer lstm2_unit_7
I0308 19:50:02.157941 27741 net.cpp:94] Creating Layer lstm2_unit_7
I0308 19:50:02.157946 27741 net.cpp:391] lstm2_unit_7 <- c_6
I0308 19:50:02.157951 27741 net.cpp:391] lstm2_unit_7 <- gate_input_7
I0308 19:50:02.157956 27741 net.cpp:391] lstm2_unit_7 <- cont_7_lstm2_cont_slice_6_split_1
I0308 19:50:02.157997 27741 net.cpp:349] lstm2_unit_7 -> c_7
I0308 19:50:02.158005 27741 net.cpp:349] lstm2_unit_7 -> h_7
I0308 19:50:02.158012 27741 net.cpp:123] Setting up lstm2_unit_7
I0308 19:50:02.158020 27741 net.cpp:130] Top shape: 1 16 2048 (32768)
I0308 19:50:02.158026 27741 net.cpp:130] Top shape: 1 16 2048 (32768)
I0308 19:50:02.158030 27741 layer_factory.hpp:74] Creating layer h_7_lstm2_unit_7_1_split
I0308 19:50:02.158038 27741 net.cpp:94] Creating Layer h_7_lstm2_unit_7_1_split
I0308 19:50:02.158042 27741 net.cpp:391] h_7_lstm2_unit_7_1_split <- h_7
I0308 19:50:02.158049 27741 net.cpp:349] h_7_lstm2_unit_7_1_split -> h_7_lstm2_unit_7_1_split_0
I0308 19:50:02.158066 27741 net.cpp:349] h_7_lstm2_unit_7_1_split -> h_7_lstm2_unit_7_1_split_1
I0308 19:50:02.158072 27741 net.cpp:123] Setting up h_7_lstm2_unit_7_1_split
I0308 19:50:02.158082 27741 net.cpp:130] Top shape: 1 16 2048 (32768)
I0308 19:50:02.158090 27741 net.cpp:130] Top shape: 1 16 2048 (32768)
I0308 19:50:02.158094 27741 layer_factory.hpp:74] Creating layer lstm2_h_conted_7
I0308 19:50:02.158100 27741 net.cpp:94] Creating Layer lstm2_h_conted_7
I0308 19:50:02.158105 27741 net.cpp:391] lstm2_h_conted_7 <- h_7_lstm2_unit_7_1_split_0
I0308 19:50:02.158110 27741 net.cpp:391] lstm2_h_conted_7 <- cont_8_lstm2_cont_slice_7_split_0
I0308 19:50:02.158119 27741 net.cpp:349] lstm2_h_conted_7 -> h_conted_7
I0308 19:50:02.158126 27741 net.cpp:123] Setting up lstm2_h_conted_7
I0308 19:50:02.158134 27741 net.cpp:130] Top shape: 1 16 2048 (32768)
I0308 19:50:02.158138 27741 layer_factory.hpp:74] Creating layer lstm2_transform_8
I0308 19:50:02.158148 27741 net.cpp:94] Creating Layer lstm2_transform_8
I0308 19:50:02.158152 27741 net.cpp:391] lstm2_transform_8 <- h_conted_7
I0308 19:50:02.158159 27741 net.cpp:349] lstm2_transform_8 -> W_hc_h_7
I0308 19:50:02.158166 27741 net.cpp:123] Setting up lstm2_transform_8
I0308 19:50:02.250988 27741 net.cpp:130] Top shape: 1 16 8192 (131072)
I0308 19:50:02.251041 27741 net.cpp:435] Sharing parameters 'W_hc' owned by layer 'lstm2_transform_1', param index 0
I0308 19:50:02.251049 27741 layer_factory.hpp:74] Creating layer lstm2_gate_input_8
I0308 19:50:02.251062 27741 net.cpp:94] Creating Layer lstm2_gate_input_8
I0308 19:50:02.251070 27741 net.cpp:391] lstm2_gate_input_8 <- W_hc_h_7
I0308 19:50:02.251077 27741 net.cpp:391] lstm2_gate_input_8 <- W_xc_x_8
I0308 19:50:02.251085 27741 net.cpp:349] lstm2_gate_input_8 -> gate_input_8
I0308 19:50:02.251096 27741 net.cpp:123] Setting up lstm2_gate_input_8
I0308 19:50:02.251104 27741 net.cpp:130] Top shape: 1 16 8192 (131072)
I0308 19:50:02.251108 27741 layer_factory.hpp:74] Creating layer lstm2_unit_8
I0308 19:50:02.251116 27741 net.cpp:94] Creating Layer lstm2_unit_8
I0308 19:50:02.251121 27741 net.cpp:391] lstm2_unit_8 <- c_7
I0308 19:50:02.251126 27741 net.cpp:391] lstm2_unit_8 <- gate_input_8
I0308 19:50:02.251132 27741 net.cpp:391] lstm2_unit_8 <- cont_8_lstm2_cont_slice_7_split_1
I0308 19:50:02.251138 27741 net.cpp:349] lstm2_unit_8 -> c_8
I0308 19:50:02.251145 27741 net.cpp:349] lstm2_unit_8 -> h_8
I0308 19:50:02.251152 27741 net.cpp:123] Setting up lstm2_unit_8
I0308 19:50:02.251159 27741 net.cpp:130] Top shape: 1 16 2048 (32768)
I0308 19:50:02.251164 27741 net.cpp:130] Top shape: 1 16 2048 (32768)
I0308 19:50:02.251168 27741 layer_factory.hpp:74] Creating layer lstm2_
I0308 19:50:02.251175 27741 net.cpp:94] Creating Layer lstm2_
I0308 19:50:02.251180 27741 net.cpp:391] lstm2_ <- c_8
I0308 19:50:02.251185 27741 net.cpp:349] lstm2_ -> c_T
I0308 19:50:02.251191 27741 net.cpp:123] Setting up lstm2_
I0308 19:50:02.251199 27741 net.cpp:130] Top shape: 1 16 2048 (32768)
I0308 19:50:02.251202 27741 layer_factory.hpp:74] Creating layer lstm2_h_concat
I0308 19:50:02.251211 27741 net.cpp:94] Creating Layer lstm2_h_concat
I0308 19:50:02.251215 27741 net.cpp:391] lstm2_h_concat <- h_1_lstm2_unit_1_1_split_1
I0308 19:50:02.251221 27741 net.cpp:391] lstm2_h_concat <- h_2_lstm2_unit_2_1_split_1
I0308 19:50:02.251226 27741 net.cpp:391] lstm2_h_concat <- h_3_lstm2_unit_3_1_split_1
I0308 19:50:02.251267 27741 net.cpp:391] lstm2_h_concat <- h_4_lstm2_unit_4_1_split_1
I0308 19:50:02.251273 27741 net.cpp:391] lstm2_h_concat <- h_5_lstm2_unit_5_1_split_1
I0308 19:50:02.251278 27741 net.cpp:391] lstm2_h_concat <- h_6_lstm2_unit_6_1_split_1
I0308 19:50:02.251282 27741 net.cpp:391] lstm2_h_concat <- h_7_lstm2_unit_7_1_split_1
I0308 19:50:02.251287 27741 net.cpp:391] lstm2_h_concat <- h_8
I0308 19:50:02.251293 27741 net.cpp:349] lstm2_h_concat -> h
I0308 19:50:02.251303 27741 net.cpp:123] Setting up lstm2_h_concat
I0308 19:50:02.251312 27741 net.cpp:130] Top shape: 8 16 2048 (262144)
I0308 19:50:02.251317 27741 net.cpp:179] lstm2_h_concat does not need backward computation.
I0308 19:50:02.251322 27741 net.cpp:179] lstm2_ does not need backward computation.
I0308 19:50:02.251325 27741 net.cpp:179] lstm2_unit_8 does not need backward computation.
I0308 19:50:02.251329 27741 net.cpp:179] lstm2_gate_input_8 does not need backward computation.
I0308 19:50:02.251332 27741 net.cpp:179] lstm2_transform_8 does not need backward computation.
…
