…
I0220 11:21:01.917171 20493 net.cpp:268] The NetState phase (0) differed from the phase (1) specified by a rule in layer loss
I0220 11:21:01.917444 20493 net.cpp:52] Initializing net from parameters: 
name: "TORCS_Net"
state {
  phase: TRAIN
}
layer {
  name: "data"
  type: "DataLstmTrainHist"
  top: "data"
  top: "label"
  top: "hist"
  top: "marker"
  include {
    phase: TRAIN
  }
  data_lstm_train_hist_param {
    source: "nonparametric/data/TORCS_smooth_np_train"
    sequence_size: 8
    sequence_num: 16
    interval: 200
    mean_file: "nonparametric/data/TORCS_smooth_np_train_mean.binaryproto"
  }
}
layer {
  name: "conv1"
  type: "Convolution"
  bottom: "data"
  top: "conv1"
  param {
    lr_mult: 1
    decay_mult: 1
  }
  param {
    lr_mult: 2
    decay_mult: 0
  }
  convolution_param {
    num_output: 96
    kernel_size: 11
    stride: 4
    weight_filler {
      type: "gaussian"
      std: 0.01
    }
    bias_filler {
      type: "constant"
      value: 0
    }
  }
}
layer {
  name: "nprelu1"
  type: "NonParaReLU"
  bottom: "conv1"
  top: "conv1"
}
layer {
  name: "pool1"
  type: "Pooling"
  bottom: "conv1"
  top: "pool1"
  pooling_param {
    pool: MAX
    kernel_size: 3
    stride: 2
  }
}
layer {
  name: "norm1"
  type: "LRN"
  bottom: "pool1"
  top: "norm1"
  lrn_param {
    local_size: 5
    alpha: 0.0001
    beta: 0.75
  }
}
layer {
  name: "conv2"
  type: "Convolution"
  bottom: "norm1"
  top: "conv2"
  param {
    lr_mult: 1
    decay_mult: 1
  }
  param {
    lr_mult: 2
    decay_mult: 0
  }
  convolution_param {
    num_output: 256
    pad: 2
    kernel_size: 5
    group: 2
    weight_filler {
      type: "gaussian"
      std: 0.01
    }
    bias_filler {
      type: "constant"
      value: 1
    }
  }
}
layer {
  name: "nprelu2"
  type: "NonParaReLU"
  bottom: "conv2"
  top: "conv2"
}
layer {
  name: "pool2"
  type: "Pooling"
  bottom: "conv2"
  top: "pool2"
  pooling_param {
    pool: MAX
    kernel_size: 3
    stride: 2
  }
}
layer {
  name: "norm2"
  type: "LRN"
  bottom: "pool2"
  top: "norm2"
  lrn_param {
    local_size: 5
    alpha: 0.0001
    beta: 0.75
  }
}
layer {
  name: "conv3"
  type: "Convolution"
  bottom: "norm2"
  top: "conv3"
  param {
    lr_mult: 1
    decay_mult: 1
  }
  param {
    lr_mult: 2
    decay_mult: 0
  }
  convolution_param {
    num_output: 384
    pad: 1
    kernel_size: 3
    weight_filler {
      type: "gaussian"
      std: 0.01
    }
    bias_filler {
      type: "constant"
      value: 0
    }
  }
}
layer {
  name: "nprelu3"
  type: "NonParaReLU"
  bottom: "conv3"
  top: "conv3"
}
layer {
  name: "conv4"
  type: "Convolution"
  bottom: "conv3"
  top: "conv4"
  param {
    lr_mult: 1
    decay_mult: 1
  }
  param {
    lr_mult: 2
    decay_mult: 0
  }
  convolution_param {
    num_output: 384
    pad: 1
    kernel_size: 3
    group: 2
    weight_filler {
      type: "gaussian"
      std: 0.01
    }
    bias_filler {
      type: "constant"
      value: 1
    }
  }
}
layer {
  name: "nprelu4"
  type: "NonParaReLU"
  bottom: "conv4"
  top: "conv4"
}
layer {
  name: "conv5"
  type: "Convolution"
  bottom: "conv4"
  top: "conv5"
  param {
    lr_mult: 1
    decay_mult: 1
  }
  param {
    lr_mult: 2
    decay_mult: 0
  }
  convolution_param {
    num_output: 256
    pad: 1
    kernel_size: 3
    group: 2
    weight_filler {
      type: "gaussian"
      std: 0.01
    }
    bias_filler {
      type: "constant"
      value: 1
    }
  }
}
layer {
  name: "nprelu5"
  type: "NonParaReLU"
  bottom: "conv5"
  top: "conv5"
}
layer {
  name: "pool5"
  type: "Pooling"
  bottom: "conv5"
  top: "pool5"
  pooling_param {
    pool: MAX
    kernel_size: 3
    stride: 2
  }
}
layer {
  name: "fc6"
  type: "InnerProduct"
  bottom: "pool5"
  top: "fc6"
  param {
    lr_mult: 1
    decay_mult: 1
  }
  param {
    lr_mult: 2
    decay_mult: 0
  }
  inner_product_param {
    num_output: 4096
    weight_filler {
      type: "gaussian"
      std: 0.005
    }
    bias_filler {
      type: "constant"
      value: 1
    }
  }
}
layer {
  name: "nprelu6"
  type: "NonParaReLU"
  bottom: "fc6"
  top: "fc6"
}
layer {
  name: "drop6"
  type: "Dropout"
  bottom: "fc6"
  top: "fc6"
  dropout_param {
    dropout_ratio: 0.5
  }
}
layer {
  name: "reshape-fc6"
  type: "Reshape"
  bottom: "fc6"
  top: "reshape-fc6"
  reshape_param {
    shape {
      dim: 8
      dim: 16
      dim: 4096
    }
  }
}
layer {
  name: "reshape-label"
  type: "Reshape"
  bottom: "label"
  top: "reshape-label"
  reshape_param {
    shape {
      dim: 8
      dim: 16
      dim: 14
    }
  }
}
layer {
  name: "reshape-hist"
  type: "Reshape"
  bottom: "hist"
  top: "reshape-hist"
  reshape_param {
    shape {
      dim: 8
      dim: 16
      dim: 14
    }
  }
}
layer {
  name: "reshape-marker"
  type: "Reshape"
  bottom: "marker"
  top: "reshape-marker"
  reshape_param {
    shape {
      dim: 8
      dim: 16
    }
  }
}
layer {
  name: "lstm1"
  type: "LSTM"
  bottom: "reshape-hist"
  bottom: "reshape-marker"
  top: "lstm1"
  recurrent_param {
    num_output: 128
    weight_filler {
      type: "uniform"
      min: -0.01
      max: 0.01
    }
    bias_filler {
      type: "constant"
      value: 0
    }
  }
}
layer {
  name: "lstm1-drop"
  type: "Dropout"
  bottom: "lstm1"
  top: "lstm1"
  dropout_param {
    dropout_ratio: 0.5
  }
}
layer {
  name: "concat"
  type: "Concat"
  bottom: "reshape-fc6"
  bottom: "lstm1"
  top: "concat-data"
  concat_param {
    axis: 2
  }
}
layer {
  name: "lstm2"
  type: "LSTM"
  bottom: "concat-data"
  bottom: "reshape-marker"
  top: "lstm2"
  recurrent_param {
    num_output: 2048
    weight_filler {
      type: "uniform"
      min: -0.01
      max: 0.01
    }
    bias_filler {
      type: "constant"
      value: 0
    }
  }
}
layer {
  name: "lstm2-drop"
  type: "Dropout"
  bottom: "lstm2"
  top: "lstm2"
  dropout_param {
    dropout_ratio: 0.5
  }
}
layer {
  name: "fc9c"
  type: "InnerProduct"
  bottom: "lstm2"
  top: "fc9c"
  param {
    lr_mult: 1
    decay_mult: 1
  }
  param {
    lr_mult: 2
    decay_mult: 0
  }
  inner_product_param {
    num_output: 14
    weight_filler {
      type: "gaussian"
      std: 0.01
    }
    bias_filler {
      type: "constant"
      value: 0
    }
    axis: 2
  }
}
layer {
  name: "relu9"
  type: "Sigmoid"
  bottom: "fc9c"
  top: "fc9c"
}
layer {
  name: "loss"
  type: "EuclideanLossDriving"
  bottom: "fc9c"
  bottom: "reshape-label"
  top: "loss"
  include {
    phase: TRAIN
  }
}
I0220 11:21:01.917696 20493 layer_factory.hpp:74] Creating layer data
I0220 11:21:01.917724 20493 net.cpp:94] Creating Layer data
I0220 11:21:01.917737 20493 net.cpp:349] data -> data
I0220 11:21:01.917773 20493 net.cpp:349] data -> label
I0220 11:21:01.917798 20493 net.cpp:349] data -> hist
I0220 11:21:01.917832 20493 net.cpp:349] data -> marker
I0220 11:21:01.917850 20493 net.cpp:123] Setting up data
I0220 11:21:01.917887 20493 data_lstm_train_hist_layer.cpp:50] Opening leveldb nonparametric/data/TORCS_smooth_np_train
I0220 11:21:01.920097 20493 data_lstm_train_hist_layer.cpp:90] output data size: 128,3,210,280
I0220 11:21:01.920112 20493 data_lstm_train_hist_layer.cpp:107] Loading mean file from: nonparametric/data/TORCS_smooth_np_train_mean.binaryproto
I0220 11:21:01.949234 20493 net.cpp:130] Top shape: 128 3 210 280 (22579200)
I0220 11:21:01.949257 20493 net.cpp:130] Top shape: 128 1 1 14 (1792)
I0220 11:21:01.949298 20493 net.cpp:130] Top shape: 128 1 1 14 (1792)
I0220 11:21:01.949308 20493 net.cpp:130] Top shape: 128 1 1 1 (128)
I0220 11:21:01.949342 20493 layer_factory.hpp:74] Creating layer conv1
I0220 11:21:01.949362 20493 net.cpp:94] Creating Layer conv1
I0220 11:21:01.949373 20493 net.cpp:391] conv1 <- data
I0220 11:21:01.949385 20493 net.cpp:349] conv1 -> conv1
I0220 11:21:01.949399 20493 net.cpp:123] Setting up conv1
I0220 11:21:01.950608 20493 net.cpp:130] Top shape: 128 96 50 68 (41779200)
I0220 11:21:01.950633 20493 layer_factory.hpp:74] Creating layer nprelu1
I0220 11:21:01.950666 20493 net.cpp:94] Creating Layer nprelu1
I0220 11:21:01.950676 20493 net.cpp:391] nprelu1 <- conv1
I0220 11:21:01.950687 20493 net.cpp:338] nprelu1 -> conv1 (in-place)
I0220 11:21:01.950717 20493 net.cpp:123] Setting up nprelu1
I0220 11:21:01.951057 20493 net.cpp:130] Top shape: 128 96 50 68 (41779200)
I0220 11:21:01.951073 20493 layer_factory.hpp:74] Creating layer pool1
I0220 11:21:01.951086 20493 net.cpp:94] Creating Layer pool1
I0220 11:21:01.951109 20493 net.cpp:391] pool1 <- conv1
I0220 11:21:01.951122 20493 net.cpp:349] pool1 -> pool1
I0220 11:21:01.951134 20493 net.cpp:123] Setting up pool1
I0220 11:21:01.951170 20493 net.cpp:130] Top shape: 128 96 25 34 (10444800)
I0220 11:21:01.951179 20493 layer_factory.hpp:74] Creating layer norm1
I0220 11:21:01.951195 20493 net.cpp:94] Creating Layer norm1
I0220 11:21:01.951205 20493 net.cpp:391] norm1 <- pool1
I0220 11:21:01.951232 20493 net.cpp:349] norm1 -> norm1
I0220 11:21:01.951246 20493 net.cpp:123] Setting up norm1
I0220 11:21:01.951314 20493 net.cpp:130] Top shape: 128 96 25 34 (10444800)
I0220 11:21:01.951323 20493 layer_factory.hpp:74] Creating layer conv2
I0220 11:21:01.951335 20493 net.cpp:94] Creating Layer conv2
I0220 11:21:01.951357 20493 net.cpp:391] conv2 <- norm1
I0220 11:21:01.951370 20493 net.cpp:349] conv2 -> conv2
I0220 11:21:01.951385 20493 net.cpp:123] Setting up conv2
I0220 11:21:01.959514 20493 net.cpp:130] Top shape: 128 256 25 34 (27852800)
I0220 11:21:01.959542 20493 layer_factory.hpp:74] Creating layer nprelu2
I0220 11:21:01.959558 20493 net.cpp:94] Creating Layer nprelu2
I0220 11:21:01.959585 20493 net.cpp:391] nprelu2 <- conv2
I0220 11:21:01.959599 20493 net.cpp:338] nprelu2 -> conv2 (in-place)
I0220 11:21:01.959625 20493 net.cpp:123] Setting up nprelu2
I0220 11:21:01.959992 20493 net.cpp:130] Top shape: 128 256 25 34 (27852800)
I0220 11:21:01.960006 20493 layer_factory.hpp:74] Creating layer pool2
I0220 11:21:01.960018 20493 net.cpp:94] Creating Layer pool2
I0220 11:21:01.960043 20493 net.cpp:391] pool2 <- conv2
I0220 11:21:01.960055 20493 net.cpp:349] pool2 -> pool2
I0220 11:21:01.960069 20493 net.cpp:123] Setting up pool2
I0220 11:21:01.960088 20493 net.cpp:130] Top shape: 128 256 12 17 (6684672)
I0220 11:21:01.960098 20493 layer_factory.hpp:74] Creating layer norm2
I0220 11:21:01.960124 20493 net.cpp:94] Creating Layer norm2
I0220 11:21:01.960132 20493 net.cpp:391] norm2 <- pool2
I0220 11:21:01.960144 20493 net.cpp:349] norm2 -> norm2
I0220 11:21:01.960157 20493 net.cpp:123] Setting up norm2
I0220 11:21:01.960172 20493 net.cpp:130] Top shape: 128 256 12 17 (6684672)
I0220 11:21:01.960193 20493 layer_factory.hpp:74] Creating layer conv3
I0220 11:21:01.960206 20493 net.cpp:94] Creating Layer conv3
I0220 11:21:01.960227 20493 net.cpp:391] conv3 <- norm2
I0220 11:21:01.960239 20493 net.cpp:349] conv3 -> conv3
I0220 11:21:01.960310 20493 net.cpp:123] Setting up conv3
I0220 11:21:01.983772 20493 net.cpp:130] Top shape: 128 384 12 17 (10027008)
I0220 11:21:01.983808 20493 layer_factory.hpp:74] Creating layer nprelu3
I0220 11:21:01.983825 20493 net.cpp:94] Creating Layer nprelu3
I0220 11:21:01.983834 20493 net.cpp:391] nprelu3 <- conv3
I0220 11:21:01.983846 20493 net.cpp:338] nprelu3 -> conv3 (in-place)
I0220 11:21:01.983885 20493 net.cpp:123] Setting up nprelu3
I0220 11:21:01.984040 20493 net.cpp:130] Top shape: 128 384 12 17 (10027008)
I0220 11:21:01.984057 20493 layer_factory.hpp:74] Creating layer conv4
I0220 11:21:01.984089 20493 net.cpp:94] Creating Layer conv4
I0220 11:21:01.984099 20493 net.cpp:391] conv4 <- conv3
I0220 11:21:01.984113 20493 net.cpp:349] conv4 -> conv4
I0220 11:21:01.984161 20493 net.cpp:123] Setting up conv4
I0220 11:21:02.001382 20493 net.cpp:130] Top shape: 128 384 12 17 (10027008)
I0220 11:21:02.001417 20493 layer_factory.hpp:74] Creating layer nprelu4
I0220 11:21:02.001435 20493 net.cpp:94] Creating Layer nprelu4
I0220 11:21:02.001443 20493 net.cpp:391] nprelu4 <- conv4
I0220 11:21:02.001456 20493 net.cpp:338] nprelu4 -> conv4 (in-place)
I0220 11:21:02.001494 20493 net.cpp:123] Setting up nprelu4
I0220 11:21:02.001653 20493 net.cpp:130] Top shape: 128 384 12 17 (10027008)
I0220 11:21:02.001667 20493 layer_factory.hpp:74] Creating layer conv5
I0220 11:21:02.001685 20493 net.cpp:94] Creating Layer conv5
I0220 11:21:02.001695 20493 net.cpp:391] conv5 <- conv4
I0220 11:21:02.001709 20493 net.cpp:349] conv5 -> conv5
I0220 11:21:02.001724 20493 net.cpp:123] Setting up conv5
I0220 11:21:02.013487 20493 net.cpp:130] Top shape: 128 256 12 17 (6684672)
I0220 11:21:02.013517 20493 layer_factory.hpp:74] Creating layer nprelu5
I0220 11:21:02.013530 20493 net.cpp:94] Creating Layer nprelu5
I0220 11:21:02.013536 20493 net.cpp:391] nprelu5 <- conv5
I0220 11:21:02.013545 20493 net.cpp:338] nprelu5 -> conv5 (in-place)
I0220 11:21:02.013553 20493 net.cpp:123] Setting up nprelu5
I0220 11:21:02.013602 20493 net.cpp:130] Top shape: 128 256 12 17 (6684672)
I0220 11:21:02.013612 20493 layer_factory.hpp:74] Creating layer pool5
I0220 11:21:02.013622 20493 net.cpp:94] Creating Layer pool5
I0220 11:21:02.013628 20493 net.cpp:391] pool5 <- conv5
I0220 11:21:02.013634 20493 net.cpp:349] pool5 -> pool5
I0220 11:21:02.013644 20493 net.cpp:123] Setting up pool5
I0220 11:21:02.013655 20493 net.cpp:130] Top shape: 128 256 6 8 (1572864)
I0220 11:21:02.013660 20493 layer_factory.hpp:74] Creating layer fc6
I0220 11:21:02.013679 20493 net.cpp:94] Creating Layer fc6
I0220 11:21:02.013685 20493 net.cpp:391] fc6 <- pool5
I0220 11:21:02.013695 20493 net.cpp:349] fc6 -> fc6
I0220 11:21:02.013707 20493 net.cpp:123] Setting up fc6
I0220 11:21:03.301424 20493 net.cpp:130] Top shape: 128 4096 (524288)
I0220 11:21:03.301503 20493 layer_factory.hpp:74] Creating layer nprelu6
I0220 11:21:03.301549 20493 net.cpp:94] Creating Layer nprelu6
I0220 11:21:03.301563 20493 net.cpp:391] nprelu6 <- fc6
I0220 11:21:03.301579 20493 net.cpp:338] nprelu6 -> fc6 (in-place)
I0220 11:21:03.301622 20493 net.cpp:123] Setting up nprelu6
I0220 11:21:03.301666 20493 net.cpp:130] Top shape: 128 4096 (524288)
I0220 11:21:03.301679 20493 layer_factory.hpp:74] Creating layer drop6
I0220 11:21:03.301700 20493 net.cpp:94] Creating Layer drop6
I0220 11:21:03.301710 20493 net.cpp:391] drop6 <- fc6
I0220 11:21:03.301722 20493 net.cpp:338] drop6 -> fc6 (in-place)
I0220 11:21:03.301758 20493 net.cpp:123] Setting up drop6
I0220 11:21:03.301779 20493 net.cpp:130] Top shape: 128 4096 (524288)
I0220 11:21:03.301803 20493 layer_factory.hpp:74] Creating layer reshape-fc6
I0220 11:21:03.301821 20493 net.cpp:94] Creating Layer reshape-fc6
I0220 11:21:03.301831 20493 net.cpp:391] reshape-fc6 <- fc6
I0220 11:21:03.301846 20493 net.cpp:349] reshape-fc6 -> reshape-fc6
I0220 11:21:03.301867 20493 net.cpp:123] Setting up reshape-fc6
I0220 11:21:03.301890 20493 net.cpp:130] Top shape: 8 16 4096 (524288)
I0220 11:21:03.301900 20493 layer_factory.hpp:74] Creating layer reshape-label
I0220 11:21:03.301913 20493 net.cpp:94] Creating Layer reshape-label
I0220 11:21:03.301935 20493 net.cpp:391] reshape-label <- label
I0220 11:21:03.301951 20493 net.cpp:349] reshape-label -> reshape-label
I0220 11:21:03.301981 20493 net.cpp:123] Setting up reshape-label
I0220 11:21:03.301995 20493 net.cpp:130] Top shape: 8 16 14 (1792)
I0220 11:21:03.302005 20493 layer_factory.hpp:74] Creating layer reshape-hist
I0220 11:21:03.302016 20493 net.cpp:94] Creating Layer reshape-hist
I0220 11:21:03.302037 20493 net.cpp:391] reshape-hist <- hist
I0220 11:21:03.302048 20493 net.cpp:349] reshape-hist -> reshape-hist
I0220 11:21:03.302062 20493 net.cpp:123] Setting up reshape-hist
I0220 11:21:03.302075 20493 net.cpp:130] Top shape: 8 16 14 (1792)
I0220 11:21:03.302085 20493 layer_factory.hpp:74] Creating layer reshape-marker
I0220 11:21:03.302129 20493 net.cpp:94] Creating Layer reshape-marker
I0220 11:21:03.302139 20493 net.cpp:391] reshape-marker <- marker
I0220 11:21:03.302165 20493 net.cpp:349] reshape-marker -> reshape-marker
I0220 11:21:03.302176 20493 net.cpp:123] Setting up reshape-marker
I0220 11:21:03.302191 20493 net.cpp:130] Top shape: 8 16 (128)
I0220 11:21:03.302202 20493 layer_factory.hpp:74] Creating layer reshape-marker_reshape-marker_0_split
I0220 11:21:03.302223 20493 net.cpp:94] Creating Layer reshape-marker_reshape-marker_0_split
I0220 11:21:03.302232 20493 net.cpp:391] reshape-marker_reshape-marker_0_split <- reshape-marker
I0220 11:21:03.302243 20493 net.cpp:349] reshape-marker_reshape-marker_0_split -> reshape-marker_reshape-marker_0_split_0
I0220 11:21:03.302320 20493 net.cpp:349] reshape-marker_reshape-marker_0_split -> reshape-marker_reshape-marker_0_split_1
I0220 11:21:03.302333 20493 net.cpp:123] Setting up reshape-marker_reshape-marker_0_split
I0220 11:21:03.302350 20493 net.cpp:130] Top shape: 8 16 (128)
I0220 11:21:03.302362 20493 net.cpp:130] Top shape: 8 16 (128)
I0220 11:21:03.302372 20493 layer_factory.hpp:74] Creating layer lstm1
I0220 11:21:03.302398 20493 net.cpp:94] Creating Layer lstm1
I0220 11:21:03.302408 20493 net.cpp:391] lstm1 <- reshape-hist
I0220 11:21:03.302417 20493 net.cpp:391] lstm1 <- reshape-marker_reshape-marker_0_split_0
I0220 11:21:03.302430 20493 net.cpp:349] lstm1 -> lstm1
I0220 11:21:03.302446 20493 net.cpp:123] Setting up lstm1
I0220 11:21:03.302461 20493 recurrent_layer.cpp:27] Initializing recurrent layer: assuming input batch contains 8 timesteps of 16 independent streams.
I0220 11:21:03.303009 20493 net.cpp:52] Initializing net from parameters: 
input: "x"
input: "cont"
input: "c_0"
input: "h_0"
force_backward: true
input_shape {
  dim: 8
  dim: 16
  dim: 14
}
input_shape {
  dim: 1
  dim: 8
  dim: 16
}
input_shape {
  dim: 1
  dim: 16
  dim: 128
}
input_shape {
  dim: 1
  dim: 16
  dim: 128
}
layer {
  name: "lstm1_cont_slice"
  type: "Slice"
  bottom: "cont"
  top: "cont_1"
  top: "cont_2"
  top: "cont_3"
  top: "cont_4"
  top: "cont_5"
  top: "cont_6"
  top: "cont_7"
  top: "cont_8"
  slice_param {
    axis: 1
  }
}
layer {
  name: "lstm1_x_transform"
  type: "InnerProduct"
  bottom: "x"
  top: "W_xc_x"
  param {
    name: "W_xc"
  }
  param {
    name: "b_c"
  }
  inner_product_param {
    num_output: 512
    bias_term: true
    weight_filler {
      type: "uniform"
      min: -0.01
      max: 0.01
    }
    bias_filler {
      type: "constant"
      value: 0
    }
    axis: 2
  }
}
layer {
  name: "lstm1_W_xc_x_slice"
  type: "Slice"
  bottom: "W_xc_x"
  top: "W_xc_x_1"
  top: "W_xc_x_2"
  top: "W_xc_x_3"
  top: "W_xc_x_4"
  top: "W_xc_x_5"
  top: "W_xc_x_6"
  top: "W_xc_x_7"
  top: "W_xc_x_8"
  slice_param {
    axis: 0
  }
}
layer {
  name: "lstm1_h_conted_0"
  type: "Eltwise"
  bottom: "h_0"
  bottom: "cont_1"
  top: "h_conted_0"
  eltwise_param {
    operation: SUM
    coeff_blob: true
  }
}
layer {
  name: "lstm1_transform_1"
  type: "InnerProduct"
  bottom: "h_conted_0"
  top: "W_hc_h_0"
  param {
    name: "W_hc"
  }
  inner_product_param {
    num_output: 512
    bias_term: false
    weight_filler {
      type: "uniform"
      min: -0.01
      max: 0.01
    }
    axis: 2
  }
}
layer {
  name: "lstm1_gate_input_1"
  type: "Eltwise"
  bottom: "W_hc_h_0"
  bottom: "W_xc_x_1"
  top: "gate_input_1"
  eltwise_param {
    operation: SUM
  }
}
layer {
  name: "lstm1_unit_1"
  type: "LSTMUnit"
  bottom: "c_0"
  bottom: "gate_input_1"
  bottom: "cont_1"
  top: "c_1"
  top: "h_1"
}
layer {
  name: "lstm1_h_conted_1"
  type: "Eltwise"
  bottom: "h_1"
  bottom: "cont_2"
  top: "h_conted_1"
  eltwise_param {
    operation: SUM
    coeff_blob: true
  }
}
layer {
  name: "lstm1_transform_2"
  type: "InnerProduct"
  bottom: "h_conted_1"
  top: "W_hc_h_1"
  param {
    name: "W_hc"
  }
  inner_product_param {
    num_output: 512
    bias_term: false
    weight_filler {
      type: "uniform"
      min: -0.01
      max: 0.01
    }
    axis: 2
  }
}
layer {
  name: "lstm1_gate_input_2"
  type: "Eltwise"
  bottom: "W_hc_h_1"
  bottom: "W_xc_x_2"
  top: "gate_input_2"
  eltwise_param {
    operation: SUM
  }
}
layer {
  name: "lstm1_unit_2"
  type: "LSTMUnit"
  bottom: "c_1"
  bottom: "gate_input_2"
  bottom: "cont_2"
  top: "c_2"
  top: "h_2"
}
layer {
  name: "lstm1_h_conted_2"
  type: "Eltwise"
  bottom: "h_2"
  bottom: "cont_3"
  top: "h_conted_2"
  eltwise_param {
    operation: SUM
    coeff_blob: true
  }
}
layer {
  name: "lstm1_transform_3"
  type: "InnerProduct"
  bottom: "h_conted_2"
  top: "W_hc_h_2"
  param {
    name: "W_hc"
  }
  inner_product_param {
    num_output: 512
    bias_term: false
    weight_filler {
      type: "uniform"
      min: -0.01
      max: 0.01
    }
    axis: 2
  }
}
layer {
  name: "lstm1_gate_input_3"
  type: "Eltwise"
  bottom: "W_hc_h_2"
  bottom: "W_xc_x_3"
  top: "gate_input_3"
  eltwise_param {
    operation: SUM
  }
}
layer {
  name: "lstm1_unit_3"
  type: "LSTMUnit"
  bottom: "c_2"
  bottom: "gate_input_3"
  bottom: "cont_3"
  top: "c_3"
  top: "h_3"
}
layer {
  name: "lstm1_h_conted_3"
  type: "Eltwise"
  bottom: "h_3"
  bottom: "cont_4"
  top: "h_conted_3"
  eltwise_param {
    operation: SUM
    coeff_blob: true
  }
}
layer {
  name: "lstm1_transform_4"
  type: "InnerProduct"
  bottom: "h_conted_3"
  top: "W_hc_h_3"
  param {
    name: "W_hc"
  }
  inner_product_param {
    num_output: 512
    bias_term: false
    weight_filler {
      type: "uniform"
      min: -0.01
      max: 0.01
    }
    axis: 2
  }
}
layer {
  name: "lstm1_gate_input_4"
  type: "Eltwise"
  bottom: "W_hc_h_3"
  bottom: "W_xc_x_4"
  top: "gate_input_4"
  eltwise_param {
    operation: SUM
  }
}
layer {
  name: "lstm1_unit_4"
  type: "LSTMUnit"
  bottom: "c_3"
  bottom: "gate_input_4"
  bottom: "cont_4"
  top: "c_4"
  top: "h_4"
}
layer {
  name: "lstm1_h_conted_4"
  type: "Eltwise"
  bottom: "h_4"
  bottom: "cont_5"
  top: "h_conted_4"
  eltwise_param {
    operation: SUM
    coeff_blob: true
  }
}
layer {
  name: "lstm1_transform_5"
  type: "InnerProduct"
  bottom: "h_conted_4"
  top: "W_hc_h_4"
  param {
    name: "W_hc"
  }
  inner_product_param {
    num_output: 512
    bias_term: false
    weight_filler {
      type: "uniform"
      min: -0.01
      max: 0.01
    }
    axis: 2
  }
}
layer {
  name: "lstm1_gate_input_5"
  type: "Eltwise"
  bottom: "W_hc_h_4"
  bottom: "W_xc_x_5"
  top: "gate_input_5"
  eltwise_param {
    operation: SUM
  }
}
layer {
  name: "lstm1_unit_5"
  type: "LSTMUnit"
  bottom: "c_4"
  bottom: "gate_input_5"
  bottom: "cont_5"
  top: "c_5"
  top: "h_5"
}
layer {
  name: "lstm1_h_conted_5"
  type: "Eltwise"
  bottom: "h_5"
  bottom: "cont_6"
  top: "h_conted_5"
  eltwise_param {
    operation: SUM
    coeff_blob: true
  }
}
layer {
  name: "lstm1_transform_6"
  type: "InnerProduct"
  bottom: "h_conted_5"
  top: "W_hc_h_5"
  param {
    name: "W_hc"
  }
  inner_product_param {
    num_output: 512
    bias_term: false
    weight_filler {
      type: "uniform"
      min: -0.01
      max: 0.01
    }
    axis: 2
  }
}
layer {
  name: "lstm1_gate_input_6"
  type: "Eltwise"
  bottom: "W_hc_h_5"
  bottom: "W_xc_x_6"
  top: "gate_input_6"
  eltwise_param {
    operation: SUM
  }
}
layer {
  name: "lstm1_unit_6"
  type: "LSTMUnit"
  bottom: "c_5"
  bottom: "gate_input_6"
  bottom: "cont_6"
  top: "c_6"
  top: "h_6"
}
layer {
  name: "lstm1_h_conted_6"
  type: "Eltwise"
  bottom: "h_6"
  bottom: "cont_7"
  top: "h_conted_6"
  eltwise_param {
    operation: SUM
    coeff_blob: true
  }
}
layer {
  name: "lstm1_transform_7"
  type: "InnerProduct"
  bottom: "h_conted_6"
  top: "W_hc_h_6"
  param {
    name: "W_hc"
  }
  inner_product_param {
    num_output: 512
    bias_term: false
    weight_filler {
      type: "uniform"
      min: -0.01
      max: 0.01
    }
    axis: 2
  }
}
layer {
  name: "lstm1_gate_input_7"
  type: "Eltwise"
  bottom: "W_hc_h_6"
  bottom: "W_xc_x_7"
  top: "gate_input_7"
  eltwise_param {
    operation: SUM
  }
}
layer {
  name: "lstm1_unit_7"
  type: "LSTMUnit"
  bottom: "c_6"
  bottom: "gate_input_7"
  bottom: "cont_7"
  top: "c_7"
  top: "h_7"
}
layer {
  name: "lstm1_h_conted_7"
  type: "Eltwise"
  bottom: "h_7"
  bottom: "cont_8"
  top: "h_conted_7"
  eltwise_param {
    operation: SUM
    coeff_blob: true
  }
}
layer {
  name: "lstm1_transform_8"
  type: "InnerProduct"
  bottom: "h_conted_7"
  top: "W_hc_h_7"
  param {
    name: "W_hc"
  }
  inner_product_param {
    num_output: 512
    bias_term: false
    weight_filler {
      type: "uniform"
      min: -0.01
      max: 0.01
    }
    axis: 2
  }
}
layer {
  name: "lstm1_gate_input_8"
  type: "Eltwise"
  bottom: "W_hc_h_7"
  bottom: "W_xc_x_8"
  top: "gate_input_8"
  eltwise_param {
    operation: SUM
  }
}
layer {
  name: "lstm1_unit_8"
  type: "LSTMUnit"
  bottom: "c_7"
  bottom: "gate_input_8"
  bottom: "cont_8"
  top: "c_8"
  top: "h_8"
}
layer {
  name: "lstm1_"
  type: "Split"
  bottom: "c_8"
  top: "c_T"
}
layer {
  name: "lstm1_h_concat"
  type: "Concat"
  bottom: "h_1"
  bottom: "h_2"
  bottom: "h_3"
  bottom: "h_4"
  bottom: "h_5"
  bottom: "h_6"
  bottom: "h_7"
  bottom: "h_8"
  top: "h"
  concat_param {
    axis: 0
  }
}
I0220 11:21:03.303298 20493 net.cpp:351] Input 0 -> x
I0220 11:21:03.303320 20493 net.cpp:351] Input 1 -> cont
I0220 11:21:03.303328 20493 net.cpp:351] Input 2 -> c_0
I0220 11:21:03.303354 20493 net.cpp:351] Input 3 -> h_0
I0220 11:21:03.303369 20493 layer_factory.hpp:74] Creating layer lstm1_cont_slice
I0220 11:21:03.303385 20493 net.cpp:94] Creating Layer lstm1_cont_slice
I0220 11:21:03.303391 20493 net.cpp:391] lstm1_cont_slice <- cont
I0220 11:21:03.303398 20493 net.cpp:349] lstm1_cont_slice -> cont_1
I0220 11:21:03.303408 20493 net.cpp:349] lstm1_cont_slice -> cont_2
I0220 11:21:03.303417 20493 net.cpp:349] lstm1_cont_slice -> cont_3
I0220 11:21:03.303426 20493 net.cpp:349] lstm1_cont_slice -> cont_4
I0220 11:21:03.303436 20493 net.cpp:349] lstm1_cont_slice -> cont_5
I0220 11:21:03.303444 20493 net.cpp:349] lstm1_cont_slice -> cont_6
I0220 11:21:03.303453 20493 net.cpp:349] lstm1_cont_slice -> cont_7
I0220 11:21:03.303460 20493 net.cpp:349] lstm1_cont_slice -> cont_8
I0220 11:21:03.303468 20493 net.cpp:123] Setting up lstm1_cont_slice
I0220 11:21:03.303483 20493 net.cpp:130] Top shape: 1 1 16 (16)
I0220 11:21:03.303489 20493 net.cpp:130] Top shape: 1 1 16 (16)
I0220 11:21:03.303494 20493 net.cpp:130] Top shape: 1 1 16 (16)
I0220 11:21:03.303500 20493 net.cpp:130] Top shape: 1 1 16 (16)
I0220 11:21:03.303505 20493 net.cpp:130] Top shape: 1 1 16 (16)
I0220 11:21:03.303511 20493 net.cpp:130] Top shape: 1 1 16 (16)
I0220 11:21:03.303517 20493 net.cpp:130] Top shape: 1 1 16 (16)
I0220 11:21:03.303524 20493 net.cpp:130] Top shape: 1 1 16 (16)
I0220 11:21:03.303529 20493 layer_factory.hpp:74] Creating layer cont_1_lstm1_cont_slice_0_split
I0220 11:21:03.303537 20493 net.cpp:94] Creating Layer cont_1_lstm1_cont_slice_0_split
I0220 11:21:03.303544 20493 net.cpp:391] cont_1_lstm1_cont_slice_0_split <- cont_1
I0220 11:21:03.303550 20493 net.cpp:349] cont_1_lstm1_cont_slice_0_split -> cont_1_lstm1_cont_slice_0_split_0
I0220 11:21:03.303557 20493 net.cpp:349] cont_1_lstm1_cont_slice_0_split -> cont_1_lstm1_cont_slice_0_split_1
I0220 11:21:03.303565 20493 net.cpp:123] Setting up cont_1_lstm1_cont_slice_0_split
I0220 11:21:03.303572 20493 net.cpp:130] Top shape: 1 1 16 (16)
I0220 11:21:03.303578 20493 net.cpp:130] Top shape: 1 1 16 (16)
I0220 11:21:03.303582 20493 layer_factory.hpp:74] Creating layer cont_2_lstm1_cont_slice_1_split
I0220 11:21:03.303591 20493 net.cpp:94] Creating Layer cont_2_lstm1_cont_slice_1_split
I0220 11:21:03.303596 20493 net.cpp:391] cont_2_lstm1_cont_slice_1_split <- cont_2
I0220 11:21:03.303602 20493 net.cpp:349] cont_2_lstm1_cont_slice_1_split -> cont_2_lstm1_cont_slice_1_split_0
I0220 11:21:03.303609 20493 net.cpp:349] cont_2_lstm1_cont_slice_1_split -> cont_2_lstm1_cont_slice_1_split_1
I0220 11:21:03.303617 20493 net.cpp:123] Setting up cont_2_lstm1_cont_slice_1_split
I0220 11:21:03.303624 20493 net.cpp:130] Top shape: 1 1 16 (16)
I0220 11:21:03.303632 20493 net.cpp:130] Top shape: 1 1 16 (16)
I0220 11:21:03.303635 20493 layer_factory.hpp:74] Creating layer cont_3_lstm1_cont_slice_2_split
I0220 11:21:03.303652 20493 net.cpp:94] Creating Layer cont_3_lstm1_cont_slice_2_split
I0220 11:21:03.303658 20493 net.cpp:391] cont_3_lstm1_cont_slice_2_split <- cont_3
I0220 11:21:03.303664 20493 net.cpp:349] cont_3_lstm1_cont_slice_2_split -> cont_3_lstm1_cont_slice_2_split_0
I0220 11:21:03.303673 20493 net.cpp:349] cont_3_lstm1_cont_slice_2_split -> cont_3_lstm1_cont_slice_2_split_1
I0220 11:21:03.303680 20493 net.cpp:123] Setting up cont_3_lstm1_cont_slice_2_split
I0220 11:21:03.303688 20493 net.cpp:130] Top shape: 1 1 16 (16)
I0220 11:21:03.303692 20493 net.cpp:130] Top shape: 1 1 16 (16)
I0220 11:21:03.303696 20493 layer_factory.hpp:74] Creating layer cont_4_lstm1_cont_slice_3_split
I0220 11:21:03.303704 20493 net.cpp:94] Creating Layer cont_4_lstm1_cont_slice_3_split
I0220 11:21:03.303707 20493 net.cpp:391] cont_4_lstm1_cont_slice_3_split <- cont_4
I0220 11:21:03.303714 20493 net.cpp:349] cont_4_lstm1_cont_slice_3_split -> cont_4_lstm1_cont_slice_3_split_0
I0220 11:21:03.303721 20493 net.cpp:349] cont_4_lstm1_cont_slice_3_split -> cont_4_lstm1_cont_slice_3_split_1
I0220 11:21:03.303727 20493 net.cpp:123] Setting up cont_4_lstm1_cont_slice_3_split
I0220 11:21:03.303735 20493 net.cpp:130] Top shape: 1 1 16 (16)
I0220 11:21:03.303740 20493 net.cpp:130] Top shape: 1 1 16 (16)
I0220 11:21:03.303745 20493 layer_factory.hpp:74] Creating layer cont_5_lstm1_cont_slice_4_split
I0220 11:21:03.303750 20493 net.cpp:94] Creating Layer cont_5_lstm1_cont_slice_4_split
I0220 11:21:03.303755 20493 net.cpp:391] cont_5_lstm1_cont_slice_4_split <- cont_5
I0220 11:21:03.303761 20493 net.cpp:349] cont_5_lstm1_cont_slice_4_split -> cont_5_lstm1_cont_slice_4_split_0
I0220 11:21:03.303769 20493 net.cpp:349] cont_5_lstm1_cont_slice_4_split -> cont_5_lstm1_cont_slice_4_split_1
I0220 11:21:03.303776 20493 net.cpp:123] Setting up cont_5_lstm1_cont_slice_4_split
I0220 11:21:03.303782 20493 net.cpp:130] Top shape: 1 1 16 (16)
I0220 11:21:03.303787 20493 net.cpp:130] Top shape: 1 1 16 (16)
I0220 11:21:03.303792 20493 layer_factory.hpp:74] Creating layer cont_6_lstm1_cont_slice_5_split
I0220 11:21:03.303797 20493 net.cpp:94] Creating Layer cont_6_lstm1_cont_slice_5_split
I0220 11:21:03.303802 20493 net.cpp:391] cont_6_lstm1_cont_slice_5_split <- cont_6
I0220 11:21:03.303814 20493 net.cpp:349] cont_6_lstm1_cont_slice_5_split -> cont_6_lstm1_cont_slice_5_split_0
I0220 11:21:03.303824 20493 net.cpp:349] cont_6_lstm1_cont_slice_5_split -> cont_6_lstm1_cont_slice_5_split_1
I0220 11:21:03.303833 20493 net.cpp:123] Setting up cont_6_lstm1_cont_slice_5_split
I0220 11:21:03.303839 20493 net.cpp:130] Top shape: 1 1 16 (16)
I0220 11:21:03.303844 20493 net.cpp:130] Top shape: 1 1 16 (16)
I0220 11:21:03.303848 20493 layer_factory.hpp:74] Creating layer cont_7_lstm1_cont_slice_6_split
I0220 11:21:03.303854 20493 net.cpp:94] Creating Layer cont_7_lstm1_cont_slice_6_split
I0220 11:21:03.303859 20493 net.cpp:391] cont_7_lstm1_cont_slice_6_split <- cont_7
I0220 11:21:03.303865 20493 net.cpp:349] cont_7_lstm1_cont_slice_6_split -> cont_7_lstm1_cont_slice_6_split_0
I0220 11:21:03.303882 20493 net.cpp:349] cont_7_lstm1_cont_slice_6_split -> cont_7_lstm1_cont_slice_6_split_1
I0220 11:21:03.303889 20493 net.cpp:123] Setting up cont_7_lstm1_cont_slice_6_split
I0220 11:21:03.303895 20493 net.cpp:130] Top shape: 1 1 16 (16)
I0220 11:21:03.303900 20493 net.cpp:130] Top shape: 1 1 16 (16)
I0220 11:21:03.303905 20493 layer_factory.hpp:74] Creating layer cont_8_lstm1_cont_slice_7_split
I0220 11:21:03.303910 20493 net.cpp:94] Creating Layer cont_8_lstm1_cont_slice_7_split
I0220 11:21:03.303915 20493 net.cpp:391] cont_8_lstm1_cont_slice_7_split <- cont_8
I0220 11:21:03.303921 20493 net.cpp:349] cont_8_lstm1_cont_slice_7_split -> cont_8_lstm1_cont_slice_7_split_0
I0220 11:21:03.303927 20493 net.cpp:349] cont_8_lstm1_cont_slice_7_split -> cont_8_lstm1_cont_slice_7_split_1
I0220 11:21:03.303935 20493 net.cpp:123] Setting up cont_8_lstm1_cont_slice_7_split
I0220 11:21:03.303941 20493 net.cpp:130] Top shape: 1 1 16 (16)
I0220 11:21:03.303956 20493 net.cpp:130] Top shape: 1 1 16 (16)
I0220 11:21:03.303959 20493 layer_factory.hpp:74] Creating layer lstm1_x_transform
I0220 11:21:03.303969 20493 net.cpp:94] Creating Layer lstm1_x_transform
I0220 11:21:03.303975 20493 net.cpp:391] lstm1_x_transform <- x
I0220 11:21:03.303984 20493 net.cpp:349] lstm1_x_transform -> W_xc_x
I0220 11:21:03.303992 20493 net.cpp:123] Setting up lstm1_x_transform
I0220 11:21:03.304091 20493 net.cpp:130] Top shape: 8 16 512 (65536)
I0220 11:21:03.304101 20493 layer_factory.hpp:74] Creating layer lstm1_W_xc_x_slice
I0220 11:21:03.304110 20493 net.cpp:94] Creating Layer lstm1_W_xc_x_slice
I0220 11:21:03.304114 20493 net.cpp:391] lstm1_W_xc_x_slice <- W_xc_x
I0220 11:21:03.304121 20493 net.cpp:349] lstm1_W_xc_x_slice -> W_xc_x_1
I0220 11:21:03.304128 20493 net.cpp:349] lstm1_W_xc_x_slice -> W_xc_x_2
I0220 11:21:03.304136 20493 net.cpp:349] lstm1_W_xc_x_slice -> W_xc_x_3
I0220 11:21:03.304143 20493 net.cpp:349] lstm1_W_xc_x_slice -> W_xc_x_4
I0220 11:21:03.304152 20493 net.cpp:349] lstm1_W_xc_x_slice -> W_xc_x_5
I0220 11:21:03.304159 20493 net.cpp:349] lstm1_W_xc_x_slice -> W_xc_x_6
I0220 11:21:03.304167 20493 net.cpp:349] lstm1_W_xc_x_slice -> W_xc_x_7
I0220 11:21:03.304174 20493 net.cpp:349] lstm1_W_xc_x_slice -> W_xc_x_8
I0220 11:21:03.304182 20493 net.cpp:123] Setting up lstm1_W_xc_x_slice
I0220 11:21:03.304189 20493 net.cpp:130] Top shape: 1 16 512 (8192)
I0220 11:21:03.304195 20493 net.cpp:130] Top shape: 1 16 512 (8192)
I0220 11:21:03.304200 20493 net.cpp:130] Top shape: 1 16 512 (8192)
I0220 11:21:03.304205 20493 net.cpp:130] Top shape: 1 16 512 (8192)
I0220 11:21:03.304210 20493 net.cpp:130] Top shape: 1 16 512 (8192)
I0220 11:21:03.304214 20493 net.cpp:130] Top shape: 1 16 512 (8192)
I0220 11:21:03.304219 20493 net.cpp:130] Top shape: 1 16 512 (8192)
I0220 11:21:03.304224 20493 net.cpp:130] Top shape: 1 16 512 (8192)
I0220 11:21:03.304229 20493 layer_factory.hpp:74] Creating layer lstm1_h_conted_0
I0220 11:21:03.304237 20493 net.cpp:94] Creating Layer lstm1_h_conted_0
I0220 11:21:03.304241 20493 net.cpp:391] lstm1_h_conted_0 <- h_0
I0220 11:21:03.304247 20493 net.cpp:391] lstm1_h_conted_0 <- cont_1_lstm1_cont_slice_0_split_0
I0220 11:21:03.304253 20493 net.cpp:349] lstm1_h_conted_0 -> h_conted_0
I0220 11:21:03.304301 20493 net.cpp:123] Setting up lstm1_h_conted_0
I0220 11:21:03.304311 20493 net.cpp:130] Top shape: 1 16 128 (2048)
I0220 11:21:03.304316 20493 layer_factory.hpp:74] Creating layer lstm1_transform_1
I0220 11:21:03.304323 20493 net.cpp:94] Creating Layer lstm1_transform_1
I0220 11:21:03.304328 20493 net.cpp:391] lstm1_transform_1 <- h_conted_0
I0220 11:21:03.304335 20493 net.cpp:349] lstm1_transform_1 -> W_hc_h_0
I0220 11:21:03.304342 20493 net.cpp:123] Setting up lstm1_transform_1
I0220 11:21:03.304760 20493 net.cpp:130] Top shape: 1 16 512 (8192)
I0220 11:21:03.304769 20493 layer_factory.hpp:74] Creating layer lstm1_gate_input_1
I0220 11:21:03.304775 20493 net.cpp:94] Creating Layer lstm1_gate_input_1
I0220 11:21:03.304780 20493 net.cpp:391] lstm1_gate_input_1 <- W_hc_h_0
I0220 11:21:03.304786 20493 net.cpp:391] lstm1_gate_input_1 <- W_xc_x_1
I0220 11:21:03.304792 20493 net.cpp:349] lstm1_gate_input_1 -> gate_input_1
I0220 11:21:03.304800 20493 net.cpp:123] Setting up lstm1_gate_input_1
I0220 11:21:03.304805 20493 net.cpp:130] Top shape: 1 16 512 (8192)
I0220 11:21:03.304811 20493 layer_factory.hpp:74] Creating layer lstm1_unit_1
I0220 11:21:03.304817 20493 net.cpp:94] Creating Layer lstm1_unit_1
I0220 11:21:03.304822 20493 net.cpp:391] lstm1_unit_1 <- c_0
I0220 11:21:03.304827 20493 net.cpp:391] lstm1_unit_1 <- gate_input_1
I0220 11:21:03.304832 20493 net.cpp:391] lstm1_unit_1 <- cont_1_lstm1_cont_slice_0_split_1
I0220 11:21:03.304838 20493 net.cpp:349] lstm1_unit_1 -> c_1
I0220 11:21:03.304846 20493 net.cpp:349] lstm1_unit_1 -> h_1
I0220 11:21:03.304852 20493 net.cpp:123] Setting up lstm1_unit_1
I0220 11:21:03.304862 20493 net.cpp:130] Top shape: 1 16 128 (2048)
I0220 11:21:03.304867 20493 net.cpp:130] Top shape: 1 16 128 (2048)
I0220 11:21:03.304882 20493 layer_factory.hpp:74] Creating layer h_1_lstm1_unit_1_1_split
I0220 11:21:03.304888 20493 net.cpp:94] Creating Layer h_1_lstm1_unit_1_1_split
I0220 11:21:03.304893 20493 net.cpp:391] h_1_lstm1_unit_1_1_split <- h_1
I0220 11:21:03.304899 20493 net.cpp:349] h_1_lstm1_unit_1_1_split -> h_1_lstm1_unit_1_1_split_0
I0220 11:21:03.304906 20493 net.cpp:349] h_1_lstm1_unit_1_1_split -> h_1_lstm1_unit_1_1_split_1
I0220 11:21:03.304913 20493 net.cpp:123] Setting up h_1_lstm1_unit_1_1_split
I0220 11:21:03.304919 20493 net.cpp:130] Top shape: 1 16 128 (2048)
I0220 11:21:03.304925 20493 net.cpp:130] Top shape: 1 16 128 (2048)
I0220 11:21:03.304929 20493 layer_factory.hpp:74] Creating layer lstm1_h_conted_1
I0220 11:21:03.304936 20493 net.cpp:94] Creating Layer lstm1_h_conted_1
I0220 11:21:03.304941 20493 net.cpp:391] lstm1_h_conted_1 <- h_1_lstm1_unit_1_1_split_0
I0220 11:21:03.304946 20493 net.cpp:391] lstm1_h_conted_1 <- cont_2_lstm1_cont_slice_1_split_0
I0220 11:21:03.304952 20493 net.cpp:349] lstm1_h_conted_1 -> h_conted_1
I0220 11:21:03.304958 20493 net.cpp:123] Setting up lstm1_h_conted_1
I0220 11:21:03.304965 20493 net.cpp:130] Top shape: 1 16 128 (2048)
I0220 11:21:03.304970 20493 layer_factory.hpp:74] Creating layer lstm1_transform_2
I0220 11:21:03.304975 20493 net.cpp:94] Creating Layer lstm1_transform_2
I0220 11:21:03.304980 20493 net.cpp:391] lstm1_transform_2 <- h_conted_1
I0220 11:21:03.304986 20493 net.cpp:349] lstm1_transform_2 -> W_hc_h_1
I0220 11:21:03.304993 20493 net.cpp:123] Setting up lstm1_transform_2
I0220 11:21:03.305418 20493 net.cpp:130] Top shape: 1 16 512 (8192)
I0220 11:21:03.305426 20493 net.cpp:435] Sharing parameters 'W_hc' owned by layer 'lstm1_transform_1', param index 0
I0220 11:21:03.305431 20493 layer_factory.hpp:74] Creating layer lstm1_gate_input_2
I0220 11:21:03.305438 20493 net.cpp:94] Creating Layer lstm1_gate_input_2
I0220 11:21:03.305441 20493 net.cpp:391] lstm1_gate_input_2 <- W_hc_h_1
I0220 11:21:03.305446 20493 net.cpp:391] lstm1_gate_input_2 <- W_xc_x_2
I0220 11:21:03.305454 20493 net.cpp:349] lstm1_gate_input_2 -> gate_input_2
I0220 11:21:03.305461 20493 net.cpp:123] Setting up lstm1_gate_input_2
I0220 11:21:03.305467 20493 net.cpp:130] Top shape: 1 16 512 (8192)
I0220 11:21:03.305472 20493 layer_factory.hpp:74] Creating layer lstm1_unit_2
I0220 11:21:03.305480 20493 net.cpp:94] Creating Layer lstm1_unit_2
I0220 11:21:03.305485 20493 net.cpp:391] lstm1_unit_2 <- c_1
I0220 11:21:03.305490 20493 net.cpp:391] lstm1_unit_2 <- gate_input_2
I0220 11:21:03.305495 20493 net.cpp:391] lstm1_unit_2 <- cont_2_lstm1_cont_slice_1_split_1
I0220 11:21:03.305501 20493 net.cpp:349] lstm1_unit_2 -> c_2
I0220 11:21:03.305508 20493 net.cpp:349] lstm1_unit_2 -> h_2
I0220 11:21:03.305516 20493 net.cpp:123] Setting up lstm1_unit_2
I0220 11:21:03.305524 20493 net.cpp:130] Top shape: 1 16 128 (2048)
I0220 11:21:03.305529 20493 net.cpp:130] Top shape: 1 16 128 (2048)
I0220 11:21:03.305534 20493 layer_factory.hpp:74] Creating layer h_2_lstm1_unit_2_1_split
I0220 11:21:03.305539 20493 net.cpp:94] Creating Layer h_2_lstm1_unit_2_1_split
I0220 11:21:03.305543 20493 net.cpp:391] h_2_lstm1_unit_2_1_split <- h_2
I0220 11:21:03.305549 20493 net.cpp:349] h_2_lstm1_unit_2_1_split -> h_2_lstm1_unit_2_1_split_0
I0220 11:21:03.305557 20493 net.cpp:349] h_2_lstm1_unit_2_1_split -> h_2_lstm1_unit_2_1_split_1
I0220 11:21:03.305563 20493 net.cpp:123] Setting up h_2_lstm1_unit_2_1_split
I0220 11:21:03.305569 20493 net.cpp:130] Top shape: 1 16 128 (2048)
I0220 11:21:03.305574 20493 net.cpp:130] Top shape: 1 16 128 (2048)
I0220 11:21:03.305579 20493 layer_factory.hpp:74] Creating layer lstm1_h_conted_2
I0220 11:21:03.305587 20493 net.cpp:94] Creating Layer lstm1_h_conted_2
I0220 11:21:03.305591 20493 net.cpp:391] lstm1_h_conted_2 <- h_2_lstm1_unit_2_1_split_0
I0220 11:21:03.305596 20493 net.cpp:391] lstm1_h_conted_2 <- cont_3_lstm1_cont_slice_2_split_0
I0220 11:21:03.305603 20493 net.cpp:349] lstm1_h_conted_2 -> h_conted_2
I0220 11:21:03.305609 20493 net.cpp:123] Setting up lstm1_h_conted_2
I0220 11:21:03.305615 20493 net.cpp:130] Top shape: 1 16 128 (2048)
I0220 11:21:03.305629 20493 layer_factory.hpp:74] Creating layer lstm1_transform_3
I0220 11:21:03.305639 20493 net.cpp:94] Creating Layer lstm1_transform_3
I0220 11:21:03.305644 20493 net.cpp:391] lstm1_transform_3 <- h_conted_2
I0220 11:21:03.305649 20493 net.cpp:349] lstm1_transform_3 -> W_hc_h_2
I0220 11:21:03.305656 20493 net.cpp:123] Setting up lstm1_transform_3
I0220 11:21:03.306062 20493 net.cpp:130] Top shape: 1 16 512 (8192)
I0220 11:21:03.306071 20493 net.cpp:435] Sharing parameters 'W_hc' owned by layer 'lstm1_transform_1', param index 0
I0220 11:21:03.306076 20493 layer_factory.hpp:74] Creating layer lstm1_gate_input_3
I0220 11:21:03.306083 20493 net.cpp:94] Creating Layer lstm1_gate_input_3
I0220 11:21:03.306088 20493 net.cpp:391] lstm1_gate_input_3 <- W_hc_h_2
I0220 11:21:03.306093 20493 net.cpp:391] lstm1_gate_input_3 <- W_xc_x_3
I0220 11:21:03.306099 20493 net.cpp:349] lstm1_gate_input_3 -> gate_input_3
I0220 11:21:03.306107 20493 net.cpp:123] Setting up lstm1_gate_input_3
I0220 11:21:03.306113 20493 net.cpp:130] Top shape: 1 16 512 (8192)
I0220 11:21:03.306118 20493 layer_factory.hpp:74] Creating layer lstm1_unit_3
I0220 11:21:03.306124 20493 net.cpp:94] Creating Layer lstm1_unit_3
I0220 11:21:03.306131 20493 net.cpp:391] lstm1_unit_3 <- c_2
I0220 11:21:03.306138 20493 net.cpp:391] lstm1_unit_3 <- gate_input_3
I0220 11:21:03.306143 20493 net.cpp:391] lstm1_unit_3 <- cont_3_lstm1_cont_slice_2_split_1
I0220 11:21:03.306149 20493 net.cpp:349] lstm1_unit_3 -> c_3
I0220 11:21:03.306156 20493 net.cpp:349] lstm1_unit_3 -> h_3
I0220 11:21:03.306165 20493 net.cpp:123] Setting up lstm1_unit_3
I0220 11:21:03.306174 20493 net.cpp:130] Top shape: 1 16 128 (2048)
I0220 11:21:03.306179 20493 net.cpp:130] Top shape: 1 16 128 (2048)
I0220 11:21:03.306182 20493 layer_factory.hpp:74] Creating layer h_3_lstm1_unit_3_1_split
I0220 11:21:03.306188 20493 net.cpp:94] Creating Layer h_3_lstm1_unit_3_1_split
I0220 11:21:03.306195 20493 net.cpp:391] h_3_lstm1_unit_3_1_split <- h_3
I0220 11:21:03.306205 20493 net.cpp:349] h_3_lstm1_unit_3_1_split -> h_3_lstm1_unit_3_1_split_0
I0220 11:21:03.306212 20493 net.cpp:349] h_3_lstm1_unit_3_1_split -> h_3_lstm1_unit_3_1_split_1
I0220 11:21:03.306219 20493 net.cpp:123] Setting up h_3_lstm1_unit_3_1_split
I0220 11:21:03.306226 20493 net.cpp:130] Top shape: 1 16 128 (2048)
I0220 11:21:03.306231 20493 net.cpp:130] Top shape: 1 16 128 (2048)
I0220 11:21:03.306236 20493 layer_factory.hpp:74] Creating layer lstm1_h_conted_3
I0220 11:21:03.306242 20493 net.cpp:94] Creating Layer lstm1_h_conted_3
I0220 11:21:03.306247 20493 net.cpp:391] lstm1_h_conted_3 <- h_3_lstm1_unit_3_1_split_0
I0220 11:21:03.306252 20493 net.cpp:391] lstm1_h_conted_3 <- cont_4_lstm1_cont_slice_3_split_0
I0220 11:21:03.306268 20493 net.cpp:349] lstm1_h_conted_3 -> h_conted_3
I0220 11:21:03.306275 20493 net.cpp:123] Setting up lstm1_h_conted_3
I0220 11:21:03.306282 20493 net.cpp:130] Top shape: 1 16 128 (2048)
I0220 11:21:03.306287 20493 layer_factory.hpp:74] Creating layer lstm1_transform_4
I0220 11:21:03.306293 20493 net.cpp:94] Creating Layer lstm1_transform_4
I0220 11:21:03.306298 20493 net.cpp:391] lstm1_transform_4 <- h_conted_3
I0220 11:21:03.306305 20493 net.cpp:349] lstm1_transform_4 -> W_hc_h_3
I0220 11:21:03.306313 20493 net.cpp:123] Setting up lstm1_transform_4
I0220 11:21:03.306720 20493 net.cpp:130] Top shape: 1 16 512 (8192)
I0220 11:21:03.306730 20493 net.cpp:435] Sharing parameters 'W_hc' owned by layer 'lstm1_transform_1', param index 0
I0220 11:21:03.306735 20493 layer_factory.hpp:74] Creating layer lstm1_gate_input_4
I0220 11:21:03.306742 20493 net.cpp:94] Creating Layer lstm1_gate_input_4
I0220 11:21:03.306747 20493 net.cpp:391] lstm1_gate_input_4 <- W_hc_h_3
I0220 11:21:03.306752 20493 net.cpp:391] lstm1_gate_input_4 <- W_xc_x_4
I0220 11:21:03.306761 20493 net.cpp:349] lstm1_gate_input_4 -> gate_input_4
I0220 11:21:03.306767 20493 net.cpp:123] Setting up lstm1_gate_input_4
I0220 11:21:03.306774 20493 net.cpp:130] Top shape: 1 16 512 (8192)
I0220 11:21:03.306779 20493 layer_factory.hpp:74] Creating layer lstm1_unit_4
I0220 11:21:03.306794 20493 net.cpp:94] Creating Layer lstm1_unit_4
I0220 11:21:03.306799 20493 net.cpp:391] lstm1_unit_4 <- c_3
I0220 11:21:03.306804 20493 net.cpp:391] lstm1_unit_4 <- gate_input_4
I0220 11:21:03.306810 20493 net.cpp:391] lstm1_unit_4 <- cont_4_lstm1_cont_slice_3_split_1
I0220 11:21:03.306815 20493 net.cpp:349] lstm1_unit_4 -> c_4
I0220 11:21:03.306825 20493 net.cpp:349] lstm1_unit_4 -> h_4
I0220 11:21:03.306831 20493 net.cpp:123] Setting up lstm1_unit_4
I0220 11:21:03.306838 20493 net.cpp:130] Top shape: 1 16 128 (2048)
I0220 11:21:03.306844 20493 net.cpp:130] Top shape: 1 16 128 (2048)
I0220 11:21:03.306849 20493 layer_factory.hpp:74] Creating layer h_4_lstm1_unit_4_1_split
I0220 11:21:03.306854 20493 net.cpp:94] Creating Layer h_4_lstm1_unit_4_1_split
I0220 11:21:03.306857 20493 net.cpp:391] h_4_lstm1_unit_4_1_split <- h_4
I0220 11:21:03.306864 20493 net.cpp:349] h_4_lstm1_unit_4_1_split -> h_4_lstm1_unit_4_1_split_0
I0220 11:21:03.306871 20493 net.cpp:349] h_4_lstm1_unit_4_1_split -> h_4_lstm1_unit_4_1_split_1
I0220 11:21:03.306881 20493 net.cpp:123] Setting up h_4_lstm1_unit_4_1_split
I0220 11:21:03.306887 20493 net.cpp:130] Top shape: 1 16 128 (2048)
I0220 11:21:03.306892 20493 net.cpp:130] Top shape: 1 16 128 (2048)
I0220 11:21:03.306897 20493 layer_factory.hpp:74] Creating layer lstm1_h_conted_4
I0220 11:21:03.306905 20493 net.cpp:94] Creating Layer lstm1_h_conted_4
I0220 11:21:03.306908 20493 net.cpp:391] lstm1_h_conted_4 <- h_4_lstm1_unit_4_1_split_0
I0220 11:21:03.306915 20493 net.cpp:391] lstm1_h_conted_4 <- cont_5_lstm1_cont_slice_4_split_0
I0220 11:21:03.306920 20493 net.cpp:349] lstm1_h_conted_4 -> h_conted_4
I0220 11:21:03.306926 20493 net.cpp:123] Setting up lstm1_h_conted_4
I0220 11:21:03.306932 20493 net.cpp:130] Top shape: 1 16 128 (2048)
I0220 11:21:03.306936 20493 layer_factory.hpp:74] Creating layer lstm1_transform_5
I0220 11:21:03.306946 20493 net.cpp:94] Creating Layer lstm1_transform_5
I0220 11:21:03.306951 20493 net.cpp:391] lstm1_transform_5 <- h_conted_4
I0220 11:21:03.306958 20493 net.cpp:349] lstm1_transform_5 -> W_hc_h_4
I0220 11:21:03.306964 20493 net.cpp:123] Setting up lstm1_transform_5
I0220 11:21:03.307421 20493 net.cpp:130] Top shape: 1 16 512 (8192)
I0220 11:21:03.307430 20493 net.cpp:435] Sharing parameters 'W_hc' owned by layer 'lstm1_transform_1', param index 0
I0220 11:21:03.307435 20493 layer_factory.hpp:74] Creating layer lstm1_gate_input_5
I0220 11:21:03.307443 20493 net.cpp:94] Creating Layer lstm1_gate_input_5
I0220 11:21:03.307451 20493 net.cpp:391] lstm1_gate_input_5 <- W_hc_h_4
I0220 11:21:03.307461 20493 net.cpp:391] lstm1_gate_input_5 <- W_xc_x_5
I0220 11:21:03.307471 20493 net.cpp:349] lstm1_gate_input_5 -> gate_input_5
I0220 11:21:03.307502 20493 net.cpp:123] Setting up lstm1_gate_input_5
I0220 11:21:03.307514 20493 net.cpp:130] Top shape: 1 16 512 (8192)
I0220 11:21:03.307523 20493 layer_factory.hpp:74] Creating layer lstm1_unit_5
I0220 11:21:03.307543 20493 net.cpp:94] Creating Layer lstm1_unit_5
I0220 11:21:03.307553 20493 net.cpp:391] lstm1_unit_5 <- c_4
I0220 11:21:03.307562 20493 net.cpp:391] lstm1_unit_5 <- gate_input_5
I0220 11:21:03.307585 20493 net.cpp:391] lstm1_unit_5 <- cont_5_lstm1_cont_slice_4_split_1
I0220 11:21:03.307598 20493 net.cpp:349] lstm1_unit_5 -> c_5
I0220 11:21:03.307612 20493 net.cpp:349] lstm1_unit_5 -> h_5
I0220 11:21:03.307624 20493 net.cpp:123] Setting up lstm1_unit_5
I0220 11:21:03.307638 20493 net.cpp:130] Top shape: 1 16 128 (2048)
I0220 11:21:03.307648 20493 net.cpp:130] Top shape: 1 16 128 (2048)
I0220 11:21:03.307656 20493 layer_factory.hpp:74] Creating layer h_5_lstm1_unit_5_1_split
I0220 11:21:03.307672 20493 net.cpp:94] Creating Layer h_5_lstm1_unit_5_1_split
I0220 11:21:03.307682 20493 net.cpp:391] h_5_lstm1_unit_5_1_split <- h_5
I0220 11:21:03.307693 20493 net.cpp:349] h_5_lstm1_unit_5_1_split -> h_5_lstm1_unit_5_1_split_0
I0220 11:21:03.307706 20493 net.cpp:349] h_5_lstm1_unit_5_1_split -> h_5_lstm1_unit_5_1_split_1
I0220 11:21:03.307719 20493 net.cpp:123] Setting up h_5_lstm1_unit_5_1_split
I0220 11:21:03.307760 20493 net.cpp:130] Top shape: 1 16 128 (2048)
I0220 11:21:03.307772 20493 net.cpp:130] Top shape: 1 16 128 (2048)
I0220 11:21:03.307780 20493 layer_factory.hpp:74] Creating layer lstm1_h_conted_5
I0220 11:21:03.307801 20493 net.cpp:94] Creating Layer lstm1_h_conted_5
I0220 11:21:03.307809 20493 net.cpp:391] lstm1_h_conted_5 <- h_5_lstm1_unit_5_1_split_0
I0220 11:21:03.307819 20493 net.cpp:391] lstm1_h_conted_5 <- cont_6_lstm1_cont_slice_5_split_0
I0220 11:21:03.307832 20493 net.cpp:349] lstm1_h_conted_5 -> h_conted_5
I0220 11:21:03.307847 20493 net.cpp:123] Setting up lstm1_h_conted_5
I0220 11:21:03.307862 20493 net.cpp:130] Top shape: 1 16 128 (2048)
I0220 11:21:03.307870 20493 layer_factory.hpp:74] Creating layer lstm1_transform_6
I0220 11:21:03.307885 20493 net.cpp:94] Creating Layer lstm1_transform_6
I0220 11:21:03.307894 20493 net.cpp:391] lstm1_transform_6 <- h_conted_5
I0220 11:21:03.307905 20493 net.cpp:349] lstm1_transform_6 -> W_hc_h_5
I0220 11:21:03.307920 20493 net.cpp:123] Setting up lstm1_transform_6
I0220 11:21:03.308388 20493 net.cpp:130] Top shape: 1 16 512 (8192)
I0220 11:21:03.308399 20493 net.cpp:435] Sharing parameters 'W_hc' owned by layer 'lstm1_transform_1', param index 0
I0220 11:21:03.308408 20493 layer_factory.hpp:74] Creating layer lstm1_gate_input_6
I0220 11:21:03.308418 20493 net.cpp:94] Creating Layer lstm1_gate_input_6
I0220 11:21:03.308429 20493 net.cpp:391] lstm1_gate_input_6 <- W_hc_h_5
I0220 11:21:03.308436 20493 net.cpp:391] lstm1_gate_input_6 <- W_xc_x_6
I0220 11:21:03.308442 20493 net.cpp:349] lstm1_gate_input_6 -> gate_input_6
I0220 11:21:03.308450 20493 net.cpp:123] Setting up lstm1_gate_input_6
I0220 11:21:03.308459 20493 net.cpp:130] Top shape: 1 16 512 (8192)
I0220 11:21:03.308465 20493 layer_factory.hpp:74] Creating layer lstm1_unit_6
I0220 11:21:03.308470 20493 net.cpp:94] Creating Layer lstm1_unit_6
I0220 11:21:03.308475 20493 net.cpp:391] lstm1_unit_6 <- c_5
I0220 11:21:03.308481 20493 net.cpp:391] lstm1_unit_6 <- gate_input_6
I0220 11:21:03.308488 20493 net.cpp:391] lstm1_unit_6 <- cont_6_lstm1_cont_slice_5_split_1
I0220 11:21:03.308496 20493 net.cpp:349] lstm1_unit_6 -> c_6
I0220 11:21:03.308506 20493 net.cpp:349] lstm1_unit_6 -> h_6
I0220 11:21:03.308513 20493 net.cpp:123] Setting up lstm1_unit_6
I0220 11:21:03.308521 20493 net.cpp:130] Top shape: 1 16 128 (2048)
I0220 11:21:03.308526 20493 net.cpp:130] Top shape: 1 16 128 (2048)
I0220 11:21:03.308532 20493 layer_factory.hpp:74] Creating layer h_6_lstm1_unit_6_1_split
I0220 11:21:03.308538 20493 net.cpp:94] Creating Layer h_6_lstm1_unit_6_1_split
I0220 11:21:03.308542 20493 net.cpp:391] h_6_lstm1_unit_6_1_split <- h_6
I0220 11:21:03.308552 20493 net.cpp:349] h_6_lstm1_unit_6_1_split -> h_6_lstm1_unit_6_1_split_0
I0220 11:21:03.308558 20493 net.cpp:349] h_6_lstm1_unit_6_1_split -> h_6_lstm1_unit_6_1_split_1
I0220 11:21:03.308565 20493 net.cpp:123] Setting up h_6_lstm1_unit_6_1_split
I0220 11:21:03.308573 20493 net.cpp:130] Top shape: 1 16 128 (2048)
I0220 11:21:03.308579 20493 net.cpp:130] Top shape: 1 16 128 (2048)
I0220 11:21:03.308583 20493 layer_factory.hpp:74] Creating layer lstm1_h_conted_6
I0220 11:21:03.308593 20493 net.cpp:94] Creating Layer lstm1_h_conted_6
I0220 11:21:03.308598 20493 net.cpp:391] lstm1_h_conted_6 <- h_6_lstm1_unit_6_1_split_0
I0220 11:21:03.308604 20493 net.cpp:391] lstm1_h_conted_6 <- cont_7_lstm1_cont_slice_6_split_0
I0220 11:21:03.308614 20493 net.cpp:349] lstm1_h_conted_6 -> h_conted_6
I0220 11:21:03.308622 20493 net.cpp:123] Setting up lstm1_h_conted_6
I0220 11:21:03.308629 20493 net.cpp:130] Top shape: 1 16 128 (2048)
I0220 11:21:03.308634 20493 layer_factory.hpp:74] Creating layer lstm1_transform_7
I0220 11:21:03.308641 20493 net.cpp:94] Creating Layer lstm1_transform_7
I0220 11:21:03.308646 20493 net.cpp:391] lstm1_transform_7 <- h_conted_6
I0220 11:21:03.308655 20493 net.cpp:349] lstm1_transform_7 -> W_hc_h_6
I0220 11:21:03.308662 20493 net.cpp:123] Setting up lstm1_transform_7
I0220 11:21:03.309068 20493 net.cpp:130] Top shape: 1 16 512 (8192)
I0220 11:21:03.309088 20493 net.cpp:435] Sharing parameters 'W_hc' owned by layer 'lstm1_transform_1', param index 0
I0220 11:21:03.309103 20493 layer_factory.hpp:74] Creating layer lstm1_gate_input_7
I0220 11:21:03.309111 20493 net.cpp:94] Creating Layer lstm1_gate_input_7
I0220 11:21:03.309115 20493 net.cpp:391] lstm1_gate_input_7 <- W_hc_h_6
I0220 11:21:03.309121 20493 net.cpp:391] lstm1_gate_input_7 <- W_xc_x_7
I0220 11:21:03.309129 20493 net.cpp:349] lstm1_gate_input_7 -> gate_input_7
I0220 11:21:03.309137 20493 net.cpp:123] Setting up lstm1_gate_input_7
I0220 11:21:03.309144 20493 net.cpp:130] Top shape: 1 16 512 (8192)
I0220 11:21:03.309149 20493 layer_factory.hpp:74] Creating layer lstm1_unit_7
I0220 11:21:03.309154 20493 net.cpp:94] Creating Layer lstm1_unit_7
I0220 11:21:03.309160 20493 net.cpp:391] lstm1_unit_7 <- c_6
I0220 11:21:03.309166 20493 net.cpp:391] lstm1_unit_7 <- gate_input_7
I0220 11:21:03.309180 20493 net.cpp:391] lstm1_unit_7 <- cont_7_lstm1_cont_slice_6_split_1
I0220 11:21:03.309190 20493 net.cpp:349] lstm1_unit_7 -> c_7
I0220 11:21:03.309198 20493 net.cpp:349] lstm1_unit_7 -> h_7
I0220 11:21:03.309206 20493 net.cpp:123] Setting up lstm1_unit_7
I0220 11:21:03.309212 20493 net.cpp:130] Top shape: 1 16 128 (2048)
I0220 11:21:03.309219 20493 net.cpp:130] Top shape: 1 16 128 (2048)
I0220 11:21:03.309223 20493 layer_factory.hpp:74] Creating layer h_7_lstm1_unit_7_1_split
I0220 11:21:03.309231 20493 net.cpp:94] Creating Layer h_7_lstm1_unit_7_1_split
I0220 11:21:03.309236 20493 net.cpp:391] h_7_lstm1_unit_7_1_split <- h_7
I0220 11:21:03.309243 20493 net.cpp:349] h_7_lstm1_unit_7_1_split -> h_7_lstm1_unit_7_1_split_0
I0220 11:21:03.309252 20493 net.cpp:349] h_7_lstm1_unit_7_1_split -> h_7_lstm1_unit_7_1_split_1
I0220 11:21:03.309270 20493 net.cpp:123] Setting up h_7_lstm1_unit_7_1_split
I0220 11:21:03.309278 20493 net.cpp:130] Top shape: 1 16 128 (2048)
I0220 11:21:03.309284 20493 net.cpp:130] Top shape: 1 16 128 (2048)
I0220 11:21:03.309291 20493 layer_factory.hpp:74] Creating layer lstm1_h_conted_7
I0220 11:21:03.309298 20493 net.cpp:94] Creating Layer lstm1_h_conted_7
I0220 11:21:03.309303 20493 net.cpp:391] lstm1_h_conted_7 <- h_7_lstm1_unit_7_1_split_0
I0220 11:21:03.309309 20493 net.cpp:391] lstm1_h_conted_7 <- cont_8_lstm1_cont_slice_7_split_0
I0220 11:21:03.309319 20493 net.cpp:349] lstm1_h_conted_7 -> h_conted_7
I0220 11:21:03.309325 20493 net.cpp:123] Setting up lstm1_h_conted_7
I0220 11:21:03.309334 20493 net.cpp:130] Top shape: 1 16 128 (2048)
I0220 11:21:03.309337 20493 layer_factory.hpp:74] Creating layer lstm1_transform_8
I0220 11:21:03.309345 20493 net.cpp:94] Creating Layer lstm1_transform_8
I0220 11:21:03.309351 20493 net.cpp:391] lstm1_transform_8 <- h_conted_7
I0220 11:21:03.309357 20493 net.cpp:349] lstm1_transform_8 -> W_hc_h_7
I0220 11:21:03.309365 20493 net.cpp:123] Setting up lstm1_transform_8
I0220 11:21:03.309779 20493 net.cpp:130] Top shape: 1 16 512 (8192)
I0220 11:21:03.309789 20493 net.cpp:435] Sharing parameters 'W_hc' owned by layer 'lstm1_transform_1', param index 0
I0220 11:21:03.309798 20493 layer_factory.hpp:74] Creating layer lstm1_gate_input_8
I0220 11:21:03.309808 20493 net.cpp:94] Creating Layer lstm1_gate_input_8
I0220 11:21:03.309831 20493 net.cpp:391] lstm1_gate_input_8 <- W_hc_h_7
I0220 11:21:03.309841 20493 net.cpp:391] lstm1_gate_input_8 <- W_xc_x_8
I0220 11:21:03.309854 20493 net.cpp:349] lstm1_gate_input_8 -> gate_input_8
I0220 11:21:03.309869 20493 net.cpp:123] Setting up lstm1_gate_input_8
I0220 11:21:03.309895 20493 net.cpp:130] Top shape: 1 16 512 (8192)
I0220 11:21:03.309903 20493 layer_factory.hpp:74] Creating layer lstm1_unit_8
I0220 11:21:03.309913 20493 net.cpp:94] Creating Layer lstm1_unit_8
I0220 11:21:03.309923 20493 net.cpp:391] lstm1_unit_8 <- c_7
I0220 11:21:03.309933 20493 net.cpp:391] lstm1_unit_8 <- gate_input_8
I0220 11:21:03.309957 20493 net.cpp:391] lstm1_unit_8 <- cont_8_lstm1_cont_slice_7_split_1
I0220 11:21:03.309968 20493 net.cpp:349] lstm1_unit_8 -> c_8
I0220 11:21:03.309981 20493 net.cpp:349] lstm1_unit_8 -> h_8
I0220 11:21:03.310006 20493 net.cpp:123] Setting up lstm1_unit_8
I0220 11:21:03.310034 20493 net.cpp:130] Top shape: 1 16 128 (2048)
I0220 11:21:03.310045 20493 net.cpp:130] Top shape: 1 16 128 (2048)
I0220 11:21:03.310052 20493 layer_factory.hpp:74] Creating layer lstm1_
I0220 11:21:03.310065 20493 net.cpp:94] Creating Layer lstm1_
I0220 11:21:03.310075 20493 net.cpp:391] lstm1_ <- c_8
I0220 11:21:03.310086 20493 net.cpp:349] lstm1_ -> c_T
I0220 11:21:03.310107 20493 net.cpp:123] Setting up lstm1_
I0220 11:21:03.310119 20493 net.cpp:130] Top shape: 1 16 128 (2048)
I0220 11:21:03.310127 20493 layer_factory.hpp:74] Creating layer lstm1_h_concat
I0220 11:21:03.310158 20493 net.cpp:94] Creating Layer lstm1_h_concat
I0220 11:21:03.310166 20493 net.cpp:391] lstm1_h_concat <- h_1_lstm1_unit_1_1_split_1
I0220 11:21:03.310174 20493 net.cpp:391] lstm1_h_concat <- h_2_lstm1_unit_2_1_split_1
I0220 11:21:03.310183 20493 net.cpp:391] lstm1_h_concat <- h_3_lstm1_unit_3_1_split_1
I0220 11:21:03.310206 20493 net.cpp:391] lstm1_h_concat <- h_4_lstm1_unit_4_1_split_1
I0220 11:21:03.310215 20493 net.cpp:391] lstm1_h_concat <- h_5_lstm1_unit_5_1_split_1
I0220 11:21:03.310223 20493 net.cpp:391] lstm1_h_concat <- h_6_lstm1_unit_6_1_split_1
I0220 11:21:03.310245 20493 net.cpp:391] lstm1_h_concat <- h_7_lstm1_unit_7_1_split_1
I0220 11:21:03.310255 20493 net.cpp:391] lstm1_h_concat <- h_8
I0220 11:21:03.310310 20493 net.cpp:349] lstm1_h_concat -> h
I0220 11:21:03.310323 20493 net.cpp:123] Setting up lstm1_h_concat
I0220 11:21:03.310346 20493 net.cpp:130] Top shape: 8 16 128 (16384)
I0220 11:21:03.310355 20493 net.cpp:179] lstm1_h_concat does not need backward computation.
I0220 11:21:03.310364 20493 net.cpp:179] lstm1_ does not need backward computation.
I0220 11:21:03.310385 20493 net.cpp:179] lstm1_unit_8 does not need backward computation.
I0220 11:21:03.310394 20493 net.cpp:179] lstm1_gate_input_8 does not need backward computation.
I0220 11:21:03.310400 20493 net.cpp:179] lstm1_transform_8 does not need backward computation.
…
I0220 11:21:03.310858 20493 net.cpp:215] This network produces output c_T
I0220 11:21:03.310868 20493 net.cpp:215] This network produces output h
I0220 11:21:03.310921 20493 net.cpp:456] Collecting Learning Rate and Weight Decay.
I0220 11:21:03.310943 20493 net.cpp:228] Network initialization done.
I0220 11:21:03.310953 20493 net.cpp:229] Memory required for data: 1435136
I0220 11:21:03.311060 20493 recurrent_layer.cpp:135] Adding parameter 0: W_xc
I0220 11:21:03.311070 20493 recurrent_layer.cpp:135] Adding parameter 1: b_c
I0220 11:21:03.311079 20493 recurrent_layer.cpp:135] Adding parameter 2: W_hc
I0220 11:21:03.311125 20493 net.cpp:130] Top shape: 8 16 128 (16384)
I0220 11:21:03.311139 20493 layer_factory.hpp:74] Creating layer lstm1-drop
I0220 11:21:03.311166 20493 net.cpp:94] Creating Layer lstm1-drop
I0220 11:21:03.311174 20493 net.cpp:391] lstm1-drop <- lstm1
I0220 11:21:03.311185 20493 net.cpp:338] lstm1-drop -> lstm1 (in-place)
I0220 11:21:03.311210 20493 net.cpp:123] Setting up lstm1-drop
I0220 11:21:03.311223 20493 net.cpp:130] Top shape: 8 16 128 (16384)
I0220 11:21:03.311233 20493 layer_factory.hpp:74] Creating layer concat
I0220 11:21:03.311310 20493 net.cpp:94] Creating Layer concat
I0220 11:21:03.311319 20493 net.cpp:391] concat <- reshape-fc6
I0220 11:21:03.311329 20493 net.cpp:391] concat <- lstm1
I0220 11:21:03.311342 20493 net.cpp:349] concat -> concat-data
I0220 11:21:03.311354 20493 net.cpp:123] Setting up concat
I0220 11:21:03.311378 20493 net.cpp:130] Top shape: 8 16 4224 (540672)
I0220 11:21:03.311386 20493 layer_factory.hpp:74] Creating layer lstm2
I0220 11:21:03.311429 20493 net.cpp:94] Creating Layer lstm2
I0220 11:21:03.311439 20493 net.cpp:391] lstm2 <- concat-data
I0220 11:21:03.311449 20493 net.cpp:391] lstm2 <- reshape-marker_reshape-marker_0_split_1
I0220 11:21:03.311472 20493 net.cpp:349] lstm2 -> lstm2
I0220 11:21:03.311487 20493 net.cpp:123] Setting up lstm2
I0220 11:21:03.311498 20493 recurrent_layer.cpp:27] Initializing recurrent layer: assuming input batch contains 8 timesteps of 16 independent streams.
I0220 11:21:03.311817 20493 net.cpp:52] Initializing net from parameters: 
input: "x"
input: "cont"
input: "c_0"
input: "h_0"
force_backward: true
input_shape {
  dim: 8
  dim: 16
  dim: 4224
}
input_shape {
  dim: 1
  dim: 8
  dim: 16
}
input_shape {
  dim: 1
  dim: 16
  dim: 2048
}
input_shape {
  dim: 1
  dim: 16
  dim: 2048
}
layer {
  name: "lstm2_cont_slice"
  type: "Slice"
  bottom: "cont"
  top: "cont_1"
  top: "cont_2"
  top: "cont_3"
  top: "cont_4"
  top: "cont_5"
  top: "cont_6"
  top: "cont_7"
  top: "cont_8"
  slice_param {
    axis: 1
  }
}
layer {
  name: "lstm2_x_transform"
  type: "InnerProduct"
  bottom: "x"
  top: "W_xc_x"
  param {
    name: "W_xc"
  }
  param {
    name: "b_c"
  }
  inner_product_param {
    num_output: 8192
    bias_term: true
    weight_filler {
      type: "uniform"
      min: -0.01
      max: 0.01
    }
    bias_filler {
      type: "constant"
      value: 0
    }
    axis: 2
  }
}
layer {
  name: "lstm2_W_xc_x_slice"
  type: "Slice"
  bottom: "W_xc_x"
  top: "W_xc_x_1"
  top: "W_xc_x_2"
  top: "W_xc_x_3"
  top: "W_xc_x_4"
  top: "W_xc_x_5"
  top: "W_xc_x_6"
  top: "W_xc_x_7"
  top: "W_xc_x_8"
  slice_param {
    axis: 0
  }
}
layer {
  name: "lstm2_h_conted_0"
  type: "Eltwise"
  bottom: "h_0"
  bottom: "cont_1"
  top: "h_conted_0"
  eltwise_param {
    operation: SUM
    coeff_blob: true
  }
}
layer {
  name: "lstm2_transform_1"
  type: "InnerProduct"
  bottom: "h_conted_0"
  top: "W_hc_h_0"
  param {
    name: "W_hc"
  }
  inner_product_param {
    num_output: 8192
    bias_term: false
    weight_filler {
      type: "uniform"
      min: -0.01
      max: 0.01
    }
    axis: 2
  }
}
layer {
  name: "lstm2_gate_input_1"
  type: "Eltwise"
  bottom: "W_hc_h_0"
  bottom: "W_xc_x_1"
  top: "gate_input_1"
  eltwise_param {
    operation: SUM
  }
}
layer {
  name: "lstm2_unit_1"
  type: "LSTMUnit"
  bottom: "c_0"
  bottom: "gate_input_1"
  bottom: "cont_1"
  top: "c_1"
  top: "h_1"
}
layer {
  name: "lstm2_h_conted_1"
  type: "Eltwise"
  bottom: "h_1"
  bottom: "cont_2"
  top: "h_conted_1"
  eltwise_param {
    operation: SUM
    coeff_blob: true
  }
}
layer {
  name: "lstm2_transform_2"
  type: "InnerProduct"
  bottom: "h_conted_1"
  top: "W_hc_h_1"
  param {
    name: "W_hc"
  }
  inner_product_param {
    num_output: 8192
    bias_term: false
    weight_filler {
      type: "uniform"
      min: -0.01
      max: 0.01
    }
    axis: 2
  }
}
layer {
  name: "lstm2_gate_input_2"
  type: "Eltwise"
  bottom: "W_hc_h_1"
  bottom: "W_xc_x_2"
  top: "gate_input_2"
  eltwise_param {
    operation: SUM
  }
}
layer {
  name: "lstm2_unit_2"
  type: "LSTMUnit"
  bottom: "c_1"
  bottom: "gate_input_2"
  bottom: "cont_2"
  top: "c_2"
  top: "h_2"
}
layer {
  name: "lstm2_h_conted_2"
  type: "Eltwise"
  bottom: "h_2"
  bottom: "cont_3"
  top: "h_conted_2"
  eltwise_param {
    operation: SUM
    coeff_blob: true
  }
}
layer {
  name: "lstm2_transform_3"
  type: "InnerProduct"
  bottom: "h_conted_2"
  top: "W_hc_h_2"
  param {
    name: "W_hc"
  }
  inner_product_param {
    num_output: 8192
    bias_term: false
    weight_filler {
      type: "uniform"
      min: -0.01
      max: 0.01
    }
    axis: 2
  }
}
layer {
  name: "lstm2_gate_input_3"
  type: "Eltwise"
  bottom: "W_hc_h_2"
  bottom: "W_xc_x_3"
  top: "gate_input_3"
  eltwise_param {
    operation: SUM
  }
}
layer {
  name: "lstm2_unit_3"
  type: "LSTMUnit"
  bottom: "c_2"
  bottom: "gate_input_3"
  bottom: "cont_3"
  top: "c_3"
  top: "h_3"
}
layer {
  name: "lstm2_h_conted_3"
  type: "Eltwise"
  bottom: "h_3"
  bottom: "cont_4"
  top: "h_conted_3"
  eltwise_param {
    operation: SUM
    coeff_blob: true
  }
}
layer {
  name: "lstm2_transform_4"
  type: "InnerProduct"
  bottom: "h_conted_3"
  top: "W_hc_h_3"
  param {
    name: "W_hc"
  }
  inner_product_param {
    num_output: 8192
    bias_term: false
    weight_filler {
      type: "uniform"
      min: -0.01
      max: 0.01
    }
    axis: 2
  }
}
layer {
  name: "lstm2_gate_input_4"
  type: "Eltwise"
  bottom: "W_hc_h_3"
  bottom: "W_xc_x_4"
  top: "gate_input_4"
  eltwise_param {
    operation: SUM
  }
}
layer {
  name: "lstm2_unit_4"
  type: "LSTMUnit"
  bottom: "c_3"
  bottom: "gate_input_4"
  bottom: "cont_4"
  top: "c_4"
  top: "h_4"
}
layer {
  name: "lstm2_h_conted_4"
  type: "Eltwise"
  bottom: "h_4"
  bottom: "cont_5"
  top: "h_conted_4"
  eltwise_param {
    operation: SUM
    coeff_blob: true
  }
}
layer {
  name: "lstm2_transform_5"
  type: "InnerProduct"
  bottom: "h_conted_4"
  top: "W_hc_h_4"
  param {
    name: "W_hc"
  }
  inner_product_param {
    num_output: 8192
    bias_term: false
    weight_filler {
      type: "uniform"
      min: -0.01
      max: 0.01
    }
    axis: 2
  }
}
layer {
  name: "lstm2_gate_input_5"
  type: "Eltwise"
  bottom: "W_hc_h_4"
  bottom: "W_xc_x_5"
  top: "gate_input_5"
  eltwise_param {
    operation: SUM
  }
}
layer {
  name: "lstm2_unit_5"
  type: "LSTMUnit"
  bottom: "c_4"
  bottom: "gate_input_5"
  bottom: "cont_5"
  top: "c_5"
  top: "h_5"
}
layer {
  name: "lstm2_h_conted_5"
  type: "Eltwise"
  bottom: "h_5"
  bottom: "cont_6"
  top: "h_conted_5"
  eltwise_param {
    operation: SUM
    coeff_blob: true
  }
}
layer {
  name: "lstm2_transform_6"
  type: "InnerProduct"
  bottom: "h_conted_5"
  top: "W_hc_h_5"
  param {
    name: "W_hc"
  }
  inner_product_param {
    num_output: 8192
    bias_term: false
    weight_filler {
      type: "uniform"
      min: -0.01
      max: 0.01
    }
    axis: 2
  }
}
layer {
  name: "lstm2_gate_input_6"
  type: "Eltwise"
  bottom: "W_hc_h_5"
  bottom: "W_xc_x_6"
  top: "gate_input_6"
  eltwise_param {
    operation: SUM
  }
}
layer {
  name: "lstm2_unit_6"
  type: "LSTMUnit"
  bottom: "c_5"
  bottom: "gate_input_6"
  bottom: "cont_6"
  top: "c_6"
  top: "h_6"
}
layer {
  name: "lstm2_h_conted_6"
  type: "Eltwise"
  bottom: "h_6"
  bottom: "cont_7"
  top: "h_conted_6"
  eltwise_param {
    operation: SUM
    coeff_blob: true
  }
}
layer {
  name: "lstm2_transform_7"
  type: "InnerProduct"
  bottom: "h_conted_6"
  top: "W_hc_h_6"
  param {
    name: "W_hc"
  }
  inner_product_param {
    num_output: 8192
    bias_term: false
    weight_filler {
      type: "uniform"
      min: -0.01
      max: 0.01
    }
    axis: 2
  }
}
layer {
  name: "lstm2_gate_input_7"
  type: "Eltwise"
  bottom: "W_hc_h_6"
  bottom: "W_xc_x_7"
  top: "gate_input_7"
  eltwise_param {
    operation: SUM
  }
}
layer {
  name: "lstm2_unit_7"
  type: "LSTMUnit"
  bottom: "c_6"
  bottom: "gate_input_7"
  bottom: "cont_7"
  top: "c_7"
  top: "h_7"
}
layer {
  name: "lstm2_h_conted_7"
  type: "Eltwise"
  bottom: "h_7"
  bottom: "cont_8"
  top: "h_conted_7"
  eltwise_param {
    operation: SUM
    coeff_blob: true
  }
}
layer {
  name: "lstm2_transform_8"
  type: "InnerProduct"
  bottom: "h_conted_7"
  top: "W_hc_h_7"
  param {
    name: "W_hc"
  }
  inner_product_param {
    num_output: 8192
    bias_term: false
    weight_filler {
      type: "uniform"
      min: -0.01
      max: 0.01
    }
    axis: 2
  }
}
layer {
  name: "lstm2_gate_input_8"
  type: "Eltwise"
  bottom: "W_hc_h_7"
  bottom: "W_xc_x_8"
  top: "gate_input_8"
  eltwise_param {
    operation: SUM
  }
}
layer {
  name: "lstm2_unit_8"
  type: "LSTMUnit"
  bottom: "c_7"
  bottom: "gate_input_8"
  bottom: "cont_8"
  top: "c_8"
  top: "h_8"
}
layer {
  name: "lstm2_"
  type: "Split"
  bottom: "c_8"
  top: "c_T"
}
layer {
  name: "lstm2_h_concat"
  type: "Concat"
  bottom: "h_1"
  bottom: "h_2"
  bottom: "h_3"
  bottom: "h_4"
  bottom: "h_5"
  bottom: "h_6"
  bottom: "h_7"
  bottom: "h_8"
  top: "h"
  concat_param {
    axis: 0
  }
}
I0220 11:21:03.312055 20493 net.cpp:351] Input 0 -> x
I0220 11:21:03.312074 20493 net.cpp:351] Input 1 -> cont
I0220 11:21:03.312083 20493 net.cpp:351] Input 2 -> c_0
I0220 11:21:03.312090 20493 net.cpp:351] Input 3 -> h_0
I0220 11:21:03.312101 20493 layer_factory.hpp:74] Creating layer lstm2_cont_slice
I0220 11:21:03.312109 20493 net.cpp:94] Creating Layer lstm2_cont_slice
I0220 11:21:03.312116 20493 net.cpp:391] lstm2_cont_slice <- cont
I0220 11:21:03.312124 20493 net.cpp:349] lstm2_cont_slice -> cont_1
I0220 11:21:03.312132 20493 net.cpp:349] lstm2_cont_slice -> cont_2
I0220 11:21:03.312141 20493 net.cpp:349] lstm2_cont_slice -> cont_3
I0220 11:21:03.312150 20493 net.cpp:349] lstm2_cont_slice -> cont_4
I0220 11:21:03.312158 20493 net.cpp:349] lstm2_cont_slice -> cont_5
I0220 11:21:03.312167 20493 net.cpp:349] lstm2_cont_slice -> cont_6
I0220 11:21:03.312175 20493 net.cpp:349] lstm2_cont_slice -> cont_7
I0220 11:21:03.312182 20493 net.cpp:349] lstm2_cont_slice -> cont_8
I0220 11:21:03.312191 20493 net.cpp:123] Setting up lstm2_cont_slice
I0220 11:21:03.312201 20493 net.cpp:130] Top shape: 1 1 16 (16)
I0220 11:21:03.312207 20493 net.cpp:130] Top shape: 1 1 16 (16)
I0220 11:21:03.312212 20493 net.cpp:130] Top shape: 1 1 16 (16)
I0220 11:21:03.312219 20493 net.cpp:130] Top shape: 1 1 16 (16)
I0220 11:21:03.312227 20493 net.cpp:130] Top shape: 1 1 16 (16)
I0220 11:21:03.312237 20493 net.cpp:130] Top shape: 1 1 16 (16)
I0220 11:21:03.312247 20493 net.cpp:130] Top shape: 1 1 16 (16)
I0220 11:21:03.312309 20493 net.cpp:130] Top shape: 1 1 16 (16)
I0220 11:21:03.312319 20493 layer_factory.hpp:74] Creating layer cont_1_lstm2_cont_slice_0_split
I0220 11:21:03.312333 20493 net.cpp:94] Creating Layer cont_1_lstm2_cont_slice_0_split
I0220 11:21:03.312342 20493 net.cpp:391] cont_1_lstm2_cont_slice_0_split <- cont_1
I0220 11:21:03.312353 20493 net.cpp:349] cont_1_lstm2_cont_slice_0_split -> cont_1_lstm2_cont_slice_0_split_0
I0220 11:21:03.312367 20493 net.cpp:349] cont_1_lstm2_cont_slice_0_split -> cont_1_lstm2_cont_slice_0_split_1
I0220 11:21:03.312379 20493 net.cpp:123] Setting up cont_1_lstm2_cont_slice_0_split
I0220 11:21:03.312396 20493 net.cpp:130] Top shape: 1 1 16 (16)
I0220 11:21:03.312405 20493 net.cpp:130] Top shape: 1 1 16 (16)
I0220 11:21:03.312413 20493 layer_factory.hpp:74] Creating layer cont_2_lstm2_cont_slice_1_split
I0220 11:21:03.312427 20493 net.cpp:94] Creating Layer cont_2_lstm2_cont_slice_1_split
I0220 11:21:03.312434 20493 net.cpp:391] cont_2_lstm2_cont_slice_1_split <- cont_2
I0220 11:21:03.312445 20493 net.cpp:349] cont_2_lstm2_cont_slice_1_split -> cont_2_lstm2_cont_slice_1_split_0
I0220 11:21:03.312460 20493 net.cpp:349] cont_2_lstm2_cont_slice_1_split -> cont_2_lstm2_cont_slice_1_split_1
I0220 11:21:03.312472 20493 net.cpp:123] Setting up cont_2_lstm2_cont_slice_1_split
I0220 11:21:03.312485 20493 net.cpp:130] Top shape: 1 1 16 (16)
I0220 11:21:03.312496 20493 net.cpp:130] Top shape: 1 1 16 (16)
I0220 11:21:03.312506 20493 layer_factory.hpp:74] Creating layer cont_3_lstm2_cont_slice_2_split
I0220 11:21:03.312515 20493 net.cpp:94] Creating Layer cont_3_lstm2_cont_slice_2_split
I0220 11:21:03.312525 20493 net.cpp:391] cont_3_lstm2_cont_slice_2_split <- cont_3
I0220 11:21:03.312536 20493 net.cpp:349] cont_3_lstm2_cont_slice_2_split -> cont_3_lstm2_cont_slice_2_split_0
I0220 11:21:03.312552 20493 net.cpp:349] cont_3_lstm2_cont_slice_2_split -> cont_3_lstm2_cont_slice_2_split_1
I0220 11:21:03.312566 20493 net.cpp:123] Setting up cont_3_lstm2_cont_slice_2_split
I0220 11:21:03.312579 20493 net.cpp:130] Top shape: 1 1 16 (16)
I0220 11:21:03.312590 20493 net.cpp:130] Top shape: 1 1 16 (16)
I0220 11:21:03.312600 20493 layer_factory.hpp:74] Creating layer cont_4_lstm2_cont_slice_3_split
I0220 11:21:03.312611 20493 net.cpp:94] Creating Layer cont_4_lstm2_cont_slice_3_split
I0220 11:21:03.312620 20493 net.cpp:391] cont_4_lstm2_cont_slice_3_split <- cont_4
I0220 11:21:03.312630 20493 net.cpp:349] cont_4_lstm2_cont_slice_3_split -> cont_4_lstm2_cont_slice_3_split_0
I0220 11:21:03.312659 20493 net.cpp:349] cont_4_lstm2_cont_slice_3_split -> cont_4_lstm2_cont_slice_3_split_1
I0220 11:21:03.312680 20493 net.cpp:123] Setting up cont_4_lstm2_cont_slice_3_split
I0220 11:21:03.312695 20493 net.cpp:130] Top shape: 1 1 16 (16)
I0220 11:21:03.312716 20493 net.cpp:130] Top shape: 1 1 16 (16)
I0220 11:21:03.312724 20493 layer_factory.hpp:74] Creating layer cont_5_lstm2_cont_slice_4_split
I0220 11:21:03.312734 20493 net.cpp:94] Creating Layer cont_5_lstm2_cont_slice_4_split
I0220 11:21:03.312746 20493 net.cpp:391] cont_5_lstm2_cont_slice_4_split <- cont_5
I0220 11:21:03.312758 20493 net.cpp:349] cont_5_lstm2_cont_slice_4_split -> cont_5_lstm2_cont_slice_4_split_0
I0220 11:21:03.312772 20493 net.cpp:349] cont_5_lstm2_cont_slice_4_split -> cont_5_lstm2_cont_slice_4_split_1
I0220 11:21:03.312785 20493 net.cpp:123] Setting up cont_5_lstm2_cont_slice_4_split
I0220 11:21:03.312799 20493 net.cpp:130] Top shape: 1 1 16 (16)
I0220 11:21:03.312810 20493 net.cpp:130] Top shape: 1 1 16 (16)
I0220 11:21:03.312819 20493 layer_factory.hpp:74] Creating layer cont_6_lstm2_cont_slice_5_split
I0220 11:21:03.312829 20493 net.cpp:94] Creating Layer cont_6_lstm2_cont_slice_5_split
I0220 11:21:03.312839 20493 net.cpp:391] cont_6_lstm2_cont_slice_5_split <- cont_6
I0220 11:21:03.312851 20493 net.cpp:349] cont_6_lstm2_cont_slice_5_split -> cont_6_lstm2_cont_slice_5_split_0
I0220 11:21:03.312866 20493 net.cpp:349] cont_6_lstm2_cont_slice_5_split -> cont_6_lstm2_cont_slice_5_split_1
I0220 11:21:03.312880 20493 net.cpp:123] Setting up cont_6_lstm2_cont_slice_5_split
I0220 11:21:03.312892 20493 net.cpp:130] Top shape: 1 1 16 (16)
I0220 11:21:03.312904 20493 net.cpp:130] Top shape: 1 1 16 (16)
I0220 11:21:03.312911 20493 layer_factory.hpp:74] Creating layer cont_7_lstm2_cont_slice_6_split
I0220 11:21:03.312922 20493 net.cpp:94] Creating Layer cont_7_lstm2_cont_slice_6_split
I0220 11:21:03.312930 20493 net.cpp:391] cont_7_lstm2_cont_slice_6_split <- cont_7
I0220 11:21:03.312942 20493 net.cpp:349] cont_7_lstm2_cont_slice_6_split -> cont_7_lstm2_cont_slice_6_split_0
I0220 11:21:03.312955 20493 net.cpp:349] cont_7_lstm2_cont_slice_6_split -> cont_7_lstm2_cont_slice_6_split_1
I0220 11:21:03.312968 20493 net.cpp:123] Setting up cont_7_lstm2_cont_slice_6_split
I0220 11:21:03.312983 20493 net.cpp:130] Top shape: 1 1 16 (16)
I0220 11:21:03.312994 20493 net.cpp:130] Top shape: 1 1 16 (16)
I0220 11:21:03.313001 20493 layer_factory.hpp:74] Creating layer cont_8_lstm2_cont_slice_7_split
I0220 11:21:03.313014 20493 net.cpp:94] Creating Layer cont_8_lstm2_cont_slice_7_split
I0220 11:21:03.313022 20493 net.cpp:391] cont_8_lstm2_cont_slice_7_split <- cont_8
I0220 11:21:03.313033 20493 net.cpp:349] cont_8_lstm2_cont_slice_7_split -> cont_8_lstm2_cont_slice_7_split_0
I0220 11:21:03.313047 20493 net.cpp:349] cont_8_lstm2_cont_slice_7_split -> cont_8_lstm2_cont_slice_7_split_1
I0220 11:21:03.313060 20493 net.cpp:123] Setting up cont_8_lstm2_cont_slice_7_split
I0220 11:21:03.313073 20493 net.cpp:130] Top shape: 1 1 16 (16)
I0220 11:21:03.313084 20493 net.cpp:130] Top shape: 1 1 16 (16)
I0220 11:21:03.313093 20493 layer_factory.hpp:74] Creating layer lstm2_x_transform
I0220 11:21:03.313105 20493 net.cpp:94] Creating Layer lstm2_x_transform
I0220 11:21:03.313115 20493 net.cpp:391] lstm2_x_transform <- x
I0220 11:21:03.313127 20493 net.cpp:349] lstm2_x_transform -> W_xc_x
I0220 11:21:03.313141 20493 net.cpp:123] Setting up lstm2_x_transform
I0220 11:21:03.527189 20493 net.cpp:130] Top shape: 8 16 8192 (1048576)
I0220 11:21:03.527230 20493 layer_factory.hpp:74] Creating layer lstm2_W_xc_x_slice
I0220 11:21:03.527248 20493 net.cpp:94] Creating Layer lstm2_W_xc_x_slice
I0220 11:21:03.527312 20493 net.cpp:391] lstm2_W_xc_x_slice <- W_xc_x
I0220 11:21:03.527333 20493 net.cpp:349] lstm2_W_xc_x_slice -> W_xc_x_1
I0220 11:21:03.527354 20493 net.cpp:349] lstm2_W_xc_x_slice -> W_xc_x_2
I0220 11:21:03.527367 20493 net.cpp:349] lstm2_W_xc_x_slice -> W_xc_x_3
I0220 11:21:03.527377 20493 net.cpp:349] lstm2_W_xc_x_slice -> W_xc_x_4
I0220 11:21:03.527389 20493 net.cpp:349] lstm2_W_xc_x_slice -> W_xc_x_5
I0220 11:21:03.527398 20493 net.cpp:349] lstm2_W_xc_x_slice -> W_xc_x_6
I0220 11:21:03.527433 20493 net.cpp:349] lstm2_W_xc_x_slice -> W_xc_x_7
I0220 11:21:03.527441 20493 net.cpp:349] lstm2_W_xc_x_slice -> W_xc_x_8
I0220 11:21:03.527448 20493 net.cpp:123] Setting up lstm2_W_xc_x_slice
I0220 11:21:03.527462 20493 net.cpp:130] Top shape: 1 16 8192 (131072)
I0220 11:21:03.527468 20493 net.cpp:130] Top shape: 1 16 8192 (131072)
I0220 11:21:03.527475 20493 net.cpp:130] Top shape: 1 16 8192 (131072)
I0220 11:21:03.527480 20493 net.cpp:130] Top shape: 1 16 8192 (131072)
I0220 11:21:03.527489 20493 net.cpp:130] Top shape: 1 16 8192 (131072)
I0220 11:21:03.527495 20493 net.cpp:130] Top shape: 1 16 8192 (131072)
I0220 11:21:03.527500 20493 net.cpp:130] Top shape: 1 16 8192 (131072)
I0220 11:21:03.527509 20493 net.cpp:130] Top shape: 1 16 8192 (131072)
I0220 11:21:03.527514 20493 layer_factory.hpp:74] Creating layer lstm2_h_conted_0
I0220 11:21:03.527525 20493 net.cpp:94] Creating Layer lstm2_h_conted_0
I0220 11:21:03.527530 20493 net.cpp:391] lstm2_h_conted_0 <- h_0
I0220 11:21:03.527539 20493 net.cpp:391] lstm2_h_conted_0 <- cont_1_lstm2_cont_slice_0_split_0
I0220 11:21:03.527545 20493 net.cpp:349] lstm2_h_conted_0 -> h_conted_0
I0220 11:21:03.527554 20493 net.cpp:123] Setting up lstm2_h_conted_0
I0220 11:21:03.527565 20493 net.cpp:130] Top shape: 1 16 2048 (32768)
I0220 11:21:03.527572 20493 layer_factory.hpp:74] Creating layer lstm2_transform_1
I0220 11:21:03.527582 20493 net.cpp:94] Creating Layer lstm2_transform_1
I0220 11:21:03.527590 20493 net.cpp:391] lstm2_transform_1 <- h_conted_0
I0220 11:21:03.527598 20493 net.cpp:349] lstm2_transform_1 -> W_hc_h_0
I0220 11:21:03.527611 20493 net.cpp:123] Setting up lstm2_transform_1
I0220 11:21:03.634104 20493 net.cpp:130] Top shape: 1 16 8192 (131072)
I0220 11:21:03.634145 20493 layer_factory.hpp:74] Creating layer lstm2_gate_input_1
I0220 11:21:03.634162 20493 net.cpp:94] Creating Layer lstm2_gate_input_1
I0220 11:21:03.634172 20493 net.cpp:391] lstm2_gate_input_1 <- W_hc_h_0
I0220 11:21:03.634183 20493 net.cpp:391] lstm2_gate_input_1 <- W_xc_x_1
I0220 11:21:03.634217 20493 net.cpp:349] lstm2_gate_input_1 -> gate_input_1
I0220 11:21:03.634246 20493 net.cpp:123] Setting up lstm2_gate_input_1
I0220 11:21:03.634296 20493 net.cpp:130] Top shape: 1 16 8192 (131072)
I0220 11:21:03.634302 20493 layer_factory.hpp:74] Creating layer lstm2_unit_1
I0220 11:21:03.634312 20493 net.cpp:94] Creating Layer lstm2_unit_1
I0220 11:21:03.634318 20493 net.cpp:391] lstm2_unit_1 <- c_0
I0220 11:21:03.634325 20493 net.cpp:391] lstm2_unit_1 <- gate_input_1
I0220 11:21:03.634330 20493 net.cpp:391] lstm2_unit_1 <- cont_1_lstm2_cont_slice_0_split_1
I0220 11:21:03.634338 20493 net.cpp:349] lstm2_unit_1 -> c_1
I0220 11:21:03.634347 20493 net.cpp:349] lstm2_unit_1 -> h_1
I0220 11:21:03.634357 20493 net.cpp:123] Setting up lstm2_unit_1
I0220 11:21:03.634368 20493 net.cpp:130] Top shape: 1 16 2048 (32768)
I0220 11:21:03.634373 20493 net.cpp:130] Top shape: 1 16 2048 (32768)
I0220 11:21:03.634378 20493 layer_factory.hpp:74] Creating layer h_1_lstm2_unit_1_1_split
I0220 11:21:03.634387 20493 net.cpp:94] Creating Layer h_1_lstm2_unit_1_1_split
I0220 11:21:03.634393 20493 net.cpp:391] h_1_lstm2_unit_1_1_split <- h_1
I0220 11:21:03.634402 20493 net.cpp:349] h_1_lstm2_unit_1_1_split -> h_1_lstm2_unit_1_1_split_0
I0220 11:21:03.634408 20493 net.cpp:349] h_1_lstm2_unit_1_1_split -> h_1_lstm2_unit_1_1_split_1
I0220 11:21:03.634418 20493 net.cpp:123] Setting up h_1_lstm2_unit_1_1_split
I0220 11:21:03.634425 20493 net.cpp:130] Top shape: 1 16 2048 (32768)
I0220 11:21:03.634434 20493 net.cpp:130] Top shape: 1 16 2048 (32768)
I0220 11:21:03.634439 20493 layer_factory.hpp:74] Creating layer lstm2_h_conted_1
I0220 11:21:03.634449 20493 net.cpp:94] Creating Layer lstm2_h_conted_1
I0220 11:21:03.634455 20493 net.cpp:391] lstm2_h_conted_1 <- h_1_lstm2_unit_1_1_split_0
I0220 11:21:03.634462 20493 net.cpp:391] lstm2_h_conted_1 <- cont_2_lstm2_cont_slice_1_split_0
I0220 11:21:03.634469 20493 net.cpp:349] lstm2_h_conted_1 -> h_conted_1
I0220 11:21:03.634477 20493 net.cpp:123] Setting up lstm2_h_conted_1
I0220 11:21:03.634511 20493 net.cpp:130] Top shape: 1 16 2048 (32768)
I0220 11:21:03.634516 20493 layer_factory.hpp:74] Creating layer lstm2_transform_2
I0220 11:21:03.634527 20493 net.cpp:94] Creating Layer lstm2_transform_2
I0220 11:21:03.634532 20493 net.cpp:391] lstm2_transform_2 <- h_conted_1
I0220 11:21:03.634541 20493 net.cpp:349] lstm2_transform_2 -> W_hc_h_1
I0220 11:21:03.634549 20493 net.cpp:123] Setting up lstm2_transform_2
I0220 11:21:03.738723 20493 net.cpp:130] Top shape: 1 16 8192 (131072)
I0220 11:21:03.738760 20493 net.cpp:435] Sharing parameters 'W_hc' owned by layer 'lstm2_transform_1', param index 0
I0220 11:21:03.738770 20493 layer_factory.hpp:74] Creating layer lstm2_gate_input_2
I0220 11:21:03.738787 20493 net.cpp:94] Creating Layer lstm2_gate_input_2
I0220 11:21:03.738796 20493 net.cpp:391] lstm2_gate_input_2 <- W_hc_h_1
I0220 11:21:03.738808 20493 net.cpp:391] lstm2_gate_input_2 <- W_xc_x_2
I0220 11:21:03.738842 20493 net.cpp:349] lstm2_gate_input_2 -> gate_input_2
I0220 11:21:03.738860 20493 net.cpp:123] Setting up lstm2_gate_input_2
I0220 11:21:03.738886 20493 net.cpp:130] Top shape: 1 16 8192 (131072)
I0220 11:21:03.738895 20493 layer_factory.hpp:74] Creating layer lstm2_unit_2
I0220 11:21:03.738908 20493 net.cpp:94] Creating Layer lstm2_unit_2
I0220 11:21:03.738931 20493 net.cpp:391] lstm2_unit_2 <- c_1
I0220 11:21:03.738957 20493 net.cpp:391] lstm2_unit_2 <- gate_input_2
I0220 11:21:03.738968 20493 net.cpp:391] lstm2_unit_2 <- cont_2_lstm2_cont_slice_1_split_1
I0220 11:21:03.738981 20493 net.cpp:349] lstm2_unit_2 -> c_2
I0220 11:21:03.739012 20493 net.cpp:349] lstm2_unit_2 -> h_2
I0220 11:21:03.739025 20493 net.cpp:123] Setting up lstm2_unit_2
I0220 11:21:03.739040 20493 net.cpp:130] Top shape: 1 16 2048 (32768)
I0220 11:21:03.739053 20493 net.cpp:130] Top shape: 1 16 2048 (32768)
I0220 11:21:03.739060 20493 layer_factory.hpp:74] Creating layer h_2_lstm2_unit_2_1_split
I0220 11:21:03.739091 20493 net.cpp:94] Creating Layer h_2_lstm2_unit_2_1_split
I0220 11:21:03.739101 20493 net.cpp:391] h_2_lstm2_unit_2_1_split <- h_2
I0220 11:21:03.739112 20493 net.cpp:349] h_2_lstm2_unit_2_1_split -> h_2_lstm2_unit_2_1_split_0
I0220 11:21:03.739140 20493 net.cpp:349] h_2_lstm2_unit_2_1_split -> h_2_lstm2_unit_2_1_split_1
I0220 11:21:03.739151 20493 net.cpp:123] Setting up h_2_lstm2_unit_2_1_split
I0220 11:21:03.739164 20493 net.cpp:130] Top shape: 1 16 2048 (32768)
I0220 11:21:03.739178 20493 net.cpp:130] Top shape: 1 16 2048 (32768)
I0220 11:21:03.739187 20493 layer_factory.hpp:74] Creating layer lstm2_h_conted_2
I0220 11:21:03.739198 20493 net.cpp:94] Creating Layer lstm2_h_conted_2
I0220 11:21:03.739220 20493 net.cpp:391] lstm2_h_conted_2 <- h_2_lstm2_unit_2_1_split_0
I0220 11:21:03.739231 20493 net.cpp:391] lstm2_h_conted_2 <- cont_3_lstm2_cont_slice_2_split_0
I0220 11:21:03.739244 20493 net.cpp:349] lstm2_h_conted_2 -> h_conted_2
I0220 11:21:03.739307 20493 net.cpp:123] Setting up lstm2_h_conted_2
I0220 11:21:03.739321 20493 net.cpp:130] Top shape: 1 16 2048 (32768)
I0220 11:21:03.739332 20493 layer_factory.hpp:74] Creating layer lstm2_transform_3
I0220 11:21:03.739347 20493 net.cpp:94] Creating Layer lstm2_transform_3
I0220 11:21:03.739358 20493 net.cpp:391] lstm2_transform_3 <- h_conted_2
I0220 11:21:03.739372 20493 net.cpp:349] lstm2_transform_3 -> W_hc_h_2
I0220 11:21:03.739398 20493 net.cpp:123] Setting up lstm2_transform_3
I0220 11:21:03.843765 20493 net.cpp:130] Top shape: 1 16 8192 (131072)
I0220 11:21:03.843837 20493 net.cpp:435] Sharing parameters 'W_hc' owned by layer 'lstm2_transform_1', param index 0
I0220 11:21:03.843852 20493 layer_factory.hpp:74] Creating layer lstm2_gate_input_3
I0220 11:21:03.843883 20493 net.cpp:94] Creating Layer lstm2_gate_input_3
I0220 11:21:03.843900 20493 net.cpp:391] lstm2_gate_input_3 <- W_hc_h_2
I0220 11:21:03.843967 20493 net.cpp:391] lstm2_gate_input_3 <- W_xc_x_3
I0220 11:21:03.843987 20493 net.cpp:349] lstm2_gate_input_3 -> gate_input_3
I0220 11:21:03.844012 20493 net.cpp:123] Setting up lstm2_gate_input_3
I0220 11:21:03.844027 20493 net.cpp:130] Top shape: 1 16 8192 (131072)
I0220 11:21:03.844066 20493 layer_factory.hpp:74] Creating layer lstm2_unit_3
I0220 11:21:03.844081 20493 net.cpp:94] Creating Layer lstm2_unit_3
I0220 11:21:03.844105 20493 net.cpp:391] lstm2_unit_3 <- c_2
I0220 11:21:03.844115 20493 net.cpp:391] lstm2_unit_3 <- gate_input_3
I0220 11:21:03.844125 20493 net.cpp:391] lstm2_unit_3 <- cont_3_lstm2_cont_slice_2_split_1
I0220 11:21:03.844152 20493 net.cpp:349] lstm2_unit_3 -> c_3
I0220 11:21:03.844166 20493 net.cpp:349] lstm2_unit_3 -> h_3
I0220 11:21:03.844193 20493 net.cpp:123] Setting up lstm2_unit_3
I0220 11:21:03.844208 20493 net.cpp:130] Top shape: 1 16 2048 (32768)
I0220 11:21:03.844233 20493 net.cpp:130] Top shape: 1 16 2048 (32768)
I0220 11:21:03.844240 20493 layer_factory.hpp:74] Creating layer h_3_lstm2_unit_3_1_split
I0220 11:21:03.844252 20493 net.cpp:94] Creating Layer h_3_lstm2_unit_3_1_split
I0220 11:21:03.844328 20493 net.cpp:391] h_3_lstm2_unit_3_1_split <- h_3
I0220 11:21:03.844341 20493 net.cpp:349] h_3_lstm2_unit_3_1_split -> h_3_lstm2_unit_3_1_split_0
I0220 11:21:03.844355 20493 net.cpp:349] h_3_lstm2_unit_3_1_split -> h_3_lstm2_unit_3_1_split_1
I0220 11:21:03.844368 20493 net.cpp:123] Setting up h_3_lstm2_unit_3_1_split
I0220 11:21:03.844400 20493 net.cpp:130] Top shape: 1 16 2048 (32768)
I0220 11:21:03.844410 20493 net.cpp:130] Top shape: 1 16 2048 (32768)
I0220 11:21:03.844419 20493 layer_factory.hpp:74] Creating layer lstm2_h_conted_3
I0220 11:21:03.844446 20493 net.cpp:94] Creating Layer lstm2_h_conted_3
I0220 11:21:03.844455 20493 net.cpp:391] lstm2_h_conted_3 <- h_3_lstm2_unit_3_1_split_0
I0220 11:21:03.844465 20493 net.cpp:391] lstm2_h_conted_3 <- cont_4_lstm2_cont_slice_3_split_0
I0220 11:21:03.844490 20493 net.cpp:349] lstm2_h_conted_3 -> h_conted_3
I0220 11:21:03.844501 20493 net.cpp:123] Setting up lstm2_h_conted_3
I0220 11:21:03.844513 20493 net.cpp:130] Top shape: 1 16 2048 (32768)
I0220 11:21:03.844526 20493 layer_factory.hpp:74] Creating layer lstm2_transform_4
I0220 11:21:03.844540 20493 net.cpp:94] Creating Layer lstm2_transform_4
I0220 11:21:03.844549 20493 net.cpp:391] lstm2_transform_4 <- h_conted_3
I0220 11:21:03.844561 20493 net.cpp:349] lstm2_transform_4 -> W_hc_h_3
I0220 11:21:03.844578 20493 net.cpp:123] Setting up lstm2_transform_4
I0220 11:21:03.949189 20493 net.cpp:130] Top shape: 1 16 8192 (131072)
I0220 11:21:03.949241 20493 net.cpp:435] Sharing parameters 'W_hc' owned by layer 'lstm2_transform_1', param index 0
I0220 11:21:03.949304 20493 layer_factory.hpp:74] Creating layer lstm2_gate_input_4
I0220 11:21:03.949327 20493 net.cpp:94] Creating Layer lstm2_gate_input_4
I0220 11:21:03.949364 20493 net.cpp:391] lstm2_gate_input_4 <- W_hc_h_3
I0220 11:21:03.949388 20493 net.cpp:391] lstm2_gate_input_4 <- W_xc_x_4
I0220 11:21:03.949403 20493 net.cpp:349] lstm2_gate_input_4 -> gate_input_4
I0220 11:21:03.949419 20493 net.cpp:123] Setting up lstm2_gate_input_4
I0220 11:21:03.949439 20493 net.cpp:130] Top shape: 1 16 8192 (131072)
I0220 11:21:03.949460 20493 layer_factory.hpp:74] Creating layer lstm2_unit_4
I0220 11:21:03.949472 20493 net.cpp:94] Creating Layer lstm2_unit_4
I0220 11:21:03.949481 20493 net.cpp:391] lstm2_unit_4 <- c_3
I0220 11:21:03.949507 20493 net.cpp:391] lstm2_unit_4 <- gate_input_4
I0220 11:21:03.949518 20493 net.cpp:391] lstm2_unit_4 <- cont_4_lstm2_cont_slice_3_split_1
I0220 11:21:03.949530 20493 net.cpp:349] lstm2_unit_4 -> c_4
I0220 11:21:03.949559 20493 net.cpp:349] lstm2_unit_4 -> h_4
I0220 11:21:03.949571 20493 net.cpp:123] Setting up lstm2_unit_4
I0220 11:21:03.949586 20493 net.cpp:130] Top shape: 1 16 2048 (32768)
I0220 11:21:03.949599 20493 net.cpp:130] Top shape: 1 16 2048 (32768)
I0220 11:21:03.949609 20493 layer_factory.hpp:74] Creating layer h_4_lstm2_unit_4_1_split
I0220 11:21:03.949633 20493 net.cpp:94] Creating Layer h_4_lstm2_unit_4_1_split
I0220 11:21:03.949642 20493 net.cpp:391] h_4_lstm2_unit_4_1_split <- h_4
I0220 11:21:03.949653 20493 net.cpp:349] h_4_lstm2_unit_4_1_split -> h_4_lstm2_unit_4_1_split_0
I0220 11:21:03.949693 20493 net.cpp:349] h_4_lstm2_unit_4_1_split -> h_4_lstm2_unit_4_1_split_1
I0220 11:21:03.949745 20493 net.cpp:123] Setting up h_4_lstm2_unit_4_1_split
I0220 11:21:03.949774 20493 net.cpp:130] Top shape: 1 16 2048 (32768)
I0220 11:21:03.949786 20493 net.cpp:130] Top shape: 1 16 2048 (32768)
I0220 11:21:03.949795 20493 layer_factory.hpp:74] Creating layer lstm2_h_conted_4
I0220 11:21:03.949826 20493 net.cpp:94] Creating Layer lstm2_h_conted_4
I0220 11:21:03.949834 20493 net.cpp:391] lstm2_h_conted_4 <- h_4_lstm2_unit_4_1_split_0
I0220 11:21:03.949844 20493 net.cpp:391] lstm2_h_conted_4 <- cont_5_lstm2_cont_slice_4_split_0
I0220 11:21:03.949868 20493 net.cpp:349] lstm2_h_conted_4 -> h_conted_4
I0220 11:21:03.949880 20493 net.cpp:123] Setting up lstm2_h_conted_4
I0220 11:21:03.949893 20493 net.cpp:130] Top shape: 1 16 2048 (32768)
I0220 11:21:03.949903 20493 layer_factory.hpp:74] Creating layer lstm2_transform_5
I0220 11:21:03.949921 20493 net.cpp:94] Creating Layer lstm2_transform_5
I0220 11:21:03.949930 20493 net.cpp:391] lstm2_transform_5 <- h_conted_4
I0220 11:21:03.949944 20493 net.cpp:349] lstm2_transform_5 -> W_hc_h_4
I0220 11:21:03.949957 20493 net.cpp:123] Setting up lstm2_transform_5
I0220 11:21:04.054085 20493 net.cpp:130] Top shape: 1 16 8192 (131072)
I0220 11:21:04.054121 20493 net.cpp:435] Sharing parameters 'W_hc' owned by layer 'lstm2_transform_1', param index 0
I0220 11:21:04.054131 20493 layer_factory.hpp:74] Creating layer lstm2_gate_input_5
I0220 11:21:04.054147 20493 net.cpp:94] Creating Layer lstm2_gate_input_5
I0220 11:21:04.054157 20493 net.cpp:391] lstm2_gate_input_5 <- W_hc_h_4
I0220 11:21:04.054172 20493 net.cpp:391] lstm2_gate_input_5 <- W_xc_x_5
I0220 11:21:04.054185 20493 net.cpp:349] lstm2_gate_input_5 -> gate_input_5
I0220 11:21:04.054198 20493 net.cpp:123] Setting up lstm2_gate_input_5
I0220 11:21:04.054210 20493 net.cpp:130] Top shape: 1 16 8192 (131072)
I0220 11:21:04.054215 20493 layer_factory.hpp:74] Creating layer lstm2_unit_5
I0220 11:21:04.054222 20493 net.cpp:94] Creating Layer lstm2_unit_5
I0220 11:21:04.054229 20493 net.cpp:391] lstm2_unit_5 <- c_4
I0220 11:21:04.054235 20493 net.cpp:391] lstm2_unit_5 <- gate_input_5
I0220 11:21:04.054244 20493 net.cpp:391] lstm2_unit_5 <- cont_5_lstm2_cont_slice_4_split_1
I0220 11:21:04.054250 20493 net.cpp:349] lstm2_unit_5 -> c_5
I0220 11:21:04.054275 20493 net.cpp:349] lstm2_unit_5 -> h_5
I0220 11:21:04.054282 20493 net.cpp:123] Setting up lstm2_unit_5
I0220 11:21:04.054292 20493 net.cpp:130] Top shape: 1 16 2048 (32768)
I0220 11:21:04.054298 20493 net.cpp:130] Top shape: 1 16 2048 (32768)
I0220 11:21:04.054306 20493 layer_factory.hpp:74] Creating layer h_5_lstm2_unit_5_1_split
I0220 11:21:04.054313 20493 net.cpp:94] Creating Layer h_5_lstm2_unit_5_1_split
I0220 11:21:04.054321 20493 net.cpp:391] h_5_lstm2_unit_5_1_split <- h_5
I0220 11:21:04.054327 20493 net.cpp:349] h_5_lstm2_unit_5_1_split -> h_5_lstm2_unit_5_1_split_0
I0220 11:21:04.054334 20493 net.cpp:349] h_5_lstm2_unit_5_1_split -> h_5_lstm2_unit_5_1_split_1
I0220 11:21:04.054342 20493 net.cpp:123] Setting up h_5_lstm2_unit_5_1_split
I0220 11:21:04.054350 20493 net.cpp:130] Top shape: 1 16 2048 (32768)
I0220 11:21:04.054358 20493 net.cpp:130] Top shape: 1 16 2048 (32768)
I0220 11:21:04.054361 20493 layer_factory.hpp:74] Creating layer lstm2_h_conted_5
I0220 11:21:04.054369 20493 net.cpp:94] Creating Layer lstm2_h_conted_5
I0220 11:21:04.054375 20493 net.cpp:391] lstm2_h_conted_5 <- h_5_lstm2_unit_5_1_split_0
I0220 11:21:04.054380 20493 net.cpp:391] lstm2_h_conted_5 <- cont_6_lstm2_cont_slice_5_split_0
I0220 11:21:04.054389 20493 net.cpp:349] lstm2_h_conted_5 -> h_conted_5
I0220 11:21:04.054396 20493 net.cpp:123] Setting up lstm2_h_conted_5
I0220 11:21:04.054404 20493 net.cpp:130] Top shape: 1 16 2048 (32768)
I0220 11:21:04.054409 20493 layer_factory.hpp:74] Creating layer lstm2_transform_6
I0220 11:21:04.054419 20493 net.cpp:94] Creating Layer lstm2_transform_6
I0220 11:21:04.054425 20493 net.cpp:391] lstm2_transform_6 <- h_conted_5
I0220 11:21:04.054433 20493 net.cpp:349] lstm2_transform_6 -> W_hc_h_5
I0220 11:21:04.054466 20493 net.cpp:123] Setting up lstm2_transform_6
I0220 11:21:04.159080 20493 net.cpp:130] Top shape: 1 16 8192 (131072)
I0220 11:21:04.159116 20493 net.cpp:435] Sharing parameters 'W_hc' owned by layer 'lstm2_transform_1', param index 0
I0220 11:21:04.159126 20493 layer_factory.hpp:74] Creating layer lstm2_gate_input_6
I0220 11:21:04.159142 20493 net.cpp:94] Creating Layer lstm2_gate_input_6
I0220 11:21:04.159152 20493 net.cpp:391] lstm2_gate_input_6 <- W_hc_h_5
I0220 11:21:04.159162 20493 net.cpp:391] lstm2_gate_input_6 <- W_xc_x_6
I0220 11:21:04.159196 20493 net.cpp:349] lstm2_gate_input_6 -> gate_input_6
I0220 11:21:04.159215 20493 net.cpp:123] Setting up lstm2_gate_input_6
I0220 11:21:04.159241 20493 net.cpp:130] Top shape: 1 16 8192 (131072)
I0220 11:21:04.159250 20493 layer_factory.hpp:74] Creating layer lstm2_unit_6
I0220 11:21:04.159317 20493 net.cpp:94] Creating Layer lstm2_unit_6
I0220 11:21:04.159342 20493 net.cpp:391] lstm2_unit_6 <- c_5
I0220 11:21:04.159353 20493 net.cpp:391] lstm2_unit_6 <- gate_input_6
I0220 11:21:04.159363 20493 net.cpp:391] lstm2_unit_6 <- cont_6_lstm2_cont_slice_5_split_1
I0220 11:21:04.159386 20493 net.cpp:349] lstm2_unit_6 -> c_6
I0220 11:21:04.159401 20493 net.cpp:349] lstm2_unit_6 -> h_6
I0220 11:21:04.159448 20493 net.cpp:123] Setting up lstm2_unit_6
I0220 11:21:04.159461 20493 net.cpp:130] Top shape: 1 16 2048 (32768)
I0220 11:21:04.159466 20493 net.cpp:130] Top shape: 1 16 2048 (32768)
I0220 11:21:04.159471 20493 layer_factory.hpp:74] Creating layer h_6_lstm2_unit_6_1_split
I0220 11:21:04.159479 20493 net.cpp:94] Creating Layer h_6_lstm2_unit_6_1_split
I0220 11:21:04.159487 20493 net.cpp:391] h_6_lstm2_unit_6_1_split <- h_6
I0220 11:21:04.159494 20493 net.cpp:349] h_6_lstm2_unit_6_1_split -> h_6_lstm2_unit_6_1_split_0
I0220 11:21:04.159502 20493 net.cpp:349] h_6_lstm2_unit_6_1_split -> h_6_lstm2_unit_6_1_split_1
I0220 11:21:04.159509 20493 net.cpp:123] Setting up h_6_lstm2_unit_6_1_split
I0220 11:21:04.159518 20493 net.cpp:130] Top shape: 1 16 2048 (32768)
I0220 11:21:04.159524 20493 net.cpp:130] Top shape: 1 16 2048 (32768)
I0220 11:21:04.159531 20493 layer_factory.hpp:74] Creating layer lstm2_h_conted_6
I0220 11:21:04.159539 20493 net.cpp:94] Creating Layer lstm2_h_conted_6
I0220 11:21:04.159544 20493 net.cpp:391] lstm2_h_conted_6 <- h_6_lstm2_unit_6_1_split_0
I0220 11:21:04.159550 20493 net.cpp:391] lstm2_h_conted_6 <- cont_7_lstm2_cont_slice_6_split_0
I0220 11:21:04.159559 20493 net.cpp:349] lstm2_h_conted_6 -> h_conted_6
I0220 11:21:04.159565 20493 net.cpp:123] Setting up lstm2_h_conted_6
I0220 11:21:04.159575 20493 net.cpp:130] Top shape: 1 16 2048 (32768)
I0220 11:21:04.159580 20493 layer_factory.hpp:74] Creating layer lstm2_transform_7
I0220 11:21:04.159591 20493 net.cpp:94] Creating Layer lstm2_transform_7
I0220 11:21:04.159595 20493 net.cpp:391] lstm2_transform_7 <- h_conted_6
I0220 11:21:04.159605 20493 net.cpp:349] lstm2_transform_7 -> W_hc_h_6
I0220 11:21:04.159612 20493 net.cpp:123] Setting up lstm2_transform_7
I0220 11:21:04.264588 20493 net.cpp:130] Top shape: 1 16 8192 (131072)
I0220 11:21:04.264623 20493 net.cpp:435] Sharing parameters 'W_hc' owned by layer 'lstm2_transform_1', param index 0
I0220 11:21:04.264631 20493 layer_factory.hpp:74] Creating layer lstm2_gate_input_7
I0220 11:21:04.264643 20493 net.cpp:94] Creating Layer lstm2_gate_input_7
I0220 11:21:04.264649 20493 net.cpp:391] lstm2_gate_input_7 <- W_hc_h_6
I0220 11:21:04.264657 20493 net.cpp:391] lstm2_gate_input_7 <- W_xc_x_7
I0220 11:21:04.264665 20493 net.cpp:349] lstm2_gate_input_7 -> gate_input_7
I0220 11:21:04.264677 20493 net.cpp:123] Setting up lstm2_gate_input_7
I0220 11:21:04.264686 20493 net.cpp:130] Top shape: 1 16 8192 (131072)
I0220 11:21:04.264691 20493 layer_factory.hpp:74] Creating layer lstm2_unit_7
I0220 11:21:04.264701 20493 net.cpp:94] Creating Layer lstm2_unit_7
I0220 11:21:04.264706 20493 net.cpp:391] lstm2_unit_7 <- c_6
I0220 11:21:04.264711 20493 net.cpp:391] lstm2_unit_7 <- gate_input_7
I0220 11:21:04.264720 20493 net.cpp:391] lstm2_unit_7 <- cont_7_lstm2_cont_slice_6_split_1
I0220 11:21:04.264755 20493 net.cpp:349] lstm2_unit_7 -> c_7
I0220 11:21:04.264765 20493 net.cpp:349] lstm2_unit_7 -> h_7
I0220 11:21:04.264771 20493 net.cpp:123] Setting up lstm2_unit_7
I0220 11:21:04.264781 20493 net.cpp:130] Top shape: 1 16 2048 (32768)
I0220 11:21:04.264787 20493 net.cpp:130] Top shape: 1 16 2048 (32768)
I0220 11:21:04.264794 20493 layer_factory.hpp:74] Creating layer h_7_lstm2_unit_7_1_split
I0220 11:21:04.264802 20493 net.cpp:94] Creating Layer h_7_lstm2_unit_7_1_split
I0220 11:21:04.264808 20493 net.cpp:391] h_7_lstm2_unit_7_1_split <- h_7
I0220 11:21:04.264816 20493 net.cpp:349] h_7_lstm2_unit_7_1_split -> h_7_lstm2_unit_7_1_split_0
I0220 11:21:04.264823 20493 net.cpp:349] h_7_lstm2_unit_7_1_split -> h_7_lstm2_unit_7_1_split_1
I0220 11:21:04.264832 20493 net.cpp:123] Setting up h_7_lstm2_unit_7_1_split
I0220 11:21:04.264842 20493 net.cpp:130] Top shape: 1 16 2048 (32768)
I0220 11:21:04.264847 20493 net.cpp:130] Top shape: 1 16 2048 (32768)
I0220 11:21:04.264853 20493 layer_factory.hpp:74] Creating layer lstm2_h_conted_7
I0220 11:21:04.264861 20493 net.cpp:94] Creating Layer lstm2_h_conted_7
I0220 11:21:04.264866 20493 net.cpp:391] lstm2_h_conted_7 <- h_7_lstm2_unit_7_1_split_0
I0220 11:21:04.264873 20493 net.cpp:391] lstm2_h_conted_7 <- cont_8_lstm2_cont_slice_7_split_0
I0220 11:21:04.264880 20493 net.cpp:349] lstm2_h_conted_7 -> h_conted_7
I0220 11:21:04.264889 20493 net.cpp:123] Setting up lstm2_h_conted_7
I0220 11:21:04.264896 20493 net.cpp:130] Top shape: 1 16 2048 (32768)
I0220 11:21:04.264902 20493 layer_factory.hpp:74] Creating layer lstm2_transform_8
I0220 11:21:04.264912 20493 net.cpp:94] Creating Layer lstm2_transform_8
I0220 11:21:04.264919 20493 net.cpp:391] lstm2_transform_8 <- h_conted_7
I0220 11:21:04.264930 20493 net.cpp:349] lstm2_transform_8 -> W_hc_h_7
I0220 11:21:04.264936 20493 net.cpp:123] Setting up lstm2_transform_8
I0220 11:21:04.368960 20493 net.cpp:130] Top shape: 1 16 8192 (131072)
I0220 11:21:04.368998 20493 net.cpp:435] Sharing parameters 'W_hc' owned by layer 'lstm2_transform_1', param index 0
I0220 11:21:04.369007 20493 layer_factory.hpp:74] Creating layer lstm2_gate_input_8
I0220 11:21:04.369022 20493 net.cpp:94] Creating Layer lstm2_gate_input_8
I0220 11:21:04.369032 20493 net.cpp:391] lstm2_gate_input_8 <- W_hc_h_7
I0220 11:21:04.369045 20493 net.cpp:391] lstm2_gate_input_8 <- W_xc_x_8
I0220 11:21:04.369079 20493 net.cpp:349] lstm2_gate_input_8 -> gate_input_8
I0220 11:21:04.369098 20493 net.cpp:123] Setting up lstm2_gate_input_8
I0220 11:21:04.369124 20493 net.cpp:130] Top shape: 1 16 8192 (131072)
I0220 11:21:04.369133 20493 layer_factory.hpp:74] Creating layer lstm2_unit_8
I0220 11:21:04.369145 20493 net.cpp:94] Creating Layer lstm2_unit_8
I0220 11:21:04.369168 20493 net.cpp:391] lstm2_unit_8 <- c_7
I0220 11:21:04.369180 20493 net.cpp:391] lstm2_unit_8 <- gate_input_8
I0220 11:21:04.369190 20493 net.cpp:391] lstm2_unit_8 <- cont_8_lstm2_cont_slice_7_split_1
I0220 11:21:04.369218 20493 net.cpp:349] lstm2_unit_8 -> c_8
I0220 11:21:04.369233 20493 net.cpp:349] lstm2_unit_8 -> h_8
I0220 11:21:04.369321 20493 net.cpp:123] Setting up lstm2_unit_8
I0220 11:21:04.369334 20493 net.cpp:130] Top shape: 1 16 2048 (32768)
I0220 11:21:04.369339 20493 net.cpp:130] Top shape: 1 16 2048 (32768)
I0220 11:21:04.369344 20493 layer_factory.hpp:74] Creating layer lstm2_
I0220 11:21:04.369352 20493 net.cpp:94] Creating Layer lstm2_
I0220 11:21:04.369360 20493 net.cpp:391] lstm2_ <- c_8
I0220 11:21:04.369369 20493 net.cpp:349] lstm2_ -> c_T
I0220 11:21:04.369375 20493 net.cpp:123] Setting up lstm2_
I0220 11:21:04.369382 20493 net.cpp:130] Top shape: 1 16 2048 (32768)
I0220 11:21:04.369388 20493 layer_factory.hpp:74] Creating layer lstm2_h_concat
I0220 11:21:04.369400 20493 net.cpp:94] Creating Layer lstm2_h_concat
I0220 11:21:04.369405 20493 net.cpp:391] lstm2_h_concat <- h_1_lstm2_unit_1_1_split_1
I0220 11:21:04.369411 20493 net.cpp:391] lstm2_h_concat <- h_2_lstm2_unit_2_1_split_1
I0220 11:21:04.369417 20493 net.cpp:391] lstm2_h_concat <- h_3_lstm2_unit_3_1_split_1
I0220 11:21:04.369449 20493 net.cpp:391] lstm2_h_concat <- h_4_lstm2_unit_4_1_split_1
I0220 11:21:04.369456 20493 net.cpp:391] lstm2_h_concat <- h_5_lstm2_unit_5_1_split_1
I0220 11:21:04.369460 20493 net.cpp:391] lstm2_h_concat <- h_6_lstm2_unit_6_1_split_1
I0220 11:21:04.369465 20493 net.cpp:391] lstm2_h_concat <- h_7_lstm2_unit_7_1_split_1
I0220 11:21:04.369470 20493 net.cpp:391] lstm2_h_concat <- h_8
I0220 11:21:04.369478 20493 net.cpp:349] lstm2_h_concat -> h
I0220 11:21:04.369485 20493 net.cpp:123] Setting up lstm2_h_concat
I0220 11:21:04.369496 20493 net.cpp:130] Top shape: 8 16 2048 (262144)
I0220 11:21:04.369501 20493 net.cpp:179] lstm2_h_concat does not need backward computation.
I0220 11:21:04.369508 20493 net.cpp:179] lstm2_ does not need backward computation.
I0220 11:21:04.369513 20493 net.cpp:179] lstm2_unit_8 does not need backward computation.
I0220 11:21:04.369516 20493 net.cpp:179] lstm2_gate_input_8 does not need backward computation.
I0220 11:21:04.369520 20493 net.cpp:179] lstm2_transform_8 does not need backward computation.
…
