…
I0219 00:18:34.465164 21566 net.cpp:268] The NetState phase (0) differed from the phase (1) specified by a rule in layer loss
I0219 00:18:34.465584 21566 net.cpp:52] Initializing net from parameters: 
name: "TORCS_Net"
state {
  phase: TRAIN
}
layer {
  name: "data"
  type: "DataLstmTrainHist"
  top: "data"
  top: "label"
  top: "hist"
  top: "marker"
  include {
    phase: TRAIN
  }
  data_lstm_train_hist_param {
    source: "nonparametric/data/TORCS_smooth_np_train"
    sequence_size: 8
    sequence_num: 16
    interval: 200
    mean_file: "nonparametric/data/TORCS_smooth_np_train_mean.binaryproto"
  }
}
layer {
  name: "conv1"
  type: "Convolution"
  bottom: "data"
  top: "conv1"
  param {
    lr_mult: 1
    decay_mult: 1
  }
  param {
    lr_mult: 2
    decay_mult: 0
  }
  convolution_param {
    num_output: 96
    kernel_size: 11
    stride: 4
    weight_filler {
      type: "gaussian"
      std: 0.01
    }
    bias_filler {
      type: "constant"
      value: 0
    }
  }
}
layer {
  name: "relu1"
  type: "ReLU"
  bottom: "conv1"
  top: "conv1"
}
layer {
  name: "pool1"
  type: "Pooling"
  bottom: "conv1"
  top: "pool1"
  pooling_param {
    pool: MAX
    kernel_size: 3
    stride: 2
  }
}
layer {
  name: "norm1"
  type: "LRN"
  bottom: "pool1"
  top: "norm1"
  lrn_param {
    local_size: 5
    alpha: 0.0001
    beta: 0.75
  }
}
layer {
  name: "conv2"
  type: "Convolution"
  bottom: "norm1"
  top: "conv2"
  param {
    lr_mult: 1
    decay_mult: 1
  }
  param {
    lr_mult: 2
    decay_mult: 0
  }
  convolution_param {
    num_output: 256
    pad: 2
    kernel_size: 5
    group: 2
    weight_filler {
      type: "gaussian"
      std: 0.01
    }
    bias_filler {
      type: "constant"
      value: 1
    }
  }
}
layer {
  name: "relu2"
  type: "ReLU"
  bottom: "conv2"
  top: "conv2"
}
layer {
  name: "pool2"
  type: "Pooling"
  bottom: "conv2"
  top: "pool2"
  pooling_param {
    pool: MAX
    kernel_size: 3
    stride: 2
  }
}
layer {
  name: "norm2"
  type: "LRN"
  bottom: "pool2"
  top: "norm2"
  lrn_param {
    local_size: 5
    alpha: 0.0001
    beta: 0.75
  }
}
layer {
  name: "conv3"
  type: "Convolution"
  bottom: "norm2"
  top: "conv3"
  param {
    lr_mult: 1
    decay_mult: 1
  }
  param {
    lr_mult: 2
    decay_mult: 0
  }
  convolution_param {
    num_output: 384
    pad: 1
    kernel_size: 3
    weight_filler {
      type: "gaussian"
      std: 0.01
    }
    bias_filler {
      type: "constant"
      value: 0
    }
  }
}
layer {
  name: "relu3"
  type: "ReLU"
  bottom: "conv3"
  top: "conv3"
}
layer {
  name: "conv4"
  type: "Convolution"
  bottom: "conv3"
  top: "conv4"
  param {
    lr_mult: 1
    decay_mult: 1
  }
  param {
    lr_mult: 2
    decay_mult: 0
  }
  convolution_param {
    num_output: 384
    pad: 1
    kernel_size: 3
    group: 2
    weight_filler {
      type: "gaussian"
      std: 0.01
    }
    bias_filler {
      type: "constant"
      value: 1
    }
  }
}
layer {
  name: "relu4"
  type: "ReLU"
  bottom: "conv4"
  top: "conv4"
}
layer {
  name: "conv5"
  type: "Convolution"
  bottom: "conv4"
  top: "conv5"
  param {
    lr_mult: 1
    decay_mult: 1
  }
  param {
    lr_mult: 2
    decay_mult: 0
  }
  convolution_param {
    num_output: 256
    pad: 1
    kernel_size: 3
    group: 2
    weight_filler {
      type: "gaussian"
      std: 0.01
    }
    bias_filler {
      type: "constant"
      value: 1
    }
  }
}
layer {
  name: "relu5"
  type: "ReLU"
  bottom: "conv5"
  top: "conv5"
}
layer {
  name: "pool5"
  type: "Pooling"
  bottom: "conv5"
  top: "pool5"
  pooling_param {
    pool: MAX
    kernel_size: 3
    stride: 2
  }
}
layer {
  name: "fc6"
  type: "InnerProduct"
  bottom: "pool5"
  top: "fc6"
  param {
    lr_mult: 1
    decay_mult: 1
  }
  param {
    lr_mult: 2
    decay_mult: 0
  }
  inner_product_param {
    num_output: 4096
    weight_filler {
      type: "gaussian"
      std: 0.005
    }
    bias_filler {
      type: "constant"
      value: 1
    }
  }
}
layer {
  name: "relu6"
  type: "ReLU"
  bottom: "fc6"
  top: "fc6"
}
layer {
  name: "drop6"
  type: "Dropout"
  bottom: "fc6"
  top: "fc6"
  dropout_param {
    dropout_ratio: 0.5
  }
}
layer {
  name: "reshape-fc6"
  type: "Reshape"
  bottom: "fc6"
  top: "reshape-fc6"
  reshape_param {
    shape {
      dim: 8
      dim: 16
      dim: 4096
    }
  }
}
layer {
  name: "reshape-label"
  type: "Reshape"
  bottom: "label"
  top: "reshape-label"
  reshape_param {
    shape {
      dim: 8
      dim: 16
      dim: 14
    }
  }
}
layer {
  name: "reshape-hist"
  type: "Reshape"
  bottom: "hist"
  top: "reshape-hist"
  reshape_param {
    shape {
      dim: 8
      dim: 16
      dim: 14
    }
  }
}
layer {
  name: "reshape-marker"
  type: "Reshape"
  bottom: "marker"
  top: "reshape-marker"
  reshape_param {
    shape {
      dim: 8
      dim: 16
    }
  }
}
layer {
  name: "lstm1"
  type: "LSTM"
  bottom: "reshape-hist"
  bottom: "reshape-marker"
  top: "lstm1"
  recurrent_param {
    num_output: 128
    weight_filler {
      type: "uniform"
      min: -0.01
      max: 0.01
    }
    bias_filler {
      type: "constant"
      value: 0
    }
  }
}
layer {
  name: "lstm1-drop"
  type: "Dropout"
  bottom: "lstm1"
  top: "lstm1"
  dropout_param {
    dropout_ratio: 0.5
  }
}
layer {
  name: "concat"
  type: "Concat"
  bottom: "reshape-fc6"
  bottom: "lstm1"
  top: "concat-data"
  concat_param {
    axis: 2
  }
}
layer {
  name: "lstm2"
  type: "LSTM"
  bottom: "concat-data"
  bottom: "reshape-marker"
  top: "lstm2"
  recurrent_param {
    num_output: 2048
    weight_filler {
      type: "uniform"
      min: -0.01
      max: 0.01
    }
    bias_filler {
      type: "constant"
      value: 0
    }
  }
}
layer {
  name: "lstm2-drop"
  type: "Dropout"
  bottom: "lstm2"
  top: "lstm2"
  dropout_param {
    dropout_ratio: 0.5
  }
}
layer {
  name: "fc9c"
  type: "InnerProduct"
  bottom: "lstm2"
  top: "fc9c"
  param {
    lr_mult: 1
    decay_mult: 1
  }
  param {
    lr_mult: 2
    decay_mult: 0
  }
  inner_product_param {
    num_output: 14
    weight_filler {
      type: "gaussian"
      std: 0.01
    }
    bias_filler {
      type: "constant"
      value: 0
    }
    axis: 2
  }
}
layer {
  name: "relu9"
  type: "Sigmoid"
  bottom: "fc9c"
  top: "fc9c"
}
layer {
  name: "loss"
  type: "EuclideanLossDriving"
  bottom: "fc9c"
  bottom: "reshape-label"
  top: "loss"
  include {
    phase: TRAIN
  }
}
I0219 00:18:34.466137 21566 layer_factory.hpp:74] Creating layer data
I0219 00:18:34.466182 21566 net.cpp:94] Creating Layer data
I0219 00:18:34.466207 21566 net.cpp:349] data -> data
I0219 00:18:34.466256 21566 net.cpp:349] data -> label
I0219 00:18:34.466337 21566 net.cpp:349] data -> hist
I0219 00:18:34.466362 21566 net.cpp:349] data -> marker
I0219 00:18:34.466384 21566 net.cpp:123] Setting up data
I0219 00:18:34.466436 21566 data_lstm_train_hist_layer.cpp:50] Opening leveldb nonparametric/data/TORCS_smooth_np_train
I0219 00:18:34.469049 21566 data_lstm_train_hist_layer.cpp:90] output data size: 128,3,210,280
I0219 00:18:34.469085 21566 data_lstm_train_hist_layer.cpp:107] Loading mean file from: nonparametric/data/TORCS_smooth_np_train_mean.binaryproto
I0219 00:18:34.500526 21566 net.cpp:130] Top shape: 128 3 210 280 (22579200)
I0219 00:18:34.500560 21566 net.cpp:130] Top shape: 128 1 1 14 (1792)
I0219 00:18:34.500601 21566 net.cpp:130] Top shape: 128 1 1 14 (1792)
I0219 00:18:34.500623 21566 net.cpp:130] Top shape: 128 1 1 1 (128)
I0219 00:18:34.500653 21566 layer_factory.hpp:74] Creating layer conv1
I0219 00:18:34.500696 21566 net.cpp:94] Creating Layer conv1
I0219 00:18:34.500721 21566 net.cpp:391] conv1 <- data
I0219 00:18:34.500752 21566 net.cpp:349] conv1 -> conv1
I0219 00:18:34.500788 21566 net.cpp:123] Setting up conv1
I0219 00:18:34.502689 21566 net.cpp:130] Top shape: 128 96 50 68 (41779200)
I0219 00:18:34.502732 21566 layer_factory.hpp:74] Creating layer relu1
I0219 00:18:34.502760 21566 net.cpp:94] Creating Layer relu1
I0219 00:18:34.502784 21566 net.cpp:391] relu1 <- conv1
I0219 00:18:34.502809 21566 net.cpp:338] relu1 -> conv1 (in-place)
I0219 00:18:34.502835 21566 net.cpp:123] Setting up relu1
I0219 00:18:34.502861 21566 net.cpp:130] Top shape: 128 96 50 68 (41779200)
I0219 00:18:34.502881 21566 layer_factory.hpp:74] Creating layer pool1
I0219 00:18:34.502899 21566 net.cpp:94] Creating Layer pool1
I0219 00:18:34.502918 21566 net.cpp:391] pool1 <- conv1
I0219 00:18:34.502941 21566 net.cpp:349] pool1 -> pool1
I0219 00:18:34.502965 21566 net.cpp:123] Setting up pool1
I0219 00:18:34.503002 21566 net.cpp:130] Top shape: 128 96 25 34 (10444800)
I0219 00:18:34.503023 21566 layer_factory.hpp:74] Creating layer norm1
I0219 00:18:34.503051 21566 net.cpp:94] Creating Layer norm1
I0219 00:18:34.503073 21566 net.cpp:391] norm1 <- pool1
I0219 00:18:34.503094 21566 net.cpp:349] norm1 -> norm1
I0219 00:18:34.503119 21566 net.cpp:123] Setting up norm1
I0219 00:18:34.503175 21566 net.cpp:130] Top shape: 128 96 25 34 (10444800)
I0219 00:18:34.503196 21566 layer_factory.hpp:74] Creating layer conv2
I0219 00:18:34.503217 21566 net.cpp:94] Creating Layer conv2
I0219 00:18:34.503237 21566 net.cpp:391] conv2 <- norm1
I0219 00:18:34.503309 21566 net.cpp:349] conv2 -> conv2
I0219 00:18:34.503339 21566 net.cpp:123] Setting up conv2
I0219 00:18:34.515214 21566 net.cpp:130] Top shape: 128 256 25 34 (27852800)
I0219 00:18:34.515250 21566 layer_factory.hpp:74] Creating layer relu2
I0219 00:18:34.515331 21566 net.cpp:94] Creating Layer relu2
I0219 00:18:34.515353 21566 net.cpp:391] relu2 <- conv2
I0219 00:18:34.515377 21566 net.cpp:338] relu2 -> conv2 (in-place)
I0219 00:18:34.515400 21566 net.cpp:123] Setting up relu2
I0219 00:18:34.515422 21566 net.cpp:130] Top shape: 128 256 25 34 (27852800)
I0219 00:18:34.515441 21566 layer_factory.hpp:74] Creating layer pool2
I0219 00:18:34.515462 21566 net.cpp:94] Creating Layer pool2
I0219 00:18:34.515481 21566 net.cpp:391] pool2 <- conv2
I0219 00:18:34.515503 21566 net.cpp:349] pool2 -> pool2
I0219 00:18:34.515527 21566 net.cpp:123] Setting up pool2
I0219 00:18:34.515553 21566 net.cpp:130] Top shape: 128 256 12 17 (6684672)
I0219 00:18:34.515576 21566 layer_factory.hpp:74] Creating layer norm2
I0219 00:18:34.515600 21566 net.cpp:94] Creating Layer norm2
I0219 00:18:34.515621 21566 net.cpp:391] norm2 <- pool2
I0219 00:18:34.515645 21566 net.cpp:349] norm2 -> norm2
I0219 00:18:34.515666 21566 net.cpp:123] Setting up norm2
I0219 00:18:34.515691 21566 net.cpp:130] Top shape: 128 256 12 17 (6684672)
I0219 00:18:34.515710 21566 layer_factory.hpp:74] Creating layer conv3
I0219 00:18:34.515733 21566 net.cpp:94] Creating Layer conv3
I0219 00:18:34.515753 21566 net.cpp:391] conv3 <- norm2
I0219 00:18:34.515774 21566 net.cpp:349] conv3 -> conv3
I0219 00:18:34.515799 21566 net.cpp:123] Setting up conv3
I0219 00:18:34.547314 21566 net.cpp:130] Top shape: 128 384 12 17 (10027008)
I0219 00:18:34.547353 21566 layer_factory.hpp:74] Creating layer relu3
I0219 00:18:34.547375 21566 net.cpp:94] Creating Layer relu3
I0219 00:18:34.547394 21566 net.cpp:391] relu3 <- conv3
I0219 00:18:34.547416 21566 net.cpp:338] relu3 -> conv3 (in-place)
I0219 00:18:34.547440 21566 net.cpp:123] Setting up relu3
I0219 00:18:34.547461 21566 net.cpp:130] Top shape: 128 384 12 17 (10027008)
I0219 00:18:34.547482 21566 layer_factory.hpp:74] Creating layer conv4
I0219 00:18:34.547511 21566 net.cpp:94] Creating Layer conv4
I0219 00:18:34.547533 21566 net.cpp:391] conv4 <- conv3
I0219 00:18:34.547557 21566 net.cpp:349] conv4 -> conv4
I0219 00:18:34.547588 21566 net.cpp:123] Setting up conv4
I0219 00:18:34.574352 21566 net.cpp:130] Top shape: 128 384 12 17 (10027008)
I0219 00:18:34.574389 21566 layer_factory.hpp:74] Creating layer relu4
I0219 00:18:34.574425 21566 net.cpp:94] Creating Layer relu4
I0219 00:18:34.574446 21566 net.cpp:391] relu4 <- conv4
I0219 00:18:34.574470 21566 net.cpp:338] relu4 -> conv4 (in-place)
I0219 00:18:34.574496 21566 net.cpp:123] Setting up relu4
I0219 00:18:34.574520 21566 net.cpp:130] Top shape: 128 384 12 17 (10027008)
I0219 00:18:34.574542 21566 layer_factory.hpp:74] Creating layer conv5
I0219 00:18:34.574568 21566 net.cpp:94] Creating Layer conv5
I0219 00:18:34.574589 21566 net.cpp:391] conv5 <- conv4
I0219 00:18:34.574612 21566 net.cpp:349] conv5 -> conv5
I0219 00:18:34.574636 21566 net.cpp:123] Setting up conv5
I0219 00:18:34.592305 21566 net.cpp:130] Top shape: 128 256 12 17 (6684672)
I0219 00:18:34.592342 21566 layer_factory.hpp:74] Creating layer relu5
I0219 00:18:34.592366 21566 net.cpp:94] Creating Layer relu5
I0219 00:18:34.592391 21566 net.cpp:391] relu5 <- conv5
I0219 00:18:34.592412 21566 net.cpp:338] relu5 -> conv5 (in-place)
I0219 00:18:34.592434 21566 net.cpp:123] Setting up relu5
I0219 00:18:34.592458 21566 net.cpp:130] Top shape: 128 256 12 17 (6684672)
I0219 00:18:34.592478 21566 layer_factory.hpp:74] Creating layer pool5
I0219 00:18:34.592497 21566 net.cpp:94] Creating Layer pool5
I0219 00:18:34.592517 21566 net.cpp:391] pool5 <- conv5
I0219 00:18:34.592540 21566 net.cpp:349] pool5 -> pool5
I0219 00:18:34.592564 21566 net.cpp:123] Setting up pool5
I0219 00:18:34.592592 21566 net.cpp:130] Top shape: 128 256 6 8 (1572864)
I0219 00:18:34.592614 21566 layer_factory.hpp:74] Creating layer fc6
I0219 00:18:34.592643 21566 net.cpp:94] Creating Layer fc6
I0219 00:18:34.592664 21566 net.cpp:391] fc6 <- pool5
I0219 00:18:34.592686 21566 net.cpp:349] fc6 -> fc6
I0219 00:18:34.592712 21566 net.cpp:123] Setting up fc6
I0219 00:18:36.400557 21566 net.cpp:130] Top shape: 128 4096 (524288)
I0219 00:18:36.400601 21566 layer_factory.hpp:74] Creating layer relu6
I0219 00:18:36.400621 21566 net.cpp:94] Creating Layer relu6
I0219 00:18:36.400629 21566 net.cpp:391] relu6 <- fc6
I0219 00:18:36.400640 21566 net.cpp:338] relu6 -> fc6 (in-place)
I0219 00:18:36.400650 21566 net.cpp:123] Setting up relu6
I0219 00:18:36.400658 21566 net.cpp:130] Top shape: 128 4096 (524288)
I0219 00:18:36.400676 21566 layer_factory.hpp:74] Creating layer drop6
I0219 00:18:36.400689 21566 net.cpp:94] Creating Layer drop6
I0219 00:18:36.400694 21566 net.cpp:391] drop6 <- fc6
I0219 00:18:36.400701 21566 net.cpp:338] drop6 -> fc6 (in-place)
I0219 00:18:36.400714 21566 net.cpp:123] Setting up drop6
I0219 00:18:36.400729 21566 net.cpp:130] Top shape: 128 4096 (524288)
I0219 00:18:36.400735 21566 layer_factory.hpp:74] Creating layer reshape-fc6
I0219 00:18:36.400746 21566 net.cpp:94] Creating Layer reshape-fc6
I0219 00:18:36.400753 21566 net.cpp:391] reshape-fc6 <- fc6
I0219 00:18:36.400760 21566 net.cpp:349] reshape-fc6 -> reshape-fc6
I0219 00:18:36.400774 21566 net.cpp:123] Setting up reshape-fc6
I0219 00:18:36.400790 21566 net.cpp:130] Top shape: 8 16 4096 (524288)
I0219 00:18:36.400796 21566 layer_factory.hpp:74] Creating layer reshape-label
I0219 00:18:36.400804 21566 net.cpp:94] Creating Layer reshape-label
I0219 00:18:36.400810 21566 net.cpp:391] reshape-label <- label
I0219 00:18:36.400817 21566 net.cpp:349] reshape-label -> reshape-label
I0219 00:18:36.400828 21566 net.cpp:123] Setting up reshape-label
I0219 00:18:36.400838 21566 net.cpp:130] Top shape: 8 16 14 (1792)
I0219 00:18:36.400845 21566 layer_factory.hpp:74] Creating layer reshape-hist
I0219 00:18:36.400851 21566 net.cpp:94] Creating Layer reshape-hist
I0219 00:18:36.400856 21566 net.cpp:391] reshape-hist <- hist
I0219 00:18:36.400864 21566 net.cpp:349] reshape-hist -> reshape-hist
I0219 00:18:36.400871 21566 net.cpp:123] Setting up reshape-hist
I0219 00:18:36.400878 21566 net.cpp:130] Top shape: 8 16 14 (1792)
I0219 00:18:36.400883 21566 layer_factory.hpp:74] Creating layer reshape-marker
I0219 00:18:36.400890 21566 net.cpp:94] Creating Layer reshape-marker
I0219 00:18:36.400941 21566 net.cpp:391] reshape-marker <- marker
I0219 00:18:36.400951 21566 net.cpp:349] reshape-marker -> reshape-marker
I0219 00:18:36.400959 21566 net.cpp:123] Setting up reshape-marker
I0219 00:18:36.400966 21566 net.cpp:130] Top shape: 8 16 (128)
I0219 00:18:36.400974 21566 layer_factory.hpp:74] Creating layer reshape-marker_reshape-marker_0_split
I0219 00:18:36.400985 21566 net.cpp:94] Creating Layer reshape-marker_reshape-marker_0_split
I0219 00:18:36.400990 21566 net.cpp:391] reshape-marker_reshape-marker_0_split <- reshape-marker
I0219 00:18:36.400996 21566 net.cpp:349] reshape-marker_reshape-marker_0_split -> reshape-marker_reshape-marker_0_split_0
I0219 00:18:36.401005 21566 net.cpp:349] reshape-marker_reshape-marker_0_split -> reshape-marker_reshape-marker_0_split_1
I0219 00:18:36.401013 21566 net.cpp:123] Setting up reshape-marker_reshape-marker_0_split
I0219 00:18:36.401024 21566 net.cpp:130] Top shape: 8 16 (128)
I0219 00:18:36.401031 21566 net.cpp:130] Top shape: 8 16 (128)
I0219 00:18:36.401036 21566 layer_factory.hpp:74] Creating layer lstm1
I0219 00:18:36.401046 21566 net.cpp:94] Creating Layer lstm1
I0219 00:18:36.401052 21566 net.cpp:391] lstm1 <- reshape-hist
I0219 00:18:36.401059 21566 net.cpp:391] lstm1 <- reshape-marker_reshape-marker_0_split_0
I0219 00:18:36.401067 21566 net.cpp:349] lstm1 -> lstm1
I0219 00:18:36.401077 21566 net.cpp:123] Setting up lstm1
I0219 00:18:36.401084 21566 recurrent_layer.cpp:27] Initializing recurrent layer: assuming input batch contains 8 timesteps of 16 independent streams.
I0219 00:18:36.401557 21566 net.cpp:52] Initializing net from parameters: 
input: "x"
input: "cont"
input: "c_0"
input: "h_0"
force_backward: true
input_shape {
  dim: 8
  dim: 16
  dim: 14
}
input_shape {
  dim: 1
  dim: 8
  dim: 16
}
input_shape {
  dim: 1
  dim: 16
  dim: 128
}
input_shape {
  dim: 1
  dim: 16
  dim: 128
}
layer {
  name: "lstm1_cont_slice"
  type: "Slice"
  bottom: "cont"
  top: "cont_1"
  top: "cont_2"
  top: "cont_3"
  top: "cont_4"
  top: "cont_5"
  top: "cont_6"
  top: "cont_7"
  top: "cont_8"
  slice_param {
    axis: 1
  }
}
layer {
  name: "lstm1_x_transform"
  type: "InnerProduct"
  bottom: "x"
  top: "W_xc_x"
  param {
    name: "W_xc"
  }
  param {
    name: "b_c"
  }
  inner_product_param {
    num_output: 512
    bias_term: true
    weight_filler {
      type: "uniform"
      min: -0.01
      max: 0.01
    }
    bias_filler {
      type: "constant"
      value: 0
    }
    axis: 2
  }
}
layer {
  name: "lstm1_W_xc_x_slice"
  type: "Slice"
  bottom: "W_xc_x"
  top: "W_xc_x_1"
  top: "W_xc_x_2"
  top: "W_xc_x_3"
  top: "W_xc_x_4"
  top: "W_xc_x_5"
  top: "W_xc_x_6"
  top: "W_xc_x_7"
  top: "W_xc_x_8"
  slice_param {
    axis: 0
  }
}
layer {
  name: "lstm1_h_conted_0"
  type: "Eltwise"
  bottom: "h_0"
  bottom: "cont_1"
  top: "h_conted_0"
  eltwise_param {
    operation: SUM
    coeff_blob: true
  }
}
layer {
  name: "lstm1_transform_1"
  type: "InnerProduct"
  bottom: "h_conted_0"
  top: "W_hc_h_0"
  param {
    name: "W_hc"
  }
  inner_product_param {
    num_output: 512
    bias_term: false
    weight_filler {
      type: "uniform"
      min: -0.01
      max: 0.01
    }
    axis: 2
  }
}
layer {
  name: "lstm1_gate_input_1"
  type: "Eltwise"
  bottom: "W_hc_h_0"
  bottom: "W_xc_x_1"
  top: "gate_input_1"
  eltwise_param {
    operation: SUM
  }
}
layer {
  name: "lstm1_unit_1"
  type: "LSTMUnit"
  bottom: "c_0"
  bottom: "gate_input_1"
  bottom: "cont_1"
  top: "c_1"
  top: "h_1"
}
layer {
  name: "lstm1_h_conted_1"
  type: "Eltwise"
  bottom: "h_1"
  bottom: "cont_2"
  top: "h_conted_1"
  eltwise_param {
    operation: SUM
    coeff_blob: true
  }
}
layer {
  name: "lstm1_transform_2"
  type: "InnerProduct"
  bottom: "h_conted_1"
  top: "W_hc_h_1"
  param {
    name: "W_hc"
  }
  inner_product_param {
    num_output: 512
    bias_term: false
    weight_filler {
      type: "uniform"
      min: -0.01
      max: 0.01
    }
    axis: 2
  }
}
layer {
  name: "lstm1_gate_input_2"
  type: "Eltwise"
  bottom: "W_hc_h_1"
  bottom: "W_xc_x_2"
  top: "gate_input_2"
  eltwise_param {
    operation: SUM
  }
}
layer {
  name: "lstm1_unit_2"
  type: "LSTMUnit"
  bottom: "c_1"
  bottom: "gate_input_2"
  bottom: "cont_2"
  top: "c_2"
  top: "h_2"
}
layer {
  name: "lstm1_h_conted_2"
  type: "Eltwise"
  bottom: "h_2"
  bottom: "cont_3"
  top: "h_conted_2"
  eltwise_param {
    operation: SUM
    coeff_blob: true
  }
}
layer {
  name: "lstm1_transform_3"
  type: "InnerProduct"
  bottom: "h_conted_2"
  top: "W_hc_h_2"
  param {
    name: "W_hc"
  }
  inner_product_param {
    num_output: 512
    bias_term: false
    weight_filler {
      type: "uniform"
      min: -0.01
      max: 0.01
    }
    axis: 2
  }
}
layer {
  name: "lstm1_gate_input_3"
  type: "Eltwise"
  bottom: "W_hc_h_2"
  bottom: "W_xc_x_3"
  top: "gate_input_3"
  eltwise_param {
    operation: SUM
  }
}
layer {
  name: "lstm1_unit_3"
  type: "LSTMUnit"
  bottom: "c_2"
  bottom: "gate_input_3"
  bottom: "cont_3"
  top: "c_3"
  top: "h_3"
}
layer {
  name: "lstm1_h_conted_3"
  type: "Eltwise"
  bottom: "h_3"
  bottom: "cont_4"
  top: "h_conted_3"
  eltwise_param {
    operation: SUM
    coeff_blob: true
  }
}
layer {
  name: "lstm1_transform_4"
  type: "InnerProduct"
  bottom: "h_conted_3"
  top: "W_hc_h_3"
  param {
    name: "W_hc"
  }
  inner_product_param {
    num_output: 512
    bias_term: false
    weight_filler {
      type: "uniform"
      min: -0.01
      max: 0.01
    }
    axis: 2
  }
}
layer {
  name: "lstm1_gate_input_4"
  type: "Eltwise"
  bottom: "W_hc_h_3"
  bottom: "W_xc_x_4"
  top: "gate_input_4"
  eltwise_param {
    operation: SUM
  }
}
layer {
  name: "lstm1_unit_4"
  type: "LSTMUnit"
  bottom: "c_3"
  bottom: "gate_input_4"
  bottom: "cont_4"
  top: "c_4"
  top: "h_4"
}
layer {
  name: "lstm1_h_conted_4"
  type: "Eltwise"
  bottom: "h_4"
  bottom: "cont_5"
  top: "h_conted_4"
  eltwise_param {
    operation: SUM
    coeff_blob: true
  }
}
layer {
  name: "lstm1_transform_5"
  type: "InnerProduct"
  bottom: "h_conted_4"
  top: "W_hc_h_4"
  param {
    name: "W_hc"
  }
  inner_product_param {
    num_output: 512
    bias_term: false
    weight_filler {
      type: "uniform"
      min: -0.01
      max: 0.01
    }
    axis: 2
  }
}
layer {
  name: "lstm1_gate_input_5"
  type: "Eltwise"
  bottom: "W_hc_h_4"
  bottom: "W_xc_x_5"
  top: "gate_input_5"
  eltwise_param {
    operation: SUM
  }
}
layer {
  name: "lstm1_unit_5"
  type: "LSTMUnit"
  bottom: "c_4"
  bottom: "gate_input_5"
  bottom: "cont_5"
  top: "c_5"
  top: "h_5"
}
layer {
  name: "lstm1_h_conted_5"
  type: "Eltwise"
  bottom: "h_5"
  bottom: "cont_6"
  top: "h_conted_5"
  eltwise_param {
    operation: SUM
    coeff_blob: true
  }
}
layer {
  name: "lstm1_transform_6"
  type: "InnerProduct"
  bottom: "h_conted_5"
  top: "W_hc_h_5"
  param {
    name: "W_hc"
  }
  inner_product_param {
    num_output: 512
    bias_term: false
    weight_filler {
      type: "uniform"
      min: -0.01
      max: 0.01
    }
    axis: 2
  }
}
layer {
  name: "lstm1_gate_input_6"
  type: "Eltwise"
  bottom: "W_hc_h_5"
  bottom: "W_xc_x_6"
  top: "gate_input_6"
  eltwise_param {
    operation: SUM
  }
}
layer {
  name: "lstm1_unit_6"
  type: "LSTMUnit"
  bottom: "c_5"
  bottom: "gate_input_6"
  bottom: "cont_6"
  top: "c_6"
  top: "h_6"
}
layer {
  name: "lstm1_h_conted_6"
  type: "Eltwise"
  bottom: "h_6"
  bottom: "cont_7"
  top: "h_conted_6"
  eltwise_param {
    operation: SUM
    coeff_blob: true
  }
}
layer {
  name: "lstm1_transform_7"
  type: "InnerProduct"
  bottom: "h_conted_6"
  top: "W_hc_h_6"
  param {
    name: "W_hc"
  }
  inner_product_param {
    num_output: 512
    bias_term: false
    weight_filler {
      type: "uniform"
      min: -0.01
      max: 0.01
    }
    axis: 2
  }
}
layer {
  name: "lstm1_gate_input_7"
  type: "Eltwise"
  bottom: "W_hc_h_6"
  bottom: "W_xc_x_7"
  top: "gate_input_7"
  eltwise_param {
    operation: SUM
  }
}
layer {
  name: "lstm1_unit_7"
  type: "LSTMUnit"
  bottom: "c_6"
  bottom: "gate_input_7"
  bottom: "cont_7"
  top: "c_7"
  top: "h_7"
}
layer {
  name: "lstm1_h_conted_7"
  type: "Eltwise"
  bottom: "h_7"
  bottom: "cont_8"
  top: "h_conted_7"
  eltwise_param {
    operation: SUM
    coeff_blob: true
  }
}
layer {
  name: "lstm1_transform_8"
  type: "InnerProduct"
  bottom: "h_conted_7"
  top: "W_hc_h_7"
  param {
    name: "W_hc"
  }
  inner_product_param {
    num_output: 512
    bias_term: false
    weight_filler {
      type: "uniform"
      min: -0.01
      max: 0.01
    }
    axis: 2
  }
}
layer {
  name: "lstm1_gate_input_8"
  type: "Eltwise"
  bottom: "W_hc_h_7"
  bottom: "W_xc_x_8"
  top: "gate_input_8"
  eltwise_param {
    operation: SUM
  }
}
layer {
  name: "lstm1_unit_8"
  type: "LSTMUnit"
  bottom: "c_7"
  bottom: "gate_input_8"
  bottom: "cont_8"
  top: "c_8"
  top: "h_8"
}
layer {
  name: "lstm1_"
  type: "Split"
  bottom: "c_8"
  top: "c_T"
}
layer {
  name: "lstm1_h_concat"
  type: "Concat"
  bottom: "h_1"
  bottom: "h_2"
  bottom: "h_3"
  bottom: "h_4"
  bottom: "h_5"
  bottom: "h_6"
  bottom: "h_7"
  bottom: "h_8"
  top: "h"
  concat_param {
    axis: 0
  }
}
I0219 00:18:36.401841 21566 net.cpp:351] Input 0 -> x
I0219 00:18:36.401854 21566 net.cpp:351] Input 1 -> cont
I0219 00:18:36.401860 21566 net.cpp:351] Input 2 -> c_0
I0219 00:18:36.401867 21566 net.cpp:351] Input 3 -> h_0
I0219 00:18:36.401882 21566 layer_factory.hpp:74] Creating layer lstm1_cont_slice
I0219 00:18:36.401893 21566 net.cpp:94] Creating Layer lstm1_cont_slice
I0219 00:18:36.401900 21566 net.cpp:391] lstm1_cont_slice <- cont
I0219 00:18:36.401906 21566 net.cpp:349] lstm1_cont_slice -> cont_1
I0219 00:18:36.401916 21566 net.cpp:349] lstm1_cont_slice -> cont_2
I0219 00:18:36.401924 21566 net.cpp:349] lstm1_cont_slice -> cont_3
I0219 00:18:36.401932 21566 net.cpp:349] lstm1_cont_slice -> cont_4
I0219 00:18:36.401939 21566 net.cpp:349] lstm1_cont_slice -> cont_5
I0219 00:18:36.401947 21566 net.cpp:349] lstm1_cont_slice -> cont_6
I0219 00:18:36.401955 21566 net.cpp:349] lstm1_cont_slice -> cont_7
I0219 00:18:36.401962 21566 net.cpp:349] lstm1_cont_slice -> cont_8
I0219 00:18:36.401970 21566 net.cpp:123] Setting up lstm1_cont_slice
I0219 00:18:36.401983 21566 net.cpp:130] Top shape: 1 1 16 (16)
I0219 00:18:36.402003 21566 net.cpp:130] Top shape: 1 1 16 (16)
I0219 00:18:36.402009 21566 net.cpp:130] Top shape: 1 1 16 (16)
I0219 00:18:36.402014 21566 net.cpp:130] Top shape: 1 1 16 (16)
I0219 00:18:36.402019 21566 net.cpp:130] Top shape: 1 1 16 (16)
I0219 00:18:36.402026 21566 net.cpp:130] Top shape: 1 1 16 (16)
I0219 00:18:36.402032 21566 net.cpp:130] Top shape: 1 1 16 (16)
I0219 00:18:36.402037 21566 net.cpp:130] Top shape: 1 1 16 (16)
I0219 00:18:36.402042 21566 layer_factory.hpp:74] Creating layer cont_1_lstm1_cont_slice_0_split
I0219 00:18:36.402048 21566 net.cpp:94] Creating Layer cont_1_lstm1_cont_slice_0_split
I0219 00:18:36.402065 21566 net.cpp:391] cont_1_lstm1_cont_slice_0_split <- cont_1
I0219 00:18:36.402072 21566 net.cpp:349] cont_1_lstm1_cont_slice_0_split -> cont_1_lstm1_cont_slice_0_split_0
I0219 00:18:36.402079 21566 net.cpp:349] cont_1_lstm1_cont_slice_0_split -> cont_1_lstm1_cont_slice_0_split_1
I0219 00:18:36.402086 21566 net.cpp:123] Setting up cont_1_lstm1_cont_slice_0_split
I0219 00:18:36.402091 21566 net.cpp:130] Top shape: 1 1 16 (16)
I0219 00:18:36.402097 21566 net.cpp:130] Top shape: 1 1 16 (16)
I0219 00:18:36.402101 21566 layer_factory.hpp:74] Creating layer cont_2_lstm1_cont_slice_1_split
I0219 00:18:36.402109 21566 net.cpp:94] Creating Layer cont_2_lstm1_cont_slice_1_split
I0219 00:18:36.402113 21566 net.cpp:391] cont_2_lstm1_cont_slice_1_split <- cont_2
I0219 00:18:36.402120 21566 net.cpp:349] cont_2_lstm1_cont_slice_1_split -> cont_2_lstm1_cont_slice_1_split_0
I0219 00:18:36.402128 21566 net.cpp:349] cont_2_lstm1_cont_slice_1_split -> cont_2_lstm1_cont_slice_1_split_1
I0219 00:18:36.402135 21566 net.cpp:123] Setting up cont_2_lstm1_cont_slice_1_split
I0219 00:18:36.402154 21566 net.cpp:130] Top shape: 1 1 16 (16)
I0219 00:18:36.402161 21566 net.cpp:130] Top shape: 1 1 16 (16)
I0219 00:18:36.402168 21566 layer_factory.hpp:74] Creating layer cont_3_lstm1_cont_slice_2_split
I0219 00:18:36.402173 21566 net.cpp:94] Creating Layer cont_3_lstm1_cont_slice_2_split
I0219 00:18:36.402184 21566 net.cpp:391] cont_3_lstm1_cont_slice_2_split <- cont_3
I0219 00:18:36.402191 21566 net.cpp:349] cont_3_lstm1_cont_slice_2_split -> cont_3_lstm1_cont_slice_2_split_0
I0219 00:18:36.402201 21566 net.cpp:349] cont_3_lstm1_cont_slice_2_split -> cont_3_lstm1_cont_slice_2_split_1
I0219 00:18:36.402209 21566 net.cpp:123] Setting up cont_3_lstm1_cont_slice_2_split
I0219 00:18:36.402215 21566 net.cpp:130] Top shape: 1 1 16 (16)
I0219 00:18:36.402222 21566 net.cpp:130] Top shape: 1 1 16 (16)
I0219 00:18:36.402227 21566 layer_factory.hpp:74] Creating layer cont_4_lstm1_cont_slice_3_split
I0219 00:18:36.402233 21566 net.cpp:94] Creating Layer cont_4_lstm1_cont_slice_3_split
I0219 00:18:36.402240 21566 net.cpp:391] cont_4_lstm1_cont_slice_3_split <- cont_4
I0219 00:18:36.402245 21566 net.cpp:349] cont_4_lstm1_cont_slice_3_split -> cont_4_lstm1_cont_slice_3_split_0
I0219 00:18:36.402252 21566 net.cpp:349] cont_4_lstm1_cont_slice_3_split -> cont_4_lstm1_cont_slice_3_split_1
I0219 00:18:36.402271 21566 net.cpp:123] Setting up cont_4_lstm1_cont_slice_3_split
I0219 00:18:36.402279 21566 net.cpp:130] Top shape: 1 1 16 (16)
I0219 00:18:36.402284 21566 net.cpp:130] Top shape: 1 1 16 (16)
I0219 00:18:36.402288 21566 layer_factory.hpp:74] Creating layer cont_5_lstm1_cont_slice_4_split
I0219 00:18:36.402298 21566 net.cpp:94] Creating Layer cont_5_lstm1_cont_slice_4_split
I0219 00:18:36.402303 21566 net.cpp:391] cont_5_lstm1_cont_slice_4_split <- cont_5
I0219 00:18:36.402309 21566 net.cpp:349] cont_5_lstm1_cont_slice_4_split -> cont_5_lstm1_cont_slice_4_split_0
I0219 00:18:36.402318 21566 net.cpp:349] cont_5_lstm1_cont_slice_4_split -> cont_5_lstm1_cont_slice_4_split_1
I0219 00:18:36.402324 21566 net.cpp:123] Setting up cont_5_lstm1_cont_slice_4_split
I0219 00:18:36.402335 21566 net.cpp:130] Top shape: 1 1 16 (16)
I0219 00:18:36.402341 21566 net.cpp:130] Top shape: 1 1 16 (16)
I0219 00:18:36.402346 21566 layer_factory.hpp:74] Creating layer cont_6_lstm1_cont_slice_5_split
I0219 00:18:36.402353 21566 net.cpp:94] Creating Layer cont_6_lstm1_cont_slice_5_split
I0219 00:18:36.402356 21566 net.cpp:391] cont_6_lstm1_cont_slice_5_split <- cont_6
I0219 00:18:36.402362 21566 net.cpp:349] cont_6_lstm1_cont_slice_5_split -> cont_6_lstm1_cont_slice_5_split_0
I0219 00:18:36.402370 21566 net.cpp:349] cont_6_lstm1_cont_slice_5_split -> cont_6_lstm1_cont_slice_5_split_1
I0219 00:18:36.402375 21566 net.cpp:123] Setting up cont_6_lstm1_cont_slice_5_split
I0219 00:18:36.402384 21566 net.cpp:130] Top shape: 1 1 16 (16)
I0219 00:18:36.402389 21566 net.cpp:130] Top shape: 1 1 16 (16)
I0219 00:18:36.402393 21566 layer_factory.hpp:74] Creating layer cont_7_lstm1_cont_slice_6_split
I0219 00:18:36.402400 21566 net.cpp:94] Creating Layer cont_7_lstm1_cont_slice_6_split
I0219 00:18:36.402405 21566 net.cpp:391] cont_7_lstm1_cont_slice_6_split <- cont_7
I0219 00:18:36.402412 21566 net.cpp:349] cont_7_lstm1_cont_slice_6_split -> cont_7_lstm1_cont_slice_6_split_0
I0219 00:18:36.402421 21566 net.cpp:349] cont_7_lstm1_cont_slice_6_split -> cont_7_lstm1_cont_slice_6_split_1
I0219 00:18:36.402427 21566 net.cpp:123] Setting up cont_7_lstm1_cont_slice_6_split
I0219 00:18:36.402433 21566 net.cpp:130] Top shape: 1 1 16 (16)
I0219 00:18:36.402439 21566 net.cpp:130] Top shape: 1 1 16 (16)
I0219 00:18:36.402443 21566 layer_factory.hpp:74] Creating layer cont_8_lstm1_cont_slice_7_split
I0219 00:18:36.402451 21566 net.cpp:94] Creating Layer cont_8_lstm1_cont_slice_7_split
I0219 00:18:36.402456 21566 net.cpp:391] cont_8_lstm1_cont_slice_7_split <- cont_8
I0219 00:18:36.402462 21566 net.cpp:349] cont_8_lstm1_cont_slice_7_split -> cont_8_lstm1_cont_slice_7_split_0
I0219 00:18:36.402469 21566 net.cpp:349] cont_8_lstm1_cont_slice_7_split -> cont_8_lstm1_cont_slice_7_split_1
I0219 00:18:36.402475 21566 net.cpp:123] Setting up cont_8_lstm1_cont_slice_7_split
I0219 00:18:36.402482 21566 net.cpp:130] Top shape: 1 1 16 (16)
I0219 00:18:36.402487 21566 net.cpp:130] Top shape: 1 1 16 (16)
I0219 00:18:36.402492 21566 layer_factory.hpp:74] Creating layer lstm1_x_transform
I0219 00:18:36.402508 21566 net.cpp:94] Creating Layer lstm1_x_transform
I0219 00:18:36.402514 21566 net.cpp:391] lstm1_x_transform <- x
I0219 00:18:36.402521 21566 net.cpp:349] lstm1_x_transform -> W_xc_x
I0219 00:18:36.402529 21566 net.cpp:123] Setting up lstm1_x_transform
I0219 00:18:36.402598 21566 net.cpp:130] Top shape: 8 16 512 (65536)
I0219 00:18:36.402607 21566 layer_factory.hpp:74] Creating layer lstm1_W_xc_x_slice
I0219 00:18:36.402616 21566 net.cpp:94] Creating Layer lstm1_W_xc_x_slice
I0219 00:18:36.402621 21566 net.cpp:391] lstm1_W_xc_x_slice <- W_xc_x
I0219 00:18:36.402626 21566 net.cpp:349] lstm1_W_xc_x_slice -> W_xc_x_1
I0219 00:18:36.402633 21566 net.cpp:349] lstm1_W_xc_x_slice -> W_xc_x_2
I0219 00:18:36.402642 21566 net.cpp:349] lstm1_W_xc_x_slice -> W_xc_x_3
I0219 00:18:36.402648 21566 net.cpp:349] lstm1_W_xc_x_slice -> W_xc_x_4
I0219 00:18:36.402658 21566 net.cpp:349] lstm1_W_xc_x_slice -> W_xc_x_5
I0219 00:18:36.402665 21566 net.cpp:349] lstm1_W_xc_x_slice -> W_xc_x_6
I0219 00:18:36.402673 21566 net.cpp:349] lstm1_W_xc_x_slice -> W_xc_x_7
I0219 00:18:36.402679 21566 net.cpp:349] lstm1_W_xc_x_slice -> W_xc_x_8
I0219 00:18:36.402685 21566 net.cpp:123] Setting up lstm1_W_xc_x_slice
I0219 00:18:36.402695 21566 net.cpp:130] Top shape: 1 16 512 (8192)
I0219 00:18:36.402700 21566 net.cpp:130] Top shape: 1 16 512 (8192)
I0219 00:18:36.402705 21566 net.cpp:130] Top shape: 1 16 512 (8192)
I0219 00:18:36.402710 21566 net.cpp:130] Top shape: 1 16 512 (8192)
I0219 00:18:36.402715 21566 net.cpp:130] Top shape: 1 16 512 (8192)
I0219 00:18:36.402720 21566 net.cpp:130] Top shape: 1 16 512 (8192)
I0219 00:18:36.402724 21566 net.cpp:130] Top shape: 1 16 512 (8192)
I0219 00:18:36.402729 21566 net.cpp:130] Top shape: 1 16 512 (8192)
I0219 00:18:36.402734 21566 layer_factory.hpp:74] Creating layer lstm1_h_conted_0
I0219 00:18:36.402742 21566 net.cpp:94] Creating Layer lstm1_h_conted_0
I0219 00:18:36.402746 21566 net.cpp:391] lstm1_h_conted_0 <- h_0
I0219 00:18:36.402752 21566 net.cpp:391] lstm1_h_conted_0 <- cont_1_lstm1_cont_slice_0_split_0
I0219 00:18:36.402758 21566 net.cpp:349] lstm1_h_conted_0 -> h_conted_0
I0219 00:18:36.402765 21566 net.cpp:123] Setting up lstm1_h_conted_0
I0219 00:18:36.402775 21566 net.cpp:130] Top shape: 1 16 128 (2048)
I0219 00:18:36.402779 21566 layer_factory.hpp:74] Creating layer lstm1_transform_1
I0219 00:18:36.402786 21566 net.cpp:94] Creating Layer lstm1_transform_1
I0219 00:18:36.402791 21566 net.cpp:391] lstm1_transform_1 <- h_conted_0
I0219 00:18:36.402798 21566 net.cpp:349] lstm1_transform_1 -> W_hc_h_0
I0219 00:18:36.402806 21566 net.cpp:123] Setting up lstm1_transform_1
I0219 00:18:36.403273 21566 net.cpp:130] Top shape: 1 16 512 (8192)
I0219 00:18:36.403283 21566 layer_factory.hpp:74] Creating layer lstm1_gate_input_1
I0219 00:18:36.403290 21566 net.cpp:94] Creating Layer lstm1_gate_input_1
I0219 00:18:36.403295 21566 net.cpp:391] lstm1_gate_input_1 <- W_hc_h_0
I0219 00:18:36.403301 21566 net.cpp:391] lstm1_gate_input_1 <- W_xc_x_1
I0219 00:18:36.403306 21566 net.cpp:349] lstm1_gate_input_1 -> gate_input_1
I0219 00:18:36.403313 21566 net.cpp:123] Setting up lstm1_gate_input_1
I0219 00:18:36.403321 21566 net.cpp:130] Top shape: 1 16 512 (8192)
I0219 00:18:36.403326 21566 layer_factory.hpp:74] Creating layer lstm1_unit_1
I0219 00:18:36.403334 21566 net.cpp:94] Creating Layer lstm1_unit_1
I0219 00:18:36.403340 21566 net.cpp:391] lstm1_unit_1 <- c_0
I0219 00:18:36.403345 21566 net.cpp:391] lstm1_unit_1 <- gate_input_1
I0219 00:18:36.403350 21566 net.cpp:391] lstm1_unit_1 <- cont_1_lstm1_cont_slice_0_split_1
I0219 00:18:36.403357 21566 net.cpp:349] lstm1_unit_1 -> c_1
I0219 00:18:36.403364 21566 net.cpp:349] lstm1_unit_1 -> h_1
I0219 00:18:36.403372 21566 net.cpp:123] Setting up lstm1_unit_1
I0219 00:18:36.403383 21566 net.cpp:130] Top shape: 1 16 128 (2048)
I0219 00:18:36.403388 21566 net.cpp:130] Top shape: 1 16 128 (2048)
I0219 00:18:36.403393 21566 layer_factory.hpp:74] Creating layer h_1_lstm1_unit_1_1_split
I0219 00:18:36.403398 21566 net.cpp:94] Creating Layer h_1_lstm1_unit_1_1_split
I0219 00:18:36.403412 21566 net.cpp:391] h_1_lstm1_unit_1_1_split <- h_1
I0219 00:18:36.403420 21566 net.cpp:349] h_1_lstm1_unit_1_1_split -> h_1_lstm1_unit_1_1_split_0
I0219 00:18:36.403429 21566 net.cpp:349] h_1_lstm1_unit_1_1_split -> h_1_lstm1_unit_1_1_split_1
I0219 00:18:36.403434 21566 net.cpp:123] Setting up h_1_lstm1_unit_1_1_split
I0219 00:18:36.403442 21566 net.cpp:130] Top shape: 1 16 128 (2048)
I0219 00:18:36.403447 21566 net.cpp:130] Top shape: 1 16 128 (2048)
I0219 00:18:36.403451 21566 layer_factory.hpp:74] Creating layer lstm1_h_conted_1
I0219 00:18:36.403460 21566 net.cpp:94] Creating Layer lstm1_h_conted_1
I0219 00:18:36.403465 21566 net.cpp:391] lstm1_h_conted_1 <- h_1_lstm1_unit_1_1_split_0
I0219 00:18:36.403470 21566 net.cpp:391] lstm1_h_conted_1 <- cont_2_lstm1_cont_slice_1_split_0
I0219 00:18:36.403477 21566 net.cpp:349] lstm1_h_conted_1 -> h_conted_1
I0219 00:18:36.403484 21566 net.cpp:123] Setting up lstm1_h_conted_1
I0219 00:18:36.403491 21566 net.cpp:130] Top shape: 1 16 128 (2048)
I0219 00:18:36.403496 21566 layer_factory.hpp:74] Creating layer lstm1_transform_2
I0219 00:18:36.403503 21566 net.cpp:94] Creating Layer lstm1_transform_2
I0219 00:18:36.403508 21566 net.cpp:391] lstm1_transform_2 <- h_conted_1
I0219 00:18:36.403514 21566 net.cpp:349] lstm1_transform_2 -> W_hc_h_1
I0219 00:18:36.403522 21566 net.cpp:123] Setting up lstm1_transform_2
I0219 00:18:36.403949 21566 net.cpp:130] Top shape: 1 16 512 (8192)
I0219 00:18:36.403959 21566 net.cpp:435] Sharing parameters 'W_hc' owned by layer 'lstm1_transform_1', param index 0
I0219 00:18:36.403977 21566 layer_factory.hpp:74] Creating layer lstm1_gate_input_2
I0219 00:18:36.403985 21566 net.cpp:94] Creating Layer lstm1_gate_input_2
I0219 00:18:36.403991 21566 net.cpp:391] lstm1_gate_input_2 <- W_hc_h_1
I0219 00:18:36.403996 21566 net.cpp:391] lstm1_gate_input_2 <- W_xc_x_2
I0219 00:18:36.404002 21566 net.cpp:349] lstm1_gate_input_2 -> gate_input_2
I0219 00:18:36.404009 21566 net.cpp:123] Setting up lstm1_gate_input_2
I0219 00:18:36.404017 21566 net.cpp:130] Top shape: 1 16 512 (8192)
I0219 00:18:36.404022 21566 layer_factory.hpp:74] Creating layer lstm1_unit_2
I0219 00:18:36.404044 21566 net.cpp:94] Creating Layer lstm1_unit_2
I0219 00:18:36.404049 21566 net.cpp:391] lstm1_unit_2 <- c_1
I0219 00:18:36.404054 21566 net.cpp:391] lstm1_unit_2 <- gate_input_2
I0219 00:18:36.404062 21566 net.cpp:391] lstm1_unit_2 <- cont_2_lstm1_cont_slice_1_split_1
I0219 00:18:36.404067 21566 net.cpp:349] lstm1_unit_2 -> c_2
I0219 00:18:36.404077 21566 net.cpp:349] lstm1_unit_2 -> h_2
I0219 00:18:36.404083 21566 net.cpp:123] Setting up lstm1_unit_2
I0219 00:18:36.404105 21566 net.cpp:130] Top shape: 1 16 128 (2048)
I0219 00:18:36.404111 21566 net.cpp:130] Top shape: 1 16 128 (2048)
I0219 00:18:36.404119 21566 layer_factory.hpp:74] Creating layer h_2_lstm1_unit_2_1_split
I0219 00:18:36.404126 21566 net.cpp:94] Creating Layer h_2_lstm1_unit_2_1_split
I0219 00:18:36.404132 21566 net.cpp:391] h_2_lstm1_unit_2_1_split <- h_2
I0219 00:18:36.404139 21566 net.cpp:349] h_2_lstm1_unit_2_1_split -> h_2_lstm1_unit_2_1_split_0
I0219 00:18:36.404146 21566 net.cpp:349] h_2_lstm1_unit_2_1_split -> h_2_lstm1_unit_2_1_split_1
I0219 00:18:36.404153 21566 net.cpp:123] Setting up h_2_lstm1_unit_2_1_split
I0219 00:18:36.404162 21566 net.cpp:130] Top shape: 1 16 128 (2048)
I0219 00:18:36.404168 21566 net.cpp:130] Top shape: 1 16 128 (2048)
I0219 00:18:36.404173 21566 layer_factory.hpp:74] Creating layer lstm1_h_conted_2
I0219 00:18:36.404182 21566 net.cpp:94] Creating Layer lstm1_h_conted_2
I0219 00:18:36.404187 21566 net.cpp:391] lstm1_h_conted_2 <- h_2_lstm1_unit_2_1_split_0
I0219 00:18:36.404192 21566 net.cpp:391] lstm1_h_conted_2 <- cont_3_lstm1_cont_slice_2_split_0
I0219 00:18:36.404199 21566 net.cpp:349] lstm1_h_conted_2 -> h_conted_2
I0219 00:18:36.404206 21566 net.cpp:123] Setting up lstm1_h_conted_2
I0219 00:18:36.404214 21566 net.cpp:130] Top shape: 1 16 128 (2048)
I0219 00:18:36.404218 21566 layer_factory.hpp:74] Creating layer lstm1_transform_3
I0219 00:18:36.404232 21566 net.cpp:94] Creating Layer lstm1_transform_3
I0219 00:18:36.404237 21566 net.cpp:391] lstm1_transform_3 <- h_conted_2
I0219 00:18:36.404248 21566 net.cpp:349] lstm1_transform_3 -> W_hc_h_2
I0219 00:18:36.404256 21566 net.cpp:123] Setting up lstm1_transform_3
I0219 00:18:36.404778 21566 net.cpp:130] Top shape: 1 16 512 (8192)
I0219 00:18:36.404791 21566 net.cpp:435] Sharing parameters 'W_hc' owned by layer 'lstm1_transform_1', param index 0
I0219 00:18:36.404798 21566 layer_factory.hpp:74] Creating layer lstm1_gate_input_3
I0219 00:18:36.404808 21566 net.cpp:94] Creating Layer lstm1_gate_input_3
I0219 00:18:36.404816 21566 net.cpp:391] lstm1_gate_input_3 <- W_hc_h_2
I0219 00:18:36.404824 21566 net.cpp:391] lstm1_gate_input_3 <- W_xc_x_3
I0219 00:18:36.404862 21566 net.cpp:349] lstm1_gate_input_3 -> gate_input_3
I0219 00:18:36.404901 21566 net.cpp:123] Setting up lstm1_gate_input_3
I0219 00:18:36.404929 21566 net.cpp:130] Top shape: 1 16 512 (8192)
I0219 00:18:36.404954 21566 layer_factory.hpp:74] Creating layer lstm1_unit_3
I0219 00:18:36.404983 21566 net.cpp:94] Creating Layer lstm1_unit_3
I0219 00:18:36.405011 21566 net.cpp:391] lstm1_unit_3 <- c_2
I0219 00:18:36.405038 21566 net.cpp:391] lstm1_unit_3 <- gate_input_3
I0219 00:18:36.405064 21566 net.cpp:391] lstm1_unit_3 <- cont_3_lstm1_cont_slice_2_split_1
I0219 00:18:36.405092 21566 net.cpp:349] lstm1_unit_3 -> c_3
I0219 00:18:36.405125 21566 net.cpp:349] lstm1_unit_3 -> h_3
I0219 00:18:36.405139 21566 net.cpp:123] Setting up lstm1_unit_3
I0219 00:18:36.405151 21566 net.cpp:130] Top shape: 1 16 128 (2048)
I0219 00:18:36.405160 21566 net.cpp:130] Top shape: 1 16 128 (2048)
I0219 00:18:36.405167 21566 layer_factory.hpp:74] Creating layer h_3_lstm1_unit_3_1_split
I0219 00:18:36.405174 21566 net.cpp:94] Creating Layer h_3_lstm1_unit_3_1_split
I0219 00:18:36.405182 21566 net.cpp:391] h_3_lstm1_unit_3_1_split <- h_3
I0219 00:18:36.405191 21566 net.cpp:349] h_3_lstm1_unit_3_1_split -> h_3_lstm1_unit_3_1_split_0
I0219 00:18:36.405217 21566 net.cpp:349] h_3_lstm1_unit_3_1_split -> h_3_lstm1_unit_3_1_split_1
I0219 00:18:36.405241 21566 net.cpp:123] Setting up h_3_lstm1_unit_3_1_split
I0219 00:18:36.405315 21566 net.cpp:130] Top shape: 1 16 128 (2048)
I0219 00:18:36.405328 21566 net.cpp:130] Top shape: 1 16 128 (2048)
I0219 00:18:36.405334 21566 layer_factory.hpp:74] Creating layer lstm1_h_conted_3
I0219 00:18:36.405359 21566 net.cpp:94] Creating Layer lstm1_h_conted_3
I0219 00:18:36.405377 21566 net.cpp:391] lstm1_h_conted_3 <- h_3_lstm1_unit_3_1_split_0
I0219 00:18:36.405398 21566 net.cpp:391] lstm1_h_conted_3 <- cont_4_lstm1_cont_slice_3_split_0
I0219 00:18:36.405421 21566 net.cpp:349] lstm1_h_conted_3 -> h_conted_3
I0219 00:18:36.405446 21566 net.cpp:123] Setting up lstm1_h_conted_3
I0219 00:18:36.405470 21566 net.cpp:130] Top shape: 1 16 128 (2048)
I0219 00:18:36.405496 21566 layer_factory.hpp:74] Creating layer lstm1_transform_4
I0219 00:18:36.405527 21566 net.cpp:94] Creating Layer lstm1_transform_4
I0219 00:18:36.405539 21566 net.cpp:391] lstm1_transform_4 <- h_conted_3
I0219 00:18:36.405552 21566 net.cpp:349] lstm1_transform_4 -> W_hc_h_3
I0219 00:18:36.405567 21566 net.cpp:123] Setting up lstm1_transform_4
I0219 00:18:36.406147 21566 net.cpp:130] Top shape: 1 16 512 (8192)
I0219 00:18:36.406158 21566 net.cpp:435] Sharing parameters 'W_hc' owned by layer 'lstm1_transform_1', param index 0
I0219 00:18:36.406165 21566 layer_factory.hpp:74] Creating layer lstm1_gate_input_4
I0219 00:18:36.406174 21566 net.cpp:94] Creating Layer lstm1_gate_input_4
I0219 00:18:36.406198 21566 net.cpp:391] lstm1_gate_input_4 <- W_hc_h_3
I0219 00:18:36.406220 21566 net.cpp:391] lstm1_gate_input_4 <- W_xc_x_4
I0219 00:18:36.406242 21566 net.cpp:349] lstm1_gate_input_4 -> gate_input_4
I0219 00:18:36.406311 21566 net.cpp:123] Setting up lstm1_gate_input_4
I0219 00:18:36.406323 21566 net.cpp:130] Top shape: 1 16 512 (8192)
I0219 00:18:36.406330 21566 layer_factory.hpp:74] Creating layer lstm1_unit_4
I0219 00:18:36.406342 21566 net.cpp:94] Creating Layer lstm1_unit_4
I0219 00:18:36.406363 21566 net.cpp:391] lstm1_unit_4 <- c_3
I0219 00:18:36.406370 21566 net.cpp:391] lstm1_unit_4 <- gate_input_4
I0219 00:18:36.406381 21566 net.cpp:391] lstm1_unit_4 <- cont_4_lstm1_cont_slice_3_split_1
I0219 00:18:36.406390 21566 net.cpp:349] lstm1_unit_4 -> c_4
I0219 00:18:36.406402 21566 net.cpp:349] lstm1_unit_4 -> h_4
I0219 00:18:36.406414 21566 net.cpp:123] Setting up lstm1_unit_4
I0219 00:18:36.406426 21566 net.cpp:130] Top shape: 1 16 128 (2048)
I0219 00:18:36.406435 21566 net.cpp:130] Top shape: 1 16 128 (2048)
I0219 00:18:36.406441 21566 layer_factory.hpp:74] Creating layer h_4_lstm1_unit_4_1_split
I0219 00:18:36.406450 21566 net.cpp:94] Creating Layer h_4_lstm1_unit_4_1_split
I0219 00:18:36.406457 21566 net.cpp:391] h_4_lstm1_unit_4_1_split <- h_4
I0219 00:18:36.406466 21566 net.cpp:349] h_4_lstm1_unit_4_1_split -> h_4_lstm1_unit_4_1_split_0
I0219 00:18:36.406496 21566 net.cpp:349] h_4_lstm1_unit_4_1_split -> h_4_lstm1_unit_4_1_split_1
I0219 00:18:36.406523 21566 net.cpp:123] Setting up h_4_lstm1_unit_4_1_split
I0219 00:18:36.406546 21566 net.cpp:130] Top shape: 1 16 128 (2048)
I0219 00:18:36.406568 21566 net.cpp:130] Top shape: 1 16 128 (2048)
I0219 00:18:36.406585 21566 layer_factory.hpp:74] Creating layer lstm1_h_conted_4
I0219 00:18:36.406606 21566 net.cpp:94] Creating Layer lstm1_h_conted_4
I0219 00:18:36.406625 21566 net.cpp:391] lstm1_h_conted_4 <- h_4_lstm1_unit_4_1_split_0
I0219 00:18:36.406646 21566 net.cpp:391] lstm1_h_conted_4 <- cont_5_lstm1_cont_slice_4_split_0
I0219 00:18:36.406669 21566 net.cpp:349] lstm1_h_conted_4 -> h_conted_4
I0219 00:18:36.406693 21566 net.cpp:123] Setting up lstm1_h_conted_4
I0219 00:18:36.406716 21566 net.cpp:130] Top shape: 1 16 128 (2048)
I0219 00:18:36.406735 21566 layer_factory.hpp:74] Creating layer lstm1_transform_5
I0219 00:18:36.406761 21566 net.cpp:94] Creating Layer lstm1_transform_5
I0219 00:18:36.406781 21566 net.cpp:391] lstm1_transform_5 <- h_conted_4
I0219 00:18:36.406805 21566 net.cpp:349] lstm1_transform_5 -> W_hc_h_4
I0219 00:18:36.406834 21566 net.cpp:123] Setting up lstm1_transform_5
I0219 00:18:36.407425 21566 net.cpp:130] Top shape: 1 16 512 (8192)
I0219 00:18:36.407436 21566 net.cpp:435] Sharing parameters 'W_hc' owned by layer 'lstm1_transform_1', param index 0
I0219 00:18:36.407444 21566 layer_factory.hpp:74] Creating layer lstm1_gate_input_5
I0219 00:18:36.407454 21566 net.cpp:94] Creating Layer lstm1_gate_input_5
I0219 00:18:36.407462 21566 net.cpp:391] lstm1_gate_input_5 <- W_hc_h_4
I0219 00:18:36.407469 21566 net.cpp:391] lstm1_gate_input_5 <- W_xc_x_5
I0219 00:18:36.407481 21566 net.cpp:349] lstm1_gate_input_5 -> gate_input_5
I0219 00:18:36.407491 21566 net.cpp:123] Setting up lstm1_gate_input_5
I0219 00:18:36.407502 21566 net.cpp:130] Top shape: 1 16 512 (8192)
I0219 00:18:36.407511 21566 layer_factory.hpp:74] Creating layer lstm1_unit_5
I0219 00:18:36.407519 21566 net.cpp:94] Creating Layer lstm1_unit_5
I0219 00:18:36.407528 21566 net.cpp:391] lstm1_unit_5 <- c_4
I0219 00:18:36.407536 21566 net.cpp:391] lstm1_unit_5 <- gate_input_5
I0219 00:18:36.407546 21566 net.cpp:391] lstm1_unit_5 <- cont_5_lstm1_cont_slice_4_split_1
I0219 00:18:36.407557 21566 net.cpp:349] lstm1_unit_5 -> c_5
I0219 00:18:36.407569 21566 net.cpp:349] lstm1_unit_5 -> h_5
I0219 00:18:36.407580 21566 net.cpp:123] Setting up lstm1_unit_5
I0219 00:18:36.407593 21566 net.cpp:130] Top shape: 1 16 128 (2048)
I0219 00:18:36.407603 21566 net.cpp:130] Top shape: 1 16 128 (2048)
I0219 00:18:36.407609 21566 layer_factory.hpp:74] Creating layer h_5_lstm1_unit_5_1_split
I0219 00:18:36.407618 21566 net.cpp:94] Creating Layer h_5_lstm1_unit_5_1_split
I0219 00:18:36.407627 21566 net.cpp:391] h_5_lstm1_unit_5_1_split <- h_5
I0219 00:18:36.407636 21566 net.cpp:349] h_5_lstm1_unit_5_1_split -> h_5_lstm1_unit_5_1_split_0
I0219 00:18:36.407647 21566 net.cpp:349] h_5_lstm1_unit_5_1_split -> h_5_lstm1_unit_5_1_split_1
I0219 00:18:36.407658 21566 net.cpp:123] Setting up h_5_lstm1_unit_5_1_split
I0219 00:18:36.407668 21566 net.cpp:130] Top shape: 1 16 128 (2048)
I0219 00:18:36.407691 21566 net.cpp:130] Top shape: 1 16 128 (2048)
I0219 00:18:36.407697 21566 layer_factory.hpp:74] Creating layer lstm1_h_conted_5
I0219 00:18:36.407707 21566 net.cpp:94] Creating Layer lstm1_h_conted_5
I0219 00:18:36.407716 21566 net.cpp:391] lstm1_h_conted_5 <- h_5_lstm1_unit_5_1_split_0
I0219 00:18:36.407723 21566 net.cpp:391] lstm1_h_conted_5 <- cont_6_lstm1_cont_slice_5_split_0
I0219 00:18:36.407735 21566 net.cpp:349] lstm1_h_conted_5 -> h_conted_5
I0219 00:18:36.407745 21566 net.cpp:123] Setting up lstm1_h_conted_5
I0219 00:18:36.407755 21566 net.cpp:130] Top shape: 1 16 128 (2048)
I0219 00:18:36.407763 21566 layer_factory.hpp:74] Creating layer lstm1_transform_6
I0219 00:18:36.407773 21566 net.cpp:94] Creating Layer lstm1_transform_6
I0219 00:18:36.407783 21566 net.cpp:391] lstm1_transform_6 <- h_conted_5
I0219 00:18:36.407794 21566 net.cpp:349] lstm1_transform_6 -> W_hc_h_5
I0219 00:18:36.407806 21566 net.cpp:123] Setting up lstm1_transform_6
I0219 00:18:36.408241 21566 net.cpp:130] Top shape: 1 16 512 (8192)
I0219 00:18:36.408249 21566 net.cpp:435] Sharing parameters 'W_hc' owned by layer 'lstm1_transform_1', param index 0
I0219 00:18:36.408254 21566 layer_factory.hpp:74] Creating layer lstm1_gate_input_6
I0219 00:18:36.408270 21566 net.cpp:94] Creating Layer lstm1_gate_input_6
I0219 00:18:36.408278 21566 net.cpp:391] lstm1_gate_input_6 <- W_hc_h_5
I0219 00:18:36.408283 21566 net.cpp:391] lstm1_gate_input_6 <- W_xc_x_6
I0219 00:18:36.408291 21566 net.cpp:349] lstm1_gate_input_6 -> gate_input_6
I0219 00:18:36.408299 21566 net.cpp:123] Setting up lstm1_gate_input_6
I0219 00:18:36.408309 21566 net.cpp:130] Top shape: 1 16 512 (8192)
I0219 00:18:36.408314 21566 layer_factory.hpp:74] Creating layer lstm1_unit_6
I0219 00:18:36.408321 21566 net.cpp:94] Creating Layer lstm1_unit_6
I0219 00:18:36.408329 21566 net.cpp:391] lstm1_unit_6 <- c_5
I0219 00:18:36.408337 21566 net.cpp:391] lstm1_unit_6 <- gate_input_6
I0219 00:18:36.408342 21566 net.cpp:391] lstm1_unit_6 <- cont_6_lstm1_cont_slice_5_split_1
I0219 00:18:36.408350 21566 net.cpp:349] lstm1_unit_6 -> c_6
I0219 00:18:36.408359 21566 net.cpp:349] lstm1_unit_6 -> h_6
I0219 00:18:36.408365 21566 net.cpp:123] Setting up lstm1_unit_6
I0219 00:18:36.408372 21566 net.cpp:130] Top shape: 1 16 128 (2048)
I0219 00:18:36.408378 21566 net.cpp:130] Top shape: 1 16 128 (2048)
I0219 00:18:36.408382 21566 layer_factory.hpp:74] Creating layer h_6_lstm1_unit_6_1_split
I0219 00:18:36.408391 21566 net.cpp:94] Creating Layer h_6_lstm1_unit_6_1_split
I0219 00:18:36.408398 21566 net.cpp:391] h_6_lstm1_unit_6_1_split <- h_6
I0219 00:18:36.408406 21566 net.cpp:349] h_6_lstm1_unit_6_1_split -> h_6_lstm1_unit_6_1_split_0
I0219 00:18:36.408416 21566 net.cpp:349] h_6_lstm1_unit_6_1_split -> h_6_lstm1_unit_6_1_split_1
I0219 00:18:36.408424 21566 net.cpp:123] Setting up h_6_lstm1_unit_6_1_split
I0219 00:18:36.408432 21566 net.cpp:130] Top shape: 1 16 128 (2048)
I0219 00:18:36.408439 21566 net.cpp:130] Top shape: 1 16 128 (2048)
I0219 00:18:36.408443 21566 layer_factory.hpp:74] Creating layer lstm1_h_conted_6
I0219 00:18:36.408449 21566 net.cpp:94] Creating Layer lstm1_h_conted_6
I0219 00:18:36.408455 21566 net.cpp:391] lstm1_h_conted_6 <- h_6_lstm1_unit_6_1_split_0
I0219 00:18:36.408460 21566 net.cpp:391] lstm1_h_conted_6 <- cont_7_lstm1_cont_slice_6_split_0
I0219 00:18:36.408468 21566 net.cpp:349] lstm1_h_conted_6 -> h_conted_6
I0219 00:18:36.408474 21566 net.cpp:123] Setting up lstm1_h_conted_6
I0219 00:18:36.408481 21566 net.cpp:130] Top shape: 1 16 128 (2048)
I0219 00:18:36.408488 21566 layer_factory.hpp:74] Creating layer lstm1_transform_7
I0219 00:18:36.408493 21566 net.cpp:94] Creating Layer lstm1_transform_7
I0219 00:18:36.408499 21566 net.cpp:391] lstm1_transform_7 <- h_conted_6
I0219 00:18:36.408507 21566 net.cpp:349] lstm1_transform_7 -> W_hc_h_6
I0219 00:18:36.408515 21566 net.cpp:123] Setting up lstm1_transform_7
I0219 00:18:36.409106 21566 net.cpp:130] Top shape: 1 16 512 (8192)
I0219 00:18:36.409119 21566 net.cpp:435] Sharing parameters 'W_hc' owned by layer 'lstm1_transform_1', param index 0
I0219 00:18:36.409140 21566 layer_factory.hpp:74] Creating layer lstm1_gate_input_7
I0219 00:18:36.409152 21566 net.cpp:94] Creating Layer lstm1_gate_input_7
I0219 00:18:36.409159 21566 net.cpp:391] lstm1_gate_input_7 <- W_hc_h_6
I0219 00:18:36.409169 21566 net.cpp:391] lstm1_gate_input_7 <- W_xc_x_7
I0219 00:18:36.409179 21566 net.cpp:349] lstm1_gate_input_7 -> gate_input_7
I0219 00:18:36.409193 21566 net.cpp:123] Setting up lstm1_gate_input_7
I0219 00:18:36.409204 21566 net.cpp:130] Top shape: 1 16 512 (8192)
I0219 00:18:36.409212 21566 layer_factory.hpp:74] Creating layer lstm1_unit_7
I0219 00:18:36.409221 21566 net.cpp:94] Creating Layer lstm1_unit_7
I0219 00:18:36.409229 21566 net.cpp:391] lstm1_unit_7 <- c_6
I0219 00:18:36.409236 21566 net.cpp:391] lstm1_unit_7 <- gate_input_7
I0219 00:18:36.409245 21566 net.cpp:391] lstm1_unit_7 <- cont_7_lstm1_cont_slice_6_split_1
I0219 00:18:36.409255 21566 net.cpp:349] lstm1_unit_7 -> c_7
I0219 00:18:36.409317 21566 net.cpp:349] lstm1_unit_7 -> h_7
I0219 00:18:36.409329 21566 net.cpp:123] Setting up lstm1_unit_7
I0219 00:18:36.409342 21566 net.cpp:130] Top shape: 1 16 128 (2048)
I0219 00:18:36.409350 21566 net.cpp:130] Top shape: 1 16 128 (2048)
I0219 00:18:36.409358 21566 layer_factory.hpp:74] Creating layer h_7_lstm1_unit_7_1_split
I0219 00:18:36.409368 21566 net.cpp:94] Creating Layer h_7_lstm1_unit_7_1_split
I0219 00:18:36.409376 21566 net.cpp:391] h_7_lstm1_unit_7_1_split <- h_7
I0219 00:18:36.409386 21566 net.cpp:349] h_7_lstm1_unit_7_1_split -> h_7_lstm1_unit_7_1_split_0
I0219 00:18:36.409397 21566 net.cpp:349] h_7_lstm1_unit_7_1_split -> h_7_lstm1_unit_7_1_split_1
I0219 00:18:36.409407 21566 net.cpp:123] Setting up h_7_lstm1_unit_7_1_split
I0219 00:18:36.409420 21566 net.cpp:130] Top shape: 1 16 128 (2048)
I0219 00:18:36.409428 21566 net.cpp:130] Top shape: 1 16 128 (2048)
I0219 00:18:36.409452 21566 layer_factory.hpp:74] Creating layer lstm1_h_conted_7
I0219 00:18:36.409464 21566 net.cpp:94] Creating Layer lstm1_h_conted_7
I0219 00:18:36.409471 21566 net.cpp:391] lstm1_h_conted_7 <- h_7_lstm1_unit_7_1_split_0
I0219 00:18:36.409481 21566 net.cpp:391] lstm1_h_conted_7 <- cont_8_lstm1_cont_slice_7_split_0
I0219 00:18:36.409490 21566 net.cpp:349] lstm1_h_conted_7 -> h_conted_7
I0219 00:18:36.409500 21566 net.cpp:123] Setting up lstm1_h_conted_7
I0219 00:18:36.409512 21566 net.cpp:130] Top shape: 1 16 128 (2048)
I0219 00:18:36.409521 21566 layer_factory.hpp:74] Creating layer lstm1_transform_8
I0219 00:18:36.409534 21566 net.cpp:94] Creating Layer lstm1_transform_8
I0219 00:18:36.409543 21566 net.cpp:391] lstm1_transform_8 <- h_conted_7
I0219 00:18:36.409555 21566 net.cpp:349] lstm1_transform_8 -> W_hc_h_7
I0219 00:18:36.409567 21566 net.cpp:123] Setting up lstm1_transform_8
I0219 00:18:36.410130 21566 net.cpp:130] Top shape: 1 16 512 (8192)
I0219 00:18:36.410141 21566 net.cpp:435] Sharing parameters 'W_hc' owned by layer 'lstm1_transform_1', param index 0
I0219 00:18:36.410151 21566 layer_factory.hpp:74] Creating layer lstm1_gate_input_8
I0219 00:18:36.410159 21566 net.cpp:94] Creating Layer lstm1_gate_input_8
I0219 00:18:36.410166 21566 net.cpp:391] lstm1_gate_input_8 <- W_hc_h_7
I0219 00:18:36.410174 21566 net.cpp:391] lstm1_gate_input_8 <- W_xc_x_8
I0219 00:18:36.410184 21566 net.cpp:349] lstm1_gate_input_8 -> gate_input_8
I0219 00:18:36.410194 21566 net.cpp:123] Setting up lstm1_gate_input_8
I0219 00:18:36.410207 21566 net.cpp:130] Top shape: 1 16 512 (8192)
I0219 00:18:36.410215 21566 layer_factory.hpp:74] Creating layer lstm1_unit_8
I0219 00:18:36.410223 21566 net.cpp:94] Creating Layer lstm1_unit_8
I0219 00:18:36.410231 21566 net.cpp:391] lstm1_unit_8 <- c_7
I0219 00:18:36.410239 21566 net.cpp:391] lstm1_unit_8 <- gate_input_8
I0219 00:18:36.410248 21566 net.cpp:391] lstm1_unit_8 <- cont_8_lstm1_cont_slice_7_split_1
I0219 00:18:36.410305 21566 net.cpp:349] lstm1_unit_8 -> c_8
I0219 00:18:36.410320 21566 net.cpp:349] lstm1_unit_8 -> h_8
I0219 00:18:36.410331 21566 net.cpp:123] Setting up lstm1_unit_8
I0219 00:18:36.410343 21566 net.cpp:130] Top shape: 1 16 128 (2048)
I0219 00:18:36.410367 21566 net.cpp:130] Top shape: 1 16 128 (2048)
I0219 00:18:36.410374 21566 layer_factory.hpp:74] Creating layer lstm1_
I0219 00:18:36.410383 21566 net.cpp:94] Creating Layer lstm1_
I0219 00:18:36.410390 21566 net.cpp:391] lstm1_ <- c_8
I0219 00:18:36.410399 21566 net.cpp:349] lstm1_ -> c_T
I0219 00:18:36.410410 21566 net.cpp:123] Setting up lstm1_
I0219 00:18:36.410420 21566 net.cpp:130] Top shape: 1 16 128 (2048)
I0219 00:18:36.410428 21566 layer_factory.hpp:74] Creating layer lstm1_h_concat
I0219 00:18:36.410439 21566 net.cpp:94] Creating Layer lstm1_h_concat
I0219 00:18:36.410447 21566 net.cpp:391] lstm1_h_concat <- h_1_lstm1_unit_1_1_split_1
I0219 00:18:36.410455 21566 net.cpp:391] lstm1_h_concat <- h_2_lstm1_unit_2_1_split_1
I0219 00:18:36.410464 21566 net.cpp:391] lstm1_h_concat <- h_3_lstm1_unit_3_1_split_1
I0219 00:18:36.410471 21566 net.cpp:391] lstm1_h_concat <- h_4_lstm1_unit_4_1_split_1
I0219 00:18:36.410480 21566 net.cpp:391] lstm1_h_concat <- h_5_lstm1_unit_5_1_split_1
I0219 00:18:36.410486 21566 net.cpp:391] lstm1_h_concat <- h_6_lstm1_unit_6_1_split_1
I0219 00:18:36.410512 21566 net.cpp:391] lstm1_h_concat <- h_7_lstm1_unit_7_1_split_1
I0219 00:18:36.410521 21566 net.cpp:391] lstm1_h_concat <- h_8
I0219 00:18:36.410532 21566 net.cpp:349] lstm1_h_concat -> h
I0219 00:18:36.410544 21566 net.cpp:123] Setting up lstm1_h_concat
I0219 00:18:36.410562 21566 net.cpp:130] Top shape: 8 16 128 (16384)
I0219 00:18:36.410572 21566 net.cpp:179] lstm1_h_concat does not need backward computation.
I0219 00:18:36.410578 21566 net.cpp:179] lstm1_ does not need backward computation.
I0219 00:18:36.410584 21566 net.cpp:179] lstm1_unit_8 does not need backward computation.
I0219 00:18:36.410590 21566 net.cpp:179] lstm1_gate_input_8 does not need backward computation.
I0219 00:18:36.410598 21566 net.cpp:179] lstm1_transform_8 does not need backward computation.
…
I0219 00:18:36.410917 21566 net.cpp:215] This network produces output c_T
I0219 00:18:36.410925 21566 net.cpp:215] This network produces output h
I0219 00:18:36.410985 21566 net.cpp:456] Collecting Learning Rate and Weight Decay.
I0219 00:18:36.411005 21566 net.cpp:228] Network initialization done.
I0219 00:18:36.411013 21566 net.cpp:229] Memory required for data: 1435136
I0219 00:18:36.411142 21566 recurrent_layer.cpp:135] Adding parameter 0: W_xc
I0219 00:18:36.411151 21566 recurrent_layer.cpp:135] Adding parameter 1: b_c
I0219 00:18:36.411156 21566 recurrent_layer.cpp:135] Adding parameter 2: W_hc
I0219 00:18:36.411192 21566 net.cpp:130] Top shape: 8 16 128 (16384)
I0219 00:18:36.411203 21566 layer_factory.hpp:74] Creating layer lstm1-drop
I0219 00:18:36.411212 21566 net.cpp:94] Creating Layer lstm1-drop
I0219 00:18:36.411216 21566 net.cpp:391] lstm1-drop <- lstm1
I0219 00:18:36.411223 21566 net.cpp:338] lstm1-drop -> lstm1 (in-place)
I0219 00:18:36.411231 21566 net.cpp:123] Setting up lstm1-drop
I0219 00:18:36.411238 21566 net.cpp:130] Top shape: 8 16 128 (16384)
I0219 00:18:36.411245 21566 layer_factory.hpp:74] Creating layer concat
I0219 00:18:36.411252 21566 net.cpp:94] Creating Layer concat
I0219 00:18:36.411257 21566 net.cpp:391] concat <- reshape-fc6
I0219 00:18:36.411274 21566 net.cpp:391] concat <- lstm1
I0219 00:18:36.411281 21566 net.cpp:349] concat -> concat-data
I0219 00:18:36.411289 21566 net.cpp:123] Setting up concat
I0219 00:18:36.411295 21566 net.cpp:130] Top shape: 8 16 4224 (540672)
I0219 00:18:36.411301 21566 layer_factory.hpp:74] Creating layer lstm2
I0219 00:18:36.411309 21566 net.cpp:94] Creating Layer lstm2
I0219 00:18:36.411329 21566 net.cpp:391] lstm2 <- concat-data
I0219 00:18:36.411335 21566 net.cpp:391] lstm2 <- reshape-marker_reshape-marker_0_split_1
I0219 00:18:36.411344 21566 net.cpp:349] lstm2 -> lstm2
I0219 00:18:36.411350 21566 net.cpp:123] Setting up lstm2
I0219 00:18:36.411355 21566 recurrent_layer.cpp:27] Initializing recurrent layer: assuming input batch contains 8 timesteps of 16 independent streams.
I0219 00:18:36.411665 21566 net.cpp:52] Initializing net from parameters: 
input: "x"
input: "cont"
input: "c_0"
input: "h_0"
force_backward: true
input_shape {
  dim: 8
  dim: 16
  dim: 4224
}
input_shape {
  dim: 1
  dim: 8
  dim: 16
}
input_shape {
  dim: 1
  dim: 16
  dim: 2048
}
input_shape {
  dim: 1
  dim: 16
  dim: 2048
}
layer {
  name: "lstm2_cont_slice"
  type: "Slice"
  bottom: "cont"
  top: "cont_1"
  top: "cont_2"
  top: "cont_3"
  top: "cont_4"
  top: "cont_5"
  top: "cont_6"
  top: "cont_7"
  top: "cont_8"
  slice_param {
    axis: 1
  }
}
layer {
  name: "lstm2_x_transform"
  type: "InnerProduct"
  bottom: "x"
  top: "W_xc_x"
  param {
    name: "W_xc"
  }
  param {
    name: "b_c"
  }
  inner_product_param {
    num_output: 8192
    bias_term: true
    weight_filler {
      type: "uniform"
      min: -0.01
      max: 0.01
    }
    bias_filler {
      type: "constant"
      value: 0
    }
    axis: 2
  }
}
layer {
  name: "lstm2_W_xc_x_slice"
  type: "Slice"
  bottom: "W_xc_x"
  top: "W_xc_x_1"
  top: "W_xc_x_2"
  top: "W_xc_x_3"
  top: "W_xc_x_4"
  top: "W_xc_x_5"
  top: "W_xc_x_6"
  top: "W_xc_x_7"
  top: "W_xc_x_8"
  slice_param {
    axis: 0
  }
}
layer {
  name: "lstm2_h_conted_0"
  type: "Eltwise"
  bottom: "h_0"
  bottom: "cont_1"
  top: "h_conted_0"
  eltwise_param {
    operation: SUM
    coeff_blob: true
  }
}
layer {
  name: "lstm2_transform_1"
  type: "InnerProduct"
  bottom: "h_conted_0"
  top: "W_hc_h_0"
  param {
    name: "W_hc"
  }
  inner_product_param {
    num_output: 8192
    bias_term: false
    weight_filler {
      type: "uniform"
      min: -0.01
      max: 0.01
    }
    axis: 2
  }
}
layer {
  name: "lstm2_gate_input_1"
  type: "Eltwise"
  bottom: "W_hc_h_0"
  bottom: "W_xc_x_1"
  top: "gate_input_1"
  eltwise_param {
    operation: SUM
  }
}
layer {
  name: "lstm2_unit_1"
  type: "LSTMUnit"
  bottom: "c_0"
  bottom: "gate_input_1"
  bottom: "cont_1"
  top: "c_1"
  top: "h_1"
}
layer {
  name: "lstm2_h_conted_1"
  type: "Eltwise"
  bottom: "h_1"
  bottom: "cont_2"
  top: "h_conted_1"
  eltwise_param {
    operation: SUM
    coeff_blob: true
  }
}
layer {
  name: "lstm2_transform_2"
  type: "InnerProduct"
  bottom: "h_conted_1"
  top: "W_hc_h_1"
  param {
    name: "W_hc"
  }
  inner_product_param {
    num_output: 8192
    bias_term: false
    weight_filler {
      type: "uniform"
      min: -0.01
      max: 0.01
    }
    axis: 2
  }
}
layer {
  name: "lstm2_gate_input_2"
  type: "Eltwise"
  bottom: "W_hc_h_1"
  bottom: "W_xc_x_2"
  top: "gate_input_2"
  eltwise_param {
    operation: SUM
  }
}
layer {
  name: "lstm2_unit_2"
  type: "LSTMUnit"
  bottom: "c_1"
  bottom: "gate_input_2"
  bottom: "cont_2"
  top: "c_2"
  top: "h_2"
}
layer {
  name: "lstm2_h_conted_2"
  type: "Eltwise"
  bottom: "h_2"
  bottom: "cont_3"
  top: "h_conted_2"
  eltwise_param {
    operation: SUM
    coeff_blob: true
  }
}
layer {
  name: "lstm2_transform_3"
  type: "InnerProduct"
  bottom: "h_conted_2"
  top: "W_hc_h_2"
  param {
    name: "W_hc"
  }
  inner_product_param {
    num_output: 8192
    bias_term: false
    weight_filler {
      type: "uniform"
      min: -0.01
      max: 0.01
    }
    axis: 2
  }
}
layer {
  name: "lstm2_gate_input_3"
  type: "Eltwise"
  bottom: "W_hc_h_2"
  bottom: "W_xc_x_3"
  top: "gate_input_3"
  eltwise_param {
    operation: SUM
  }
}
layer {
  name: "lstm2_unit_3"
  type: "LSTMUnit"
  bottom: "c_2"
  bottom: "gate_input_3"
  bottom: "cont_3"
  top: "c_3"
  top: "h_3"
}
layer {
  name: "lstm2_h_conted_3"
  type: "Eltwise"
  bottom: "h_3"
  bottom: "cont_4"
  top: "h_conted_3"
  eltwise_param {
    operation: SUM
    coeff_blob: true
  }
}
layer {
  name: "lstm2_transform_4"
  type: "InnerProduct"
  bottom: "h_conted_3"
  top: "W_hc_h_3"
  param {
    name: "W_hc"
  }
  inner_product_param {
    num_output: 8192
    bias_term: false
    weight_filler {
      type: "uniform"
      min: -0.01
      max: 0.01
    }
    axis: 2
  }
}
layer {
  name: "lstm2_gate_input_4"
  type: "Eltwise"
  bottom: "W_hc_h_3"
  bottom: "W_xc_x_4"
  top: "gate_input_4"
  eltwise_param {
    operation: SUM
  }
}
layer {
  name: "lstm2_unit_4"
  type: "LSTMUnit"
  bottom: "c_3"
  bottom: "gate_input_4"
  bottom: "cont_4"
  top: "c_4"
  top: "h_4"
}
layer {
  name: "lstm2_h_conted_4"
  type: "Eltwise"
  bottom: "h_4"
  bottom: "cont_5"
  top: "h_conted_4"
  eltwise_param {
    operation: SUM
    coeff_blob: true
  }
}
layer {
  name: "lstm2_transform_5"
  type: "InnerProduct"
  bottom: "h_conted_4"
  top: "W_hc_h_4"
  param {
    name: "W_hc"
  }
  inner_product_param {
    num_output: 8192
    bias_term: false
    weight_filler {
      type: "uniform"
      min: -0.01
      max: 0.01
    }
    axis: 2
  }
}
layer {
  name: "lstm2_gate_input_5"
  type: "Eltwise"
  bottom: "W_hc_h_4"
  bottom: "W_xc_x_5"
  top: "gate_input_5"
  eltwise_param {
    operation: SUM
  }
}
layer {
  name: "lstm2_unit_5"
  type: "LSTMUnit"
  bottom: "c_4"
  bottom: "gate_input_5"
  bottom: "cont_5"
  top: "c_5"
  top: "h_5"
}
layer {
  name: "lstm2_h_conted_5"
  type: "Eltwise"
  bottom: "h_5"
  bottom: "cont_6"
  top: "h_conted_5"
  eltwise_param {
    operation: SUM
    coeff_blob: true
  }
}
layer {
  name: "lstm2_transform_6"
  type: "InnerProduct"
  bottom: "h_conted_5"
  top: "W_hc_h_5"
  param {
    name: "W_hc"
  }
  inner_product_param {
    num_output: 8192
    bias_term: false
    weight_filler {
      type: "uniform"
      min: -0.01
      max: 0.01
    }
    axis: 2
  }
}
layer {
  name: "lstm2_gate_input_6"
  type: "Eltwise"
  bottom: "W_hc_h_5"
  bottom: "W_xc_x_6"
  top: "gate_input_6"
  eltwise_param {
    operation: SUM
  }
}
layer {
  name: "lstm2_unit_6"
  type: "LSTMUnit"
  bottom: "c_5"
  bottom: "gate_input_6"
  bottom: "cont_6"
  top: "c_6"
  top: "h_6"
}
layer {
  name: "lstm2_h_conted_6"
  type: "Eltwise"
  bottom: "h_6"
  bottom: "cont_7"
  top: "h_conted_6"
  eltwise_param {
    operation: SUM
    coeff_blob: true
  }
}
layer {
  name: "lstm2_transform_7"
  type: "InnerProduct"
  bottom: "h_conted_6"
  top: "W_hc_h_6"
  param {
    name: "W_hc"
  }
  inner_product_param {
    num_output: 8192
    bias_term: false
    weight_filler {
      type: "uniform"
      min: -0.01
      max: 0.01
    }
    axis: 2
  }
}
layer {
  name: "lstm2_gate_input_7"
  type: "Eltwise"
  bottom: "W_hc_h_6"
  bottom: "W_xc_x_7"
  top: "gate_input_7"
  eltwise_param {
    operation: SUM
  }
}
layer {
  name: "lstm2_unit_7"
  type: "LSTMUnit"
  bottom: "c_6"
  bottom: "gate_input_7"
  bottom: "cont_7"
  top: "c_7"
  top: "h_7"
}
layer {
  name: "lstm2_h_conted_7"
  type: "Eltwise"
  bottom: "h_7"
  bottom: "cont_8"
  top: "h_conted_7"
  eltwise_param {
    operation: SUM
    coeff_blob: true
  }
}
layer {
  name: "lstm2_transform_8"
  type: "InnerProduct"
  bottom: "h_conted_7"
  top: "W_hc_h_7"
  param {
    name: "W_hc"
  }
  inner_product_param {
    num_output: 8192
    bias_term: false
    weight_filler {
      type: "uniform"
      min: -0.01
      max: 0.01
    }
    axis: 2
  }
}
layer {
  name: "lstm2_gate_input_8"
  type: "Eltwise"
  bottom: "W_hc_h_7"
  bottom: "W_xc_x_8"
  top: "gate_input_8"
  eltwise_param {
    operation: SUM
  }
}
layer {
  name: "lstm2_unit_8"
  type: "LSTMUnit"
  bottom: "c_7"
  bottom: "gate_input_8"
  bottom: "cont_8"
  top: "c_8"
  top: "h_8"
}
layer {
  name: "lstm2_"
  type: "Split"
  bottom: "c_8"
  top: "c_T"
}
layer {
  name: "lstm2_h_concat"
  type: "Concat"
  bottom: "h_1"
  bottom: "h_2"
  bottom: "h_3"
  bottom: "h_4"
  bottom: "h_5"
  bottom: "h_6"
  bottom: "h_7"
  bottom: "h_8"
  top: "h"
  concat_param {
    axis: 0
  }
}
I0219 00:18:36.411906 21566 net.cpp:351] Input 0 -> x
I0219 00:18:36.411918 21566 net.cpp:351] Input 1 -> cont
I0219 00:18:36.411926 21566 net.cpp:351] Input 2 -> c_0
I0219 00:18:36.411942 21566 net.cpp:351] Input 3 -> h_0
I0219 00:18:36.411953 21566 layer_factory.hpp:74] Creating layer lstm2_cont_slice
I0219 00:18:36.411962 21566 net.cpp:94] Creating Layer lstm2_cont_slice
I0219 00:18:36.411967 21566 net.cpp:391] lstm2_cont_slice <- cont
I0219 00:18:36.411974 21566 net.cpp:349] lstm2_cont_slice -> cont_1
I0219 00:18:36.411983 21566 net.cpp:349] lstm2_cont_slice -> cont_2
I0219 00:18:36.411991 21566 net.cpp:349] lstm2_cont_slice -> cont_3
I0219 00:18:36.411998 21566 net.cpp:349] lstm2_cont_slice -> cont_4
I0219 00:18:36.412006 21566 net.cpp:349] lstm2_cont_slice -> cont_5
I0219 00:18:36.412014 21566 net.cpp:349] lstm2_cont_slice -> cont_6
I0219 00:18:36.412022 21566 net.cpp:349] lstm2_cont_slice -> cont_7
I0219 00:18:36.412029 21566 net.cpp:349] lstm2_cont_slice -> cont_8
I0219 00:18:36.412037 21566 net.cpp:123] Setting up lstm2_cont_slice
I0219 00:18:36.412046 21566 net.cpp:130] Top shape: 1 1 16 (16)
I0219 00:18:36.412053 21566 net.cpp:130] Top shape: 1 1 16 (16)
I0219 00:18:36.412060 21566 net.cpp:130] Top shape: 1 1 16 (16)
I0219 00:18:36.412065 21566 net.cpp:130] Top shape: 1 1 16 (16)
I0219 00:18:36.412070 21566 net.cpp:130] Top shape: 1 1 16 (16)
I0219 00:18:36.412078 21566 net.cpp:130] Top shape: 1 1 16 (16)
I0219 00:18:36.412084 21566 net.cpp:130] Top shape: 1 1 16 (16)
I0219 00:18:36.412089 21566 net.cpp:130] Top shape: 1 1 16 (16)
I0219 00:18:36.412096 21566 layer_factory.hpp:74] Creating layer cont_1_lstm2_cont_slice_0_split
I0219 00:18:36.412102 21566 net.cpp:94] Creating Layer cont_1_lstm2_cont_slice_0_split
I0219 00:18:36.412109 21566 net.cpp:391] cont_1_lstm2_cont_slice_0_split <- cont_1
I0219 00:18:36.412116 21566 net.cpp:349] cont_1_lstm2_cont_slice_0_split -> cont_1_lstm2_cont_slice_0_split_0
I0219 00:18:36.412123 21566 net.cpp:349] cont_1_lstm2_cont_slice_0_split -> cont_1_lstm2_cont_slice_0_split_1
I0219 00:18:36.412130 21566 net.cpp:123] Setting up cont_1_lstm2_cont_slice_0_split
I0219 00:18:36.412137 21566 net.cpp:130] Top shape: 1 1 16 (16)
I0219 00:18:36.412144 21566 net.cpp:130] Top shape: 1 1 16 (16)
I0219 00:18:36.412148 21566 layer_factory.hpp:74] Creating layer cont_2_lstm2_cont_slice_1_split
I0219 00:18:36.412155 21566 net.cpp:94] Creating Layer cont_2_lstm2_cont_slice_1_split
I0219 00:18:36.412161 21566 net.cpp:391] cont_2_lstm2_cont_slice_1_split <- cont_2
I0219 00:18:36.412168 21566 net.cpp:349] cont_2_lstm2_cont_slice_1_split -> cont_2_lstm2_cont_slice_1_split_0
I0219 00:18:36.412174 21566 net.cpp:349] cont_2_lstm2_cont_slice_1_split -> cont_2_lstm2_cont_slice_1_split_1
I0219 00:18:36.412183 21566 net.cpp:123] Setting up cont_2_lstm2_cont_slice_1_split
I0219 00:18:36.412189 21566 net.cpp:130] Top shape: 1 1 16 (16)
I0219 00:18:36.412195 21566 net.cpp:130] Top shape: 1 1 16 (16)
I0219 00:18:36.412199 21566 layer_factory.hpp:74] Creating layer cont_3_lstm2_cont_slice_2_split
I0219 00:18:36.412205 21566 net.cpp:94] Creating Layer cont_3_lstm2_cont_slice_2_split
I0219 00:18:36.412210 21566 net.cpp:391] cont_3_lstm2_cont_slice_2_split <- cont_3
I0219 00:18:36.412217 21566 net.cpp:349] cont_3_lstm2_cont_slice_2_split -> cont_3_lstm2_cont_slice_2_split_0
I0219 00:18:36.412225 21566 net.cpp:349] cont_3_lstm2_cont_slice_2_split -> cont_3_lstm2_cont_slice_2_split_1
I0219 00:18:36.412232 21566 net.cpp:123] Setting up cont_3_lstm2_cont_slice_2_split
I0219 00:18:36.412240 21566 net.cpp:130] Top shape: 1 1 16 (16)
I0219 00:18:36.412245 21566 net.cpp:130] Top shape: 1 1 16 (16)
I0219 00:18:36.412250 21566 layer_factory.hpp:74] Creating layer cont_4_lstm2_cont_slice_3_split
I0219 00:18:36.412257 21566 net.cpp:94] Creating Layer cont_4_lstm2_cont_slice_3_split
I0219 00:18:36.412273 21566 net.cpp:391] cont_4_lstm2_cont_slice_3_split <- cont_4
I0219 00:18:36.412281 21566 net.cpp:349] cont_4_lstm2_cont_slice_3_split -> cont_4_lstm2_cont_slice_3_split_0
I0219 00:18:36.412287 21566 net.cpp:349] cont_4_lstm2_cont_slice_3_split -> cont_4_lstm2_cont_slice_3_split_1
I0219 00:18:36.412294 21566 net.cpp:123] Setting up cont_4_lstm2_cont_slice_3_split
I0219 00:18:36.412312 21566 net.cpp:130] Top shape: 1 1 16 (16)
I0219 00:18:36.412318 21566 net.cpp:130] Top shape: 1 1 16 (16)
I0219 00:18:36.412324 21566 layer_factory.hpp:74] Creating layer cont_5_lstm2_cont_slice_4_split
I0219 00:18:36.412330 21566 net.cpp:94] Creating Layer cont_5_lstm2_cont_slice_4_split
I0219 00:18:36.412338 21566 net.cpp:391] cont_5_lstm2_cont_slice_4_split <- cont_5
I0219 00:18:36.412344 21566 net.cpp:349] cont_5_lstm2_cont_slice_4_split -> cont_5_lstm2_cont_slice_4_split_0
I0219 00:18:36.412353 21566 net.cpp:349] cont_5_lstm2_cont_slice_4_split -> cont_5_lstm2_cont_slice_4_split_1
I0219 00:18:36.412359 21566 net.cpp:123] Setting up cont_5_lstm2_cont_slice_4_split
I0219 00:18:36.412366 21566 net.cpp:130] Top shape: 1 1 16 (16)
I0219 00:18:36.412372 21566 net.cpp:130] Top shape: 1 1 16 (16)
I0219 00:18:36.412379 21566 layer_factory.hpp:74] Creating layer cont_6_lstm2_cont_slice_5_split
I0219 00:18:36.412384 21566 net.cpp:94] Creating Layer cont_6_lstm2_cont_slice_5_split
I0219 00:18:36.412389 21566 net.cpp:391] cont_6_lstm2_cont_slice_5_split <- cont_6
I0219 00:18:36.412395 21566 net.cpp:349] cont_6_lstm2_cont_slice_5_split -> cont_6_lstm2_cont_slice_5_split_0
I0219 00:18:36.412405 21566 net.cpp:349] cont_6_lstm2_cont_slice_5_split -> cont_6_lstm2_cont_slice_5_split_1
I0219 00:18:36.412411 21566 net.cpp:123] Setting up cont_6_lstm2_cont_slice_5_split
I0219 00:18:36.412417 21566 net.cpp:130] Top shape: 1 1 16 (16)
I0219 00:18:36.412425 21566 net.cpp:130] Top shape: 1 1 16 (16)
I0219 00:18:36.412430 21566 layer_factory.hpp:74] Creating layer cont_7_lstm2_cont_slice_6_split
I0219 00:18:36.412436 21566 net.cpp:94] Creating Layer cont_7_lstm2_cont_slice_6_split
I0219 00:18:36.412441 21566 net.cpp:391] cont_7_lstm2_cont_slice_6_split <- cont_7
I0219 00:18:36.412447 21566 net.cpp:349] cont_7_lstm2_cont_slice_6_split -> cont_7_lstm2_cont_slice_6_split_0
I0219 00:18:36.412456 21566 net.cpp:349] cont_7_lstm2_cont_slice_6_split -> cont_7_lstm2_cont_slice_6_split_1
I0219 00:18:36.412463 21566 net.cpp:123] Setting up cont_7_lstm2_cont_slice_6_split
I0219 00:18:36.412472 21566 net.cpp:130] Top shape: 1 1 16 (16)
I0219 00:18:36.412479 21566 net.cpp:130] Top shape: 1 1 16 (16)
I0219 00:18:36.412483 21566 layer_factory.hpp:74] Creating layer cont_8_lstm2_cont_slice_7_split
I0219 00:18:36.412492 21566 net.cpp:94] Creating Layer cont_8_lstm2_cont_slice_7_split
I0219 00:18:36.412497 21566 net.cpp:391] cont_8_lstm2_cont_slice_7_split <- cont_8
I0219 00:18:36.412503 21566 net.cpp:349] cont_8_lstm2_cont_slice_7_split -> cont_8_lstm2_cont_slice_7_split_0
I0219 00:18:36.412510 21566 net.cpp:349] cont_8_lstm2_cont_slice_7_split -> cont_8_lstm2_cont_slice_7_split_1
I0219 00:18:36.412516 21566 net.cpp:123] Setting up cont_8_lstm2_cont_slice_7_split
I0219 00:18:36.412523 21566 net.cpp:130] Top shape: 1 1 16 (16)
I0219 00:18:36.412529 21566 net.cpp:130] Top shape: 1 1 16 (16)
I0219 00:18:36.412534 21566 layer_factory.hpp:74] Creating layer lstm2_x_transform
I0219 00:18:36.412541 21566 net.cpp:94] Creating Layer lstm2_x_transform
I0219 00:18:36.412549 21566 net.cpp:391] lstm2_x_transform <- x
I0219 00:18:36.412556 21566 net.cpp:349] lstm2_x_transform -> W_xc_x
I0219 00:18:36.412564 21566 net.cpp:123] Setting up lstm2_x_transform
I0219 00:18:36.639000 21566 net.cpp:130] Top shape: 8 16 8192 (1048576)
I0219 00:18:36.639035 21566 layer_factory.hpp:74] Creating layer lstm2_W_xc_x_slice
I0219 00:18:36.639051 21566 net.cpp:94] Creating Layer lstm2_W_xc_x_slice
I0219 00:18:36.639058 21566 net.cpp:391] lstm2_W_xc_x_slice <- W_xc_x
I0219 00:18:36.639068 21566 net.cpp:349] lstm2_W_xc_x_slice -> W_xc_x_1
I0219 00:18:36.639081 21566 net.cpp:349] lstm2_W_xc_x_slice -> W_xc_x_2
I0219 00:18:36.639088 21566 net.cpp:349] lstm2_W_xc_x_slice -> W_xc_x_3
I0219 00:18:36.639098 21566 net.cpp:349] lstm2_W_xc_x_slice -> W_xc_x_4
I0219 00:18:36.639123 21566 net.cpp:349] lstm2_W_xc_x_slice -> W_xc_x_5
I0219 00:18:36.639132 21566 net.cpp:349] lstm2_W_xc_x_slice -> W_xc_x_6
I0219 00:18:36.639138 21566 net.cpp:349] lstm2_W_xc_x_slice -> W_xc_x_7
I0219 00:18:36.639178 21566 net.cpp:349] lstm2_W_xc_x_slice -> W_xc_x_8
I0219 00:18:36.639185 21566 net.cpp:123] Setting up lstm2_W_xc_x_slice
I0219 00:18:36.639199 21566 net.cpp:130] Top shape: 1 16 8192 (131072)
I0219 00:18:36.639204 21566 net.cpp:130] Top shape: 1 16 8192 (131072)
I0219 00:18:36.639209 21566 net.cpp:130] Top shape: 1 16 8192 (131072)
I0219 00:18:36.639214 21566 net.cpp:130] Top shape: 1 16 8192 (131072)
I0219 00:18:36.639221 21566 net.cpp:130] Top shape: 1 16 8192 (131072)
I0219 00:18:36.639226 21566 net.cpp:130] Top shape: 1 16 8192 (131072)
I0219 00:18:36.639231 21566 net.cpp:130] Top shape: 1 16 8192 (131072)
I0219 00:18:36.639238 21566 net.cpp:130] Top shape: 1 16 8192 (131072)
I0219 00:18:36.639243 21566 layer_factory.hpp:74] Creating layer lstm2_h_conted_0
I0219 00:18:36.639251 21566 net.cpp:94] Creating Layer lstm2_h_conted_0
I0219 00:18:36.639268 21566 net.cpp:391] lstm2_h_conted_0 <- h_0
I0219 00:18:36.639276 21566 net.cpp:391] lstm2_h_conted_0 <- cont_1_lstm2_cont_slice_0_split_0
I0219 00:18:36.639283 21566 net.cpp:349] lstm2_h_conted_0 -> h_conted_0
I0219 00:18:36.639292 21566 net.cpp:123] Setting up lstm2_h_conted_0
I0219 00:18:36.639300 21566 net.cpp:130] Top shape: 1 16 2048 (32768)
I0219 00:18:36.639307 21566 layer_factory.hpp:74] Creating layer lstm2_transform_1
I0219 00:18:36.639315 21566 net.cpp:94] Creating Layer lstm2_transform_1
I0219 00:18:36.639322 21566 net.cpp:391] lstm2_transform_1 <- h_conted_0
I0219 00:18:36.639329 21566 net.cpp:349] lstm2_transform_1 -> W_hc_h_0
I0219 00:18:36.639336 21566 net.cpp:123] Setting up lstm2_transform_1
I0219 00:18:36.750743 21566 net.cpp:130] Top shape: 1 16 8192 (131072)
I0219 00:18:36.750779 21566 layer_factory.hpp:74] Creating layer lstm2_gate_input_1
I0219 00:18:36.750800 21566 net.cpp:94] Creating Layer lstm2_gate_input_1
I0219 00:18:36.750807 21566 net.cpp:391] lstm2_gate_input_1 <- W_hc_h_0
I0219 00:18:36.750814 21566 net.cpp:391] lstm2_gate_input_1 <- W_xc_x_1
I0219 00:18:36.750823 21566 net.cpp:349] lstm2_gate_input_1 -> gate_input_1
I0219 00:18:36.750833 21566 net.cpp:123] Setting up lstm2_gate_input_1
I0219 00:18:36.750857 21566 net.cpp:130] Top shape: 1 16 8192 (131072)
I0219 00:18:36.750864 21566 layer_factory.hpp:74] Creating layer lstm2_unit_1
I0219 00:18:36.750871 21566 net.cpp:94] Creating Layer lstm2_unit_1
I0219 00:18:36.750877 21566 net.cpp:391] lstm2_unit_1 <- c_0
I0219 00:18:36.750882 21566 net.cpp:391] lstm2_unit_1 <- gate_input_1
I0219 00:18:36.750888 21566 net.cpp:391] lstm2_unit_1 <- cont_1_lstm2_cont_slice_0_split_1
I0219 00:18:36.750896 21566 net.cpp:349] lstm2_unit_1 -> c_1
I0219 00:18:36.750905 21566 net.cpp:349] lstm2_unit_1 -> h_1
I0219 00:18:36.750913 21566 net.cpp:123] Setting up lstm2_unit_1
I0219 00:18:36.750938 21566 net.cpp:130] Top shape: 1 16 2048 (32768)
I0219 00:18:36.750944 21566 net.cpp:130] Top shape: 1 16 2048 (32768)
I0219 00:18:36.750949 21566 layer_factory.hpp:74] Creating layer h_1_lstm2_unit_1_1_split
I0219 00:18:36.750957 21566 net.cpp:94] Creating Layer h_1_lstm2_unit_1_1_split
I0219 00:18:36.750962 21566 net.cpp:391] h_1_lstm2_unit_1_1_split <- h_1
I0219 00:18:36.750970 21566 net.cpp:349] h_1_lstm2_unit_1_1_split -> h_1_lstm2_unit_1_1_split_0
I0219 00:18:36.750977 21566 net.cpp:349] h_1_lstm2_unit_1_1_split -> h_1_lstm2_unit_1_1_split_1
I0219 00:18:36.750985 21566 net.cpp:123] Setting up h_1_lstm2_unit_1_1_split
I0219 00:18:36.750993 21566 net.cpp:130] Top shape: 1 16 2048 (32768)
I0219 00:18:36.750999 21566 net.cpp:130] Top shape: 1 16 2048 (32768)
I0219 00:18:36.751004 21566 layer_factory.hpp:74] Creating layer lstm2_h_conted_1
I0219 00:18:36.751013 21566 net.cpp:94] Creating Layer lstm2_h_conted_1
I0219 00:18:36.751019 21566 net.cpp:391] lstm2_h_conted_1 <- h_1_lstm2_unit_1_1_split_0
I0219 00:18:36.751025 21566 net.cpp:391] lstm2_h_conted_1 <- cont_2_lstm2_cont_slice_1_split_0
I0219 00:18:36.751034 21566 net.cpp:349] lstm2_h_conted_1 -> h_conted_1
I0219 00:18:36.751040 21566 net.cpp:123] Setting up lstm2_h_conted_1
I0219 00:18:36.751050 21566 net.cpp:130] Top shape: 1 16 2048 (32768)
I0219 00:18:36.751091 21566 layer_factory.hpp:74] Creating layer lstm2_transform_2
I0219 00:18:36.751102 21566 net.cpp:94] Creating Layer lstm2_transform_2
I0219 00:18:36.751107 21566 net.cpp:391] lstm2_transform_2 <- h_conted_1
I0219 00:18:36.751116 21566 net.cpp:349] lstm2_transform_2 -> W_hc_h_1
I0219 00:18:36.751124 21566 net.cpp:123] Setting up lstm2_transform_2
I0219 00:18:36.861577 21566 net.cpp:130] Top shape: 1 16 8192 (131072)
I0219 00:18:36.861608 21566 net.cpp:435] Sharing parameters 'W_hc' owned by layer 'lstm2_transform_1', param index 0
I0219 00:18:36.861615 21566 layer_factory.hpp:74] Creating layer lstm2_gate_input_2
I0219 00:18:36.861629 21566 net.cpp:94] Creating Layer lstm2_gate_input_2
I0219 00:18:36.861635 21566 net.cpp:391] lstm2_gate_input_2 <- W_hc_h_1
I0219 00:18:36.861644 21566 net.cpp:391] lstm2_gate_input_2 <- W_xc_x_2
I0219 00:18:36.861651 21566 net.cpp:349] lstm2_gate_input_2 -> gate_input_2
I0219 00:18:36.861662 21566 net.cpp:123] Setting up lstm2_gate_input_2
I0219 00:18:36.861673 21566 net.cpp:130] Top shape: 1 16 8192 (131072)
I0219 00:18:36.861690 21566 layer_factory.hpp:74] Creating layer lstm2_unit_2
I0219 00:18:36.861698 21566 net.cpp:94] Creating Layer lstm2_unit_2
I0219 00:18:36.861704 21566 net.cpp:391] lstm2_unit_2 <- c_1
I0219 00:18:36.861709 21566 net.cpp:391] lstm2_unit_2 <- gate_input_2
I0219 00:18:36.861716 21566 net.cpp:391] lstm2_unit_2 <- cont_2_lstm2_cont_slice_1_split_1
I0219 00:18:36.861721 21566 net.cpp:349] lstm2_unit_2 -> c_2
I0219 00:18:36.861735 21566 net.cpp:349] lstm2_unit_2 -> h_2
I0219 00:18:36.861745 21566 net.cpp:123] Setting up lstm2_unit_2
I0219 00:18:36.861768 21566 net.cpp:130] Top shape: 1 16 2048 (32768)
I0219 00:18:36.861773 21566 net.cpp:130] Top shape: 1 16 2048 (32768)
I0219 00:18:36.861778 21566 layer_factory.hpp:74] Creating layer h_2_lstm2_unit_2_1_split
I0219 00:18:36.861785 21566 net.cpp:94] Creating Layer h_2_lstm2_unit_2_1_split
I0219 00:18:36.861790 21566 net.cpp:391] h_2_lstm2_unit_2_1_split <- h_2
I0219 00:18:36.861796 21566 net.cpp:349] h_2_lstm2_unit_2_1_split -> h_2_lstm2_unit_2_1_split_0
I0219 00:18:36.861804 21566 net.cpp:349] h_2_lstm2_unit_2_1_split -> h_2_lstm2_unit_2_1_split_1
I0219 00:18:36.861811 21566 net.cpp:123] Setting up h_2_lstm2_unit_2_1_split
I0219 00:18:36.861820 21566 net.cpp:130] Top shape: 1 16 2048 (32768)
I0219 00:18:36.861825 21566 net.cpp:130] Top shape: 1 16 2048 (32768)
I0219 00:18:36.861830 21566 layer_factory.hpp:74] Creating layer lstm2_h_conted_2
I0219 00:18:36.861836 21566 net.cpp:94] Creating Layer lstm2_h_conted_2
I0219 00:18:36.861842 21566 net.cpp:391] lstm2_h_conted_2 <- h_2_lstm2_unit_2_1_split_0
I0219 00:18:36.861848 21566 net.cpp:391] lstm2_h_conted_2 <- cont_3_lstm2_cont_slice_2_split_0
I0219 00:18:36.861855 21566 net.cpp:349] lstm2_h_conted_2 -> h_conted_2
I0219 00:18:36.861862 21566 net.cpp:123] Setting up lstm2_h_conted_2
I0219 00:18:36.861868 21566 net.cpp:130] Top shape: 1 16 2048 (32768)
I0219 00:18:36.861873 21566 layer_factory.hpp:74] Creating layer lstm2_transform_3
I0219 00:18:36.861883 21566 net.cpp:94] Creating Layer lstm2_transform_3
I0219 00:18:36.861888 21566 net.cpp:391] lstm2_transform_3 <- h_conted_2
I0219 00:18:36.861896 21566 net.cpp:349] lstm2_transform_3 -> W_hc_h_2
I0219 00:18:36.861906 21566 net.cpp:123] Setting up lstm2_transform_3
I0219 00:18:36.972446 21566 net.cpp:130] Top shape: 1 16 8192 (131072)
I0219 00:18:36.972501 21566 net.cpp:435] Sharing parameters 'W_hc' owned by layer 'lstm2_transform_1', param index 0
I0219 00:18:36.972513 21566 layer_factory.hpp:74] Creating layer lstm2_gate_input_3
I0219 00:18:36.972533 21566 net.cpp:94] Creating Layer lstm2_gate_input_3
I0219 00:18:36.972544 21566 net.cpp:391] lstm2_gate_input_3 <- W_hc_h_2
I0219 00:18:36.972586 21566 net.cpp:391] lstm2_gate_input_3 <- W_xc_x_3
I0219 00:18:36.972600 21566 net.cpp:349] lstm2_gate_input_3 -> gate_input_3
I0219 00:18:36.972630 21566 net.cpp:123] Setting up lstm2_gate_input_3
I0219 00:18:36.972646 21566 net.cpp:130] Top shape: 1 16 8192 (131072)
I0219 00:18:36.972654 21566 layer_factory.hpp:74] Creating layer lstm2_unit_3
I0219 00:18:36.972702 21566 net.cpp:94] Creating Layer lstm2_unit_3
I0219 00:18:36.972726 21566 net.cpp:391] lstm2_unit_3 <- c_2
I0219 00:18:36.972748 21566 net.cpp:391] lstm2_unit_3 <- gate_input_3
I0219 00:18:36.972769 21566 net.cpp:391] lstm2_unit_3 <- cont_3_lstm2_cont_slice_2_split_1
I0219 00:18:36.972790 21566 net.cpp:349] lstm2_unit_3 -> c_3
I0219 00:18:36.972815 21566 net.cpp:349] lstm2_unit_3 -> h_3
I0219 00:18:36.972837 21566 net.cpp:123] Setting up lstm2_unit_3
I0219 00:18:36.972867 21566 net.cpp:130] Top shape: 1 16 2048 (32768)
I0219 00:18:36.972878 21566 net.cpp:130] Top shape: 1 16 2048 (32768)
I0219 00:18:36.972885 21566 layer_factory.hpp:74] Creating layer h_3_lstm2_unit_3_1_split
I0219 00:18:36.972895 21566 net.cpp:94] Creating Layer h_3_lstm2_unit_3_1_split
I0219 00:18:36.972918 21566 net.cpp:391] h_3_lstm2_unit_3_1_split <- h_3
I0219 00:18:36.972930 21566 net.cpp:349] h_3_lstm2_unit_3_1_split -> h_3_lstm2_unit_3_1_split_0
I0219 00:18:36.972955 21566 net.cpp:349] h_3_lstm2_unit_3_1_split -> h_3_lstm2_unit_3_1_split_1
I0219 00:18:36.972966 21566 net.cpp:123] Setting up h_3_lstm2_unit_3_1_split
I0219 00:18:36.972990 21566 net.cpp:130] Top shape: 1 16 2048 (32768)
I0219 00:18:36.973009 21566 net.cpp:130] Top shape: 1 16 2048 (32768)
I0219 00:18:36.973027 21566 layer_factory.hpp:74] Creating layer lstm2_h_conted_3
I0219 00:18:36.973039 21566 net.cpp:94] Creating Layer lstm2_h_conted_3
I0219 00:18:36.973047 21566 net.cpp:391] lstm2_h_conted_3 <- h_3_lstm2_unit_3_1_split_0
I0219 00:18:36.973055 21566 net.cpp:391] lstm2_h_conted_3 <- cont_4_lstm2_cont_slice_3_split_0
I0219 00:18:36.973080 21566 net.cpp:349] lstm2_h_conted_3 -> h_conted_3
I0219 00:18:36.973104 21566 net.cpp:123] Setting up lstm2_h_conted_3
I0219 00:18:36.973116 21566 net.cpp:130] Top shape: 1 16 2048 (32768)
I0219 00:18:36.973135 21566 layer_factory.hpp:74] Creating layer lstm2_transform_4
I0219 00:18:36.973160 21566 net.cpp:94] Creating Layer lstm2_transform_4
I0219 00:18:36.973168 21566 net.cpp:391] lstm2_transform_4 <- h_conted_3
I0219 00:18:36.973179 21566 net.cpp:349] lstm2_transform_4 -> W_hc_h_3
I0219 00:18:36.973209 21566 net.cpp:123] Setting up lstm2_transform_4
I0219 00:18:37.077941 21566 net.cpp:130] Top shape: 1 16 8192 (131072)
I0219 00:18:37.077976 21566 net.cpp:435] Sharing parameters 'W_hc' owned by layer 'lstm2_transform_1', param index 0
I0219 00:18:37.077983 21566 layer_factory.hpp:74] Creating layer lstm2_gate_input_4
I0219 00:18:37.077997 21566 net.cpp:94] Creating Layer lstm2_gate_input_4
I0219 00:18:37.078004 21566 net.cpp:391] lstm2_gate_input_4 <- W_hc_h_3
I0219 00:18:37.078027 21566 net.cpp:391] lstm2_gate_input_4 <- W_xc_x_4
I0219 00:18:37.078035 21566 net.cpp:349] lstm2_gate_input_4 -> gate_input_4
I0219 00:18:37.078047 21566 net.cpp:123] Setting up lstm2_gate_input_4
I0219 00:18:37.078058 21566 net.cpp:130] Top shape: 1 16 8192 (131072)
I0219 00:18:37.078061 21566 layer_factory.hpp:74] Creating layer lstm2_unit_4
I0219 00:18:37.078068 21566 net.cpp:94] Creating Layer lstm2_unit_4
I0219 00:18:37.078073 21566 net.cpp:391] lstm2_unit_4 <- c_3
I0219 00:18:37.078093 21566 net.cpp:391] lstm2_unit_4 <- gate_input_4
I0219 00:18:37.078099 21566 net.cpp:391] lstm2_unit_4 <- cont_4_lstm2_cont_slice_3_split_1
I0219 00:18:37.078105 21566 net.cpp:349] lstm2_unit_4 -> c_4
I0219 00:18:37.078114 21566 net.cpp:349] lstm2_unit_4 -> h_4
I0219 00:18:37.078119 21566 net.cpp:123] Setting up lstm2_unit_4
I0219 00:18:37.078127 21566 net.cpp:130] Top shape: 1 16 2048 (32768)
I0219 00:18:37.078135 21566 net.cpp:130] Top shape: 1 16 2048 (32768)
I0219 00:18:37.078151 21566 layer_factory.hpp:74] Creating layer h_4_lstm2_unit_4_1_split
I0219 00:18:37.078161 21566 net.cpp:94] Creating Layer h_4_lstm2_unit_4_1_split
I0219 00:18:37.078164 21566 net.cpp:391] h_4_lstm2_unit_4_1_split <- h_4
I0219 00:18:37.078171 21566 net.cpp:349] h_4_lstm2_unit_4_1_split -> h_4_lstm2_unit_4_1_split_0
I0219 00:18:37.078178 21566 net.cpp:349] h_4_lstm2_unit_4_1_split -> h_4_lstm2_unit_4_1_split_1
I0219 00:18:37.078192 21566 net.cpp:123] Setting up h_4_lstm2_unit_4_1_split
I0219 00:18:37.078235 21566 net.cpp:130] Top shape: 1 16 2048 (32768)
I0219 00:18:37.078243 21566 net.cpp:130] Top shape: 1 16 2048 (32768)
I0219 00:18:37.078248 21566 layer_factory.hpp:74] Creating layer lstm2_h_conted_4
I0219 00:18:37.078256 21566 net.cpp:94] Creating Layer lstm2_h_conted_4
I0219 00:18:37.078275 21566 net.cpp:391] lstm2_h_conted_4 <- h_4_lstm2_unit_4_1_split_0
I0219 00:18:37.078281 21566 net.cpp:391] lstm2_h_conted_4 <- cont_5_lstm2_cont_slice_4_split_0
I0219 00:18:37.078289 21566 net.cpp:349] lstm2_h_conted_4 -> h_conted_4
I0219 00:18:37.078296 21566 net.cpp:123] Setting up lstm2_h_conted_4
I0219 00:18:37.078304 21566 net.cpp:130] Top shape: 1 16 2048 (32768)
I0219 00:18:37.078310 21566 layer_factory.hpp:74] Creating layer lstm2_transform_5
I0219 00:18:37.078328 21566 net.cpp:94] Creating Layer lstm2_transform_5
I0219 00:18:37.078337 21566 net.cpp:391] lstm2_transform_5 <- h_conted_4
I0219 00:18:37.078348 21566 net.cpp:349] lstm2_transform_5 -> W_hc_h_4
I0219 00:18:37.078361 21566 net.cpp:123] Setting up lstm2_transform_5
I0219 00:18:37.176888 21566 net.cpp:130] Top shape: 1 16 8192 (131072)
I0219 00:18:37.176939 21566 net.cpp:435] Sharing parameters 'W_hc' owned by layer 'lstm2_transform_1', param index 0
I0219 00:18:37.176945 21566 layer_factory.hpp:74] Creating layer lstm2_gate_input_5
I0219 00:18:37.176960 21566 net.cpp:94] Creating Layer lstm2_gate_input_5
I0219 00:18:37.176967 21566 net.cpp:391] lstm2_gate_input_5 <- W_hc_h_4
I0219 00:18:37.176975 21566 net.cpp:391] lstm2_gate_input_5 <- W_xc_x_5
I0219 00:18:37.176983 21566 net.cpp:349] lstm2_gate_input_5 -> gate_input_5
I0219 00:18:37.177011 21566 net.cpp:123] Setting up lstm2_gate_input_5
I0219 00:18:37.177019 21566 net.cpp:130] Top shape: 1 16 8192 (131072)
I0219 00:18:37.177024 21566 layer_factory.hpp:74] Creating layer lstm2_unit_5
I0219 00:18:37.177031 21566 net.cpp:94] Creating Layer lstm2_unit_5
I0219 00:18:37.177037 21566 net.cpp:391] lstm2_unit_5 <- c_4
I0219 00:18:37.177042 21566 net.cpp:391] lstm2_unit_5 <- gate_input_5
I0219 00:18:37.177047 21566 net.cpp:391] lstm2_unit_5 <- cont_5_lstm2_cont_slice_4_split_1
I0219 00:18:37.177054 21566 net.cpp:349] lstm2_unit_5 -> c_5
I0219 00:18:37.177075 21566 net.cpp:349] lstm2_unit_5 -> h_5
I0219 00:18:37.177083 21566 net.cpp:123] Setting up lstm2_unit_5
I0219 00:18:37.177090 21566 net.cpp:130] Top shape: 1 16 2048 (32768)
I0219 00:18:37.177096 21566 net.cpp:130] Top shape: 1 16 2048 (32768)
I0219 00:18:37.177100 21566 layer_factory.hpp:74] Creating layer h_5_lstm2_unit_5_1_split
I0219 00:18:37.177108 21566 net.cpp:94] Creating Layer h_5_lstm2_unit_5_1_split
I0219 00:18:37.177115 21566 net.cpp:391] h_5_lstm2_unit_5_1_split <- h_5
I0219 00:18:37.177122 21566 net.cpp:349] h_5_lstm2_unit_5_1_split -> h_5_lstm2_unit_5_1_split_0
I0219 00:18:37.177129 21566 net.cpp:349] h_5_lstm2_unit_5_1_split -> h_5_lstm2_unit_5_1_split_1
I0219 00:18:37.177137 21566 net.cpp:123] Setting up h_5_lstm2_unit_5_1_split
I0219 00:18:37.177145 21566 net.cpp:130] Top shape: 1 16 2048 (32768)
I0219 00:18:37.177151 21566 net.cpp:130] Top shape: 1 16 2048 (32768)
I0219 00:18:37.177156 21566 layer_factory.hpp:74] Creating layer lstm2_h_conted_5
I0219 00:18:37.177162 21566 net.cpp:94] Creating Layer lstm2_h_conted_5
I0219 00:18:37.177168 21566 net.cpp:391] lstm2_h_conted_5 <- h_5_lstm2_unit_5_1_split_0
I0219 00:18:37.177175 21566 net.cpp:391] lstm2_h_conted_5 <- cont_6_lstm2_cont_slice_5_split_0
I0219 00:18:37.177181 21566 net.cpp:349] lstm2_h_conted_5 -> h_conted_5
I0219 00:18:37.177188 21566 net.cpp:123] Setting up lstm2_h_conted_5
I0219 00:18:37.177196 21566 net.cpp:130] Top shape: 1 16 2048 (32768)
I0219 00:18:37.177201 21566 layer_factory.hpp:74] Creating layer lstm2_transform_6
I0219 00:18:37.177211 21566 net.cpp:94] Creating Layer lstm2_transform_6
I0219 00:18:37.177217 21566 net.cpp:391] lstm2_transform_6 <- h_conted_5
I0219 00:18:37.177224 21566 net.cpp:349] lstm2_transform_6 -> W_hc_h_5
I0219 00:18:37.177232 21566 net.cpp:123] Setting up lstm2_transform_6
I0219 00:18:37.275679 21566 net.cpp:130] Top shape: 1 16 8192 (131072)
I0219 00:18:37.275774 21566 net.cpp:435] Sharing parameters 'W_hc' owned by layer 'lstm2_transform_1', param index 0
I0219 00:18:37.275780 21566 layer_factory.hpp:74] Creating layer lstm2_gate_input_6
I0219 00:18:37.275807 21566 net.cpp:94] Creating Layer lstm2_gate_input_6
I0219 00:18:37.275815 21566 net.cpp:391] lstm2_gate_input_6 <- W_hc_h_5
I0219 00:18:37.275822 21566 net.cpp:391] lstm2_gate_input_6 <- W_xc_x_6
I0219 00:18:37.275830 21566 net.cpp:349] lstm2_gate_input_6 -> gate_input_6
I0219 00:18:37.275842 21566 net.cpp:123] Setting up lstm2_gate_input_6
I0219 00:18:37.275851 21566 net.cpp:130] Top shape: 1 16 8192 (131072)
I0219 00:18:37.275856 21566 layer_factory.hpp:74] Creating layer lstm2_unit_6
I0219 00:18:37.275863 21566 net.cpp:94] Creating Layer lstm2_unit_6
I0219 00:18:37.275871 21566 net.cpp:391] lstm2_unit_6 <- c_5
I0219 00:18:37.275888 21566 net.cpp:391] lstm2_unit_6 <- gate_input_6
I0219 00:18:37.275894 21566 net.cpp:391] lstm2_unit_6 <- cont_6_lstm2_cont_slice_5_split_1
I0219 00:18:37.275902 21566 net.cpp:349] lstm2_unit_6 -> c_6
I0219 00:18:37.275908 21566 net.cpp:349] lstm2_unit_6 -> h_6
I0219 00:18:37.275915 21566 net.cpp:123] Setting up lstm2_unit_6
I0219 00:18:37.275923 21566 net.cpp:130] Top shape: 1 16 2048 (32768)
I0219 00:18:37.275928 21566 net.cpp:130] Top shape: 1 16 2048 (32768)
I0219 00:18:37.275933 21566 layer_factory.hpp:74] Creating layer h_6_lstm2_unit_6_1_split
I0219 00:18:37.275952 21566 net.cpp:94] Creating Layer h_6_lstm2_unit_6_1_split
I0219 00:18:37.275957 21566 net.cpp:391] h_6_lstm2_unit_6_1_split <- h_6
I0219 00:18:37.275964 21566 net.cpp:349] h_6_lstm2_unit_6_1_split -> h_6_lstm2_unit_6_1_split_0
I0219 00:18:37.275970 21566 net.cpp:349] h_6_lstm2_unit_6_1_split -> h_6_lstm2_unit_6_1_split_1
I0219 00:18:37.275976 21566 net.cpp:123] Setting up h_6_lstm2_unit_6_1_split
I0219 00:18:37.275984 21566 net.cpp:130] Top shape: 1 16 2048 (32768)
I0219 00:18:37.275988 21566 net.cpp:130] Top shape: 1 16 2048 (32768)
I0219 00:18:37.275993 21566 layer_factory.hpp:74] Creating layer lstm2_h_conted_6
I0219 00:18:37.276002 21566 net.cpp:94] Creating Layer lstm2_h_conted_6
I0219 00:18:37.276007 21566 net.cpp:391] lstm2_h_conted_6 <- h_6_lstm2_unit_6_1_split_0
I0219 00:18:37.276012 21566 net.cpp:391] lstm2_h_conted_6 <- cont_7_lstm2_cont_slice_6_split_0
I0219 00:18:37.276021 21566 net.cpp:349] lstm2_h_conted_6 -> h_conted_6
I0219 00:18:37.276026 21566 net.cpp:123] Setting up lstm2_h_conted_6
I0219 00:18:37.276033 21566 net.cpp:130] Top shape: 1 16 2048 (32768)
I0219 00:18:37.276041 21566 layer_factory.hpp:74] Creating layer lstm2_transform_7
I0219 00:18:37.276051 21566 net.cpp:94] Creating Layer lstm2_transform_7
I0219 00:18:37.276057 21566 net.cpp:391] lstm2_transform_7 <- h_conted_6
I0219 00:18:37.276064 21566 net.cpp:349] lstm2_transform_7 -> W_hc_h_6
I0219 00:18:37.276072 21566 net.cpp:123] Setting up lstm2_transform_7
I0219 00:18:37.374028 21566 net.cpp:130] Top shape: 1 16 8192 (131072)
I0219 00:18:37.374069 21566 net.cpp:435] Sharing parameters 'W_hc' owned by layer 'lstm2_transform_1', param index 0
I0219 00:18:37.374079 21566 layer_factory.hpp:74] Creating layer lstm2_gate_input_7
I0219 00:18:37.374097 21566 net.cpp:94] Creating Layer lstm2_gate_input_7
I0219 00:18:37.374109 21566 net.cpp:391] lstm2_gate_input_7 <- W_hc_h_6
I0219 00:18:37.374151 21566 net.cpp:391] lstm2_gate_input_7 <- W_xc_x_7
I0219 00:18:37.374166 21566 net.cpp:349] lstm2_gate_input_7 -> gate_input_7
I0219 00:18:37.374196 21566 net.cpp:123] Setting up lstm2_gate_input_7
I0219 00:18:37.374210 21566 net.cpp:130] Top shape: 1 16 8192 (131072)
I0219 00:18:37.374229 21566 layer_factory.hpp:74] Creating layer lstm2_unit_7
I0219 00:18:37.374243 21566 net.cpp:94] Creating Layer lstm2_unit_7
I0219 00:18:37.374310 21566 net.cpp:391] lstm2_unit_7 <- c_6
I0219 00:18:37.374336 21566 net.cpp:391] lstm2_unit_7 <- gate_input_7
I0219 00:18:37.374359 21566 net.cpp:391] lstm2_unit_7 <- cont_7_lstm2_cont_slice_6_split_1
I0219 00:18:37.374385 21566 net.cpp:349] lstm2_unit_7 -> c_7
I0219 00:18:37.374433 21566 net.cpp:349] lstm2_unit_7 -> h_7
I0219 00:18:37.374475 21566 net.cpp:123] Setting up lstm2_unit_7
I0219 00:18:37.374490 21566 net.cpp:130] Top shape: 1 16 2048 (32768)
I0219 00:18:37.374516 21566 net.cpp:130] Top shape: 1 16 2048 (32768)
I0219 00:18:37.374537 21566 layer_factory.hpp:74] Creating layer h_7_lstm2_unit_7_1_split
I0219 00:18:37.374550 21566 net.cpp:94] Creating Layer h_7_lstm2_unit_7_1_split
I0219 00:18:37.374558 21566 net.cpp:391] h_7_lstm2_unit_7_1_split <- h_7
I0219 00:18:37.374585 21566 net.cpp:349] h_7_lstm2_unit_7_1_split -> h_7_lstm2_unit_7_1_split_0
I0219 00:18:37.374601 21566 net.cpp:349] h_7_lstm2_unit_7_1_split -> h_7_lstm2_unit_7_1_split_1
I0219 00:18:37.374614 21566 net.cpp:123] Setting up h_7_lstm2_unit_7_1_split
I0219 00:18:37.374627 21566 net.cpp:130] Top shape: 1 16 2048 (32768)
I0219 00:18:37.374637 21566 net.cpp:130] Top shape: 1 16 2048 (32768)
I0219 00:18:37.374645 21566 layer_factory.hpp:74] Creating layer lstm2_h_conted_7
I0219 00:18:37.374656 21566 net.cpp:94] Creating Layer lstm2_h_conted_7
I0219 00:18:37.374680 21566 net.cpp:391] lstm2_h_conted_7 <- h_7_lstm2_unit_7_1_split_0
I0219 00:18:37.374704 21566 net.cpp:391] lstm2_h_conted_7 <- cont_8_lstm2_cont_slice_7_split_0
I0219 00:18:37.374717 21566 net.cpp:349] lstm2_h_conted_7 -> h_conted_7
I0219 00:18:37.374730 21566 net.cpp:123] Setting up lstm2_h_conted_7
I0219 00:18:37.374743 21566 net.cpp:130] Top shape: 1 16 2048 (32768)
I0219 00:18:37.374752 21566 layer_factory.hpp:74] Creating layer lstm2_transform_8
I0219 00:18:37.374783 21566 net.cpp:94] Creating Layer lstm2_transform_8
I0219 00:18:37.374806 21566 net.cpp:391] lstm2_transform_8 <- h_conted_7
I0219 00:18:37.374820 21566 net.cpp:349] lstm2_transform_8 -> W_hc_h_7
I0219 00:18:37.374845 21566 net.cpp:123] Setting up lstm2_transform_8
I0219 00:18:37.475793 21566 net.cpp:130] Top shape: 1 16 8192 (131072)
I0219 00:18:37.475837 21566 net.cpp:435] Sharing parameters 'W_hc' owned by layer 'lstm2_transform_1', param index 0
I0219 00:18:37.475852 21566 layer_factory.hpp:74] Creating layer lstm2_gate_input_8
I0219 00:18:37.475878 21566 net.cpp:94] Creating Layer lstm2_gate_input_8
I0219 00:18:37.475896 21566 net.cpp:391] lstm2_gate_input_8 <- W_hc_h_7
I0219 00:18:37.475915 21566 net.cpp:391] lstm2_gate_input_8 <- W_xc_x_8
I0219 00:18:37.475935 21566 net.cpp:349] lstm2_gate_input_8 -> gate_input_8
I0219 00:18:37.475965 21566 net.cpp:123] Setting up lstm2_gate_input_8
I0219 00:18:37.475980 21566 net.cpp:130] Top shape: 1 16 8192 (131072)
I0219 00:18:37.475985 21566 layer_factory.hpp:74] Creating layer lstm2_unit_8
I0219 00:18:37.475994 21566 net.cpp:94] Creating Layer lstm2_unit_8
I0219 00:18:37.476001 21566 net.cpp:391] lstm2_unit_8 <- c_7
I0219 00:18:37.476019 21566 net.cpp:391] lstm2_unit_8 <- gate_input_8
I0219 00:18:37.476027 21566 net.cpp:391] lstm2_unit_8 <- cont_8_lstm2_cont_slice_7_split_1
I0219 00:18:37.476034 21566 net.cpp:349] lstm2_unit_8 -> c_8
I0219 00:18:37.476044 21566 net.cpp:349] lstm2_unit_8 -> h_8
I0219 00:18:37.476052 21566 net.cpp:123] Setting up lstm2_unit_8
I0219 00:18:37.476059 21566 net.cpp:130] Top shape: 1 16 2048 (32768)
I0219 00:18:37.476066 21566 net.cpp:130] Top shape: 1 16 2048 (32768)
I0219 00:18:37.476071 21566 layer_factory.hpp:74] Creating layer lstm2_
I0219 00:18:37.476079 21566 net.cpp:94] Creating Layer lstm2_
I0219 00:18:37.476084 21566 net.cpp:391] lstm2_ <- c_8
I0219 00:18:37.476091 21566 net.cpp:349] lstm2_ -> c_T
I0219 00:18:37.476097 21566 net.cpp:123] Setting up lstm2_
I0219 00:18:37.476105 21566 net.cpp:130] Top shape: 1 16 2048 (32768)
I0219 00:18:37.476109 21566 layer_factory.hpp:74] Creating layer lstm2_h_concat
I0219 00:18:37.476122 21566 net.cpp:94] Creating Layer lstm2_h_concat
I0219 00:18:37.476127 21566 net.cpp:391] lstm2_h_concat <- h_1_lstm2_unit_1_1_split_1
I0219 00:18:37.476133 21566 net.cpp:391] lstm2_h_concat <- h_2_lstm2_unit_2_1_split_1
I0219 00:18:37.476141 21566 net.cpp:391] lstm2_h_concat <- h_3_lstm2_unit_3_1_split_1
I0219 00:18:37.476150 21566 net.cpp:391] lstm2_h_concat <- h_4_lstm2_unit_4_1_split_1
I0219 00:18:37.476153 21566 net.cpp:391] lstm2_h_concat <- h_5_lstm2_unit_5_1_split_1
I0219 00:18:37.476191 21566 net.cpp:391] lstm2_h_concat <- h_6_lstm2_unit_6_1_split_1
I0219 00:18:37.476197 21566 net.cpp:391] lstm2_h_concat <- h_7_lstm2_unit_7_1_split_1
I0219 00:18:37.476202 21566 net.cpp:391] lstm2_h_concat <- h_8
I0219 00:18:37.476209 21566 net.cpp:349] lstm2_h_concat -> h
I0219 00:18:37.476217 21566 net.cpp:123] Setting up lstm2_h_concat
I0219 00:18:37.476227 21566 net.cpp:130] Top shape: 8 16 2048 (262144)
I0219 00:18:37.476233 21566 net.cpp:179] lstm2_h_concat does not need backward computation.
I0219 00:18:37.476239 21566 net.cpp:179] lstm2_ does not need backward computation.
I0219 00:18:37.476243 21566 net.cpp:179] lstm2_unit_8 does not need backward computation.
I0219 00:18:37.476248 21566 net.cpp:179] lstm2_gate_input_8 does not need backward computation.
I0219 00:18:37.476253 21566 net.cpp:179] lstm2_transform_8 does not need backward computation.
…
