…
I0218 17:13:17.798355 14778 net.cpp:268] The NetState phase (0) differed from the phase (1) specified by a rule in layer loss
I0218 17:13:17.798583 14778 net.cpp:52] Initializing net from parameters: 
name: "TORCS_Net"
state {
  phase: TRAIN
}
layer {
  name: "data"
  type: "DataLstmTrainHist"
  top: "data"
  top: "label"
  top: "hist"
  top: "marker"
  include {
    phase: TRAIN
  }
  data_lstm_train_hist_param {
    source: "nonparametric/data/TORCS_smooth_np_train"
    sequence_size: 8
    sequence_num: 16
    interval: 200
    mean_file: "nonparametric/data/TORCS_smooth_np_train_mean.binaryproto"
  }
}
layer {
  name: "conv1"
  type: "Convolution"
  bottom: "data"
  top: "conv1"
  param {
    lr_mult: 1
    decay_mult: 1
  }
  param {
    lr_mult: 2
    decay_mult: 0
  }
  convolution_param {
    num_output: 96
    kernel_size: 11
    stride: 4
    weight_filler {
      type: "gaussian"
      std: 0.01
    }
    bias_filler {
      type: "constant"
      value: 0
    }
  }
}
layer {
  name: "relu1"
  type: "ReLU"
  bottom: "conv1"
  top: "conv1"
}
layer {
  name: "pool1"
  type: "Pooling"
  bottom: "conv1"
  top: "pool1"
  pooling_param {
    pool: MAX
    kernel_size: 3
    stride: 2
  }
}
layer {
  name: "norm1"
  type: "LRN"
  bottom: "pool1"
  top: "norm1"
  lrn_param {
    local_size: 5
    alpha: 0.0001
    beta: 0.75
  }
}
layer {
  name: "conv2"
  type: "Convolution"
  bottom: "norm1"
  top: "conv2"
  param {
    lr_mult: 1
    decay_mult: 1
  }
  param {
    lr_mult: 2
    decay_mult: 0
  }
  convolution_param {
    num_output: 256
    pad: 2
    kernel_size: 5
    group: 2
    weight_filler {
      type: "gaussian"
      std: 0.01
    }
    bias_filler {
      type: "constant"
      value: 1
    }
  }
}
layer {
  name: "relu2"
  type: "ReLU"
  bottom: "conv2"
  top: "conv2"
}
layer {
  name: "pool2"
  type: "Pooling"
  bottom: "conv2"
  top: "pool2"
  pooling_param {
    pool: MAX
    kernel_size: 3
    stride: 2
  }
}
layer {
  name: "norm2"
  type: "LRN"
  bottom: "pool2"
  top: "norm2"
  lrn_param {
    local_size: 5
    alpha: 0.0001
    beta: 0.75
  }
}
layer {
  name: "conv3"
  type: "Convolution"
  bottom: "norm2"
  top: "conv3"
  param {
    lr_mult: 1
    decay_mult: 1
  }
  param {
    lr_mult: 2
    decay_mult: 0
  }
  convolution_param {
    num_output: 384
    pad: 1
    kernel_size: 3
    weight_filler {
      type: "gaussian"
      std: 0.01
    }
    bias_filler {
      type: "constant"
      value: 0
    }
  }
}
layer {
  name: "relu3"
  type: "ReLU"
  bottom: "conv3"
  top: "conv3"
}
layer {
  name: "conv4"
  type: "Convolution"
  bottom: "conv3"
  top: "conv4"
  param {
    lr_mult: 1
    decay_mult: 1
  }
  param {
    lr_mult: 2
    decay_mult: 0
  }
  convolution_param {
    num_output: 384
    pad: 1
    kernel_size: 3
    group: 2
    weight_filler {
      type: "gaussian"
      std: 0.01
    }
    bias_filler {
      type: "constant"
      value: 1
    }
  }
}
layer {
  name: "relu4"
  type: "ReLU"
  bottom: "conv4"
  top: "conv4"
}
layer {
  name: "conv5"
  type: "Convolution"
  bottom: "conv4"
  top: "conv5"
  param {
    lr_mult: 1
    decay_mult: 1
  }
  param {
    lr_mult: 2
    decay_mult: 0
  }
  convolution_param {
    num_output: 256
    pad: 1
    kernel_size: 3
    group: 2
    weight_filler {
      type: "gaussian"
      std: 0.01
    }
    bias_filler {
      type: "constant"
      value: 1
    }
  }
}
layer {
  name: "relu5"
  type: "ReLU"
  bottom: "conv5"
  top: "conv5"
}
layer {
  name: "pool5"
  type: "Pooling"
  bottom: "conv5"
  top: "pool5"
  pooling_param {
    pool: MAX
    kernel_size: 3
    stride: 2
  }
}
layer {
  name: "fc6"
  type: "InnerProduct"
  bottom: "pool5"
  top: "fc6"
  param {
    lr_mult: 1
    decay_mult: 1
  }
  param {
    lr_mult: 2
    decay_mult: 0
  }
  inner_product_param {
    num_output: 4096
    weight_filler {
      type: "gaussian"
      std: 0.005
    }
    bias_filler {
      type: "constant"
      value: 1
    }
  }
}
layer {
  name: "relu6"
  type: "ReLU"
  bottom: "fc6"
  top: "fc6"
}
layer {
  name: "drop6"
  type: "Dropout"
  bottom: "fc6"
  top: "fc6"
  dropout_param {
    dropout_ratio: 0.5
  }
}
layer {
  name: "reshape-fc6"
  type: "Reshape"
  bottom: "fc6"
  top: "reshape-fc6"
  reshape_param {
    shape {
      dim: 8
      dim: 16
      dim: 4096
    }
  }
}
layer {
  name: "reshape-label"
  type: "Reshape"
  bottom: "label"
  top: "reshape-label"
  reshape_param {
    shape {
      dim: 8
      dim: 16
      dim: 14
    }
  }
}
layer {
  name: "reshape-hist"
  type: "Reshape"
  bottom: "hist"
  top: "reshape-hist"
  reshape_param {
    shape {
      dim: 8
      dim: 16
      dim: 14
    }
  }
}
layer {
  name: "reshape-marker"
  type: "Reshape"
  bottom: "marker"
  top: "reshape-marker"
  reshape_param {
    shape {
      dim: 8
      dim: 16
    }
  }
}
layer {
  name: "lstm1"
  type: "LSTM"
  bottom: "reshape-hist"
  bottom: "reshape-marker"
  top: "lstm1"
  recurrent_param {
    num_output: 128
    weight_filler {
      type: "uniform"
      min: -0.01
      max: 0.01
    }
    bias_filler {
      type: "constant"
      value: 0
    }
  }
}
layer {
  name: "lstm1-drop"
  type: "Dropout"
  bottom: "lstm1"
  top: "lstm1"
  dropout_param {
    dropout_ratio: 0.5
  }
}
layer {
  name: "concat"
  type: "Concat"
  bottom: "reshape-fc6"
  bottom: "lstm1"
  top: "concat-data"
  concat_param {
    axis: 2
  }
}
layer {
  name: "lstm2"
  type: "LSTM"
  bottom: "concat-data"
  bottom: "reshape-marker"
  top: "lstm2"
  recurrent_param {
    num_output: 2048
    weight_filler {
      type: "uniform"
      min: -0.01
      max: 0.01
    }
    bias_filler {
      type: "constant"
      value: 0
    }
  }
}
layer {
  name: "lstm2-drop"
  type: "Dropout"
  bottom: "lstm2"
  top: "lstm2"
  dropout_param {
    dropout_ratio: 0.5
  }
}
layer {
  name: "fc9c"
  type: "InnerProduct"
  bottom: "lstm2"
  top: "fc9c"
  param {
    lr_mult: 1
    decay_mult: 1
  }
  param {
    lr_mult: 2
    decay_mult: 0
  }
  inner_product_param {
    num_output: 14
    weight_filler {
      type: "gaussian"
      std: 0.01
    }
    bias_filler {
      type: "constant"
      value: 0
    }
    axis: 2
  }
}
layer {
  name: "relu9"
  type: "Sigmoid"
  bottom: "fc9c"
  top: "fc9c"
}
layer {
  name: "loss"
  type: "EuclideanLossDriving"
  bottom: "fc9c"
  bottom: "reshape-label"
  top: "loss"
  include {
    phase: TRAIN
  }
}
I0218 17:13:17.798784 14778 layer_factory.hpp:74] Creating layer data
I0218 17:13:17.798807 14778 net.cpp:94] Creating Layer data
I0218 17:13:17.798817 14778 net.cpp:349] data -> data
I0218 17:13:17.798846 14778 net.cpp:349] data -> label
I0218 17:13:17.798861 14778 net.cpp:349] data -> hist
I0218 17:13:17.798869 14778 net.cpp:349] data -> marker
I0218 17:13:17.798878 14778 net.cpp:123] Setting up data
I0218 17:13:17.798907 14778 data_lstm_train_hist_layer.cpp:50] Opening leveldb nonparametric/data/TORCS_smooth_np_train
I0218 17:13:17.801919 14778 data_lstm_train_hist_layer.cpp:90] output data size: 128,3,210,280
I0218 17:13:17.801934 14778 data_lstm_train_hist_layer.cpp:107] Loading mean file from: nonparametric/data/TORCS_smooth_np_train_mean.binaryproto
I0218 17:13:17.834125 14778 net.cpp:130] Top shape: 128 3 210 280 (22579200)
I0218 17:13:17.834138 14778 net.cpp:130] Top shape: 128 1 1 14 (1792)
I0218 17:13:17.834144 14778 net.cpp:130] Top shape: 128 1 1 14 (1792)
I0218 17:13:17.834151 14778 net.cpp:130] Top shape: 128 1 1 1 (128)
I0218 17:13:17.834157 14778 layer_factory.hpp:74] Creating layer conv1
I0218 17:13:17.834199 14778 net.cpp:94] Creating Layer conv1
I0218 17:13:17.834208 14778 net.cpp:391] conv1 <- data
I0218 17:13:17.834219 14778 net.cpp:349] conv1 -> conv1
I0218 17:13:17.834233 14778 net.cpp:123] Setting up conv1
I0218 17:13:17.835526 14778 net.cpp:130] Top shape: 128 96 50 68 (41779200)
I0218 17:13:17.835544 14778 layer_factory.hpp:74] Creating layer relu1
I0218 17:13:17.835556 14778 net.cpp:94] Creating Layer relu1
I0218 17:13:17.835561 14778 net.cpp:391] relu1 <- conv1
I0218 17:13:17.835568 14778 net.cpp:338] relu1 -> conv1 (in-place)
I0218 17:13:17.835575 14778 net.cpp:123] Setting up relu1
I0218 17:13:17.835584 14778 net.cpp:130] Top shape: 128 96 50 68 (41779200)
I0218 17:13:17.835590 14778 layer_factory.hpp:74] Creating layer pool1
I0218 17:13:17.835597 14778 net.cpp:94] Creating Layer pool1
I0218 17:13:17.835602 14778 net.cpp:391] pool1 <- conv1
I0218 17:13:17.835609 14778 net.cpp:349] pool1 -> pool1
I0218 17:13:17.835618 14778 net.cpp:123] Setting up pool1
I0218 17:13:17.835643 14778 net.cpp:130] Top shape: 128 96 25 34 (10444800)
I0218 17:13:17.835650 14778 layer_factory.hpp:74] Creating layer norm1
I0218 17:13:17.835661 14778 net.cpp:94] Creating Layer norm1
I0218 17:13:17.835669 14778 net.cpp:391] norm1 <- pool1
I0218 17:13:17.835680 14778 net.cpp:349] norm1 -> norm1
I0218 17:13:17.835690 14778 net.cpp:123] Setting up norm1
I0218 17:13:17.835705 14778 net.cpp:130] Top shape: 128 96 25 34 (10444800)
I0218 17:13:17.835712 14778 layer_factory.hpp:74] Creating layer conv2
I0218 17:13:17.835721 14778 net.cpp:94] Creating Layer conv2
I0218 17:13:17.835726 14778 net.cpp:391] conv2 <- norm1
I0218 17:13:17.835732 14778 net.cpp:349] conv2 -> conv2
I0218 17:13:17.835741 14778 net.cpp:123] Setting up conv2
I0218 17:13:17.843621 14778 net.cpp:130] Top shape: 128 256 25 34 (27852800)
I0218 17:13:17.843636 14778 layer_factory.hpp:74] Creating layer relu2
I0218 17:13:17.843643 14778 net.cpp:94] Creating Layer relu2
I0218 17:13:17.843649 14778 net.cpp:391] relu2 <- conv2
I0218 17:13:17.843657 14778 net.cpp:338] relu2 -> conv2 (in-place)
I0218 17:13:17.843664 14778 net.cpp:123] Setting up relu2
I0218 17:13:17.843670 14778 net.cpp:130] Top shape: 128 256 25 34 (27852800)
I0218 17:13:17.843675 14778 layer_factory.hpp:74] Creating layer pool2
I0218 17:13:17.843683 14778 net.cpp:94] Creating Layer pool2
I0218 17:13:17.843688 14778 net.cpp:391] pool2 <- conv2
I0218 17:13:17.843693 14778 net.cpp:349] pool2 -> pool2
I0218 17:13:17.843701 14778 net.cpp:123] Setting up pool2
I0218 17:13:17.843713 14778 net.cpp:130] Top shape: 128 256 12 17 (6684672)
I0218 17:13:17.843718 14778 layer_factory.hpp:74] Creating layer norm2
I0218 17:13:17.843724 14778 net.cpp:94] Creating Layer norm2
I0218 17:13:17.843729 14778 net.cpp:391] norm2 <- pool2
I0218 17:13:17.843735 14778 net.cpp:349] norm2 -> norm2
I0218 17:13:17.843742 14778 net.cpp:123] Setting up norm2
I0218 17:13:17.843750 14778 net.cpp:130] Top shape: 128 256 12 17 (6684672)
I0218 17:13:17.843760 14778 layer_factory.hpp:74] Creating layer conv3
I0218 17:13:17.843767 14778 net.cpp:94] Creating Layer conv3
I0218 17:13:17.843772 14778 net.cpp:391] conv3 <- norm2
I0218 17:13:17.843780 14778 net.cpp:349] conv3 -> conv3
I0218 17:13:17.843786 14778 net.cpp:123] Setting up conv3
I0218 17:13:17.868149 14778 net.cpp:130] Top shape: 128 384 12 17 (10027008)
I0218 17:13:17.868166 14778 layer_factory.hpp:74] Creating layer relu3
I0218 17:13:17.868173 14778 net.cpp:94] Creating Layer relu3
I0218 17:13:17.868178 14778 net.cpp:391] relu3 <- conv3
I0218 17:13:17.868185 14778 net.cpp:338] relu3 -> conv3 (in-place)
I0218 17:13:17.868192 14778 net.cpp:123] Setting up relu3
I0218 17:13:17.868198 14778 net.cpp:130] Top shape: 128 384 12 17 (10027008)
I0218 17:13:17.868203 14778 layer_factory.hpp:74] Creating layer conv4
I0218 17:13:17.868211 14778 net.cpp:94] Creating Layer conv4
I0218 17:13:17.868216 14778 net.cpp:391] conv4 <- conv3
I0218 17:13:17.868221 14778 net.cpp:349] conv4 -> conv4
I0218 17:13:17.868229 14778 net.cpp:123] Setting up conv4
I0218 17:13:17.886523 14778 net.cpp:130] Top shape: 128 384 12 17 (10027008)
I0218 17:13:17.886548 14778 layer_factory.hpp:74] Creating layer relu4
I0218 17:13:17.886556 14778 net.cpp:94] Creating Layer relu4
I0218 17:13:17.886561 14778 net.cpp:391] relu4 <- conv4
I0218 17:13:17.886569 14778 net.cpp:338] relu4 -> conv4 (in-place)
I0218 17:13:17.886574 14778 net.cpp:123] Setting up relu4
I0218 17:13:17.886580 14778 net.cpp:130] Top shape: 128 384 12 17 (10027008)
I0218 17:13:17.886585 14778 layer_factory.hpp:74] Creating layer conv5
I0218 17:13:17.886592 14778 net.cpp:94] Creating Layer conv5
I0218 17:13:17.886597 14778 net.cpp:391] conv5 <- conv4
I0218 17:13:17.886605 14778 net.cpp:349] conv5 -> conv5
I0218 17:13:17.886611 14778 net.cpp:123] Setting up conv5
I0218 17:13:17.898768 14778 net.cpp:130] Top shape: 128 256 12 17 (6684672)
I0218 17:13:17.898784 14778 layer_factory.hpp:74] Creating layer relu5
I0218 17:13:17.898792 14778 net.cpp:94] Creating Layer relu5
I0218 17:13:17.898798 14778 net.cpp:391] relu5 <- conv5
I0218 17:13:17.898805 14778 net.cpp:338] relu5 -> conv5 (in-place)
I0218 17:13:17.898811 14778 net.cpp:123] Setting up relu5
I0218 17:13:17.898818 14778 net.cpp:130] Top shape: 128 256 12 17 (6684672)
I0218 17:13:17.898823 14778 layer_factory.hpp:74] Creating layer pool5
I0218 17:13:17.898828 14778 net.cpp:94] Creating Layer pool5
I0218 17:13:17.898833 14778 net.cpp:391] pool5 <- conv5
I0218 17:13:17.898839 14778 net.cpp:349] pool5 -> pool5
I0218 17:13:17.898846 14778 net.cpp:123] Setting up pool5
I0218 17:13:17.898854 14778 net.cpp:130] Top shape: 128 256 6 8 (1572864)
I0218 17:13:17.898865 14778 layer_factory.hpp:74] Creating layer fc6
I0218 17:13:17.898877 14778 net.cpp:94] Creating Layer fc6
I0218 17:13:17.898885 14778 net.cpp:391] fc6 <- pool5
I0218 17:13:17.898891 14778 net.cpp:349] fc6 -> fc6
I0218 17:13:17.898901 14778 net.cpp:123] Setting up fc6
I0218 17:13:19.192713 14778 net.cpp:130] Top shape: 128 4096 (524288)
I0218 17:13:19.192767 14778 layer_factory.hpp:74] Creating layer relu6
I0218 17:13:19.192786 14778 net.cpp:94] Creating Layer relu6
I0218 17:13:19.192795 14778 net.cpp:391] relu6 <- fc6
I0218 17:13:19.192803 14778 net.cpp:338] relu6 -> fc6 (in-place)
I0218 17:13:19.192824 14778 net.cpp:123] Setting up relu6
I0218 17:13:19.192831 14778 net.cpp:130] Top shape: 128 4096 (524288)
I0218 17:13:19.192836 14778 layer_factory.hpp:74] Creating layer drop6
I0218 17:13:19.192850 14778 net.cpp:94] Creating Layer drop6
I0218 17:13:19.192855 14778 net.cpp:391] drop6 <- fc6
I0218 17:13:19.192862 14778 net.cpp:338] drop6 -> fc6 (in-place)
I0218 17:13:19.192873 14778 net.cpp:123] Setting up drop6
I0218 17:13:19.192889 14778 net.cpp:130] Top shape: 128 4096 (524288)
I0218 17:13:19.192895 14778 layer_factory.hpp:74] Creating layer reshape-fc6
I0218 17:13:19.192906 14778 net.cpp:94] Creating Layer reshape-fc6
I0218 17:13:19.192914 14778 net.cpp:391] reshape-fc6 <- fc6
I0218 17:13:19.192924 14778 net.cpp:349] reshape-fc6 -> reshape-fc6
I0218 17:13:19.192935 14778 net.cpp:123] Setting up reshape-fc6
I0218 17:13:19.192948 14778 net.cpp:130] Top shape: 8 16 4096 (524288)
I0218 17:13:19.192955 14778 layer_factory.hpp:74] Creating layer reshape-label
I0218 17:13:19.192960 14778 net.cpp:94] Creating Layer reshape-label
I0218 17:13:19.192965 14778 net.cpp:391] reshape-label <- label
I0218 17:13:19.192971 14778 net.cpp:349] reshape-label -> reshape-label
I0218 17:13:19.192983 14778 net.cpp:123] Setting up reshape-label
I0218 17:13:19.192993 14778 net.cpp:130] Top shape: 8 16 14 (1792)
I0218 17:13:19.193001 14778 layer_factory.hpp:74] Creating layer reshape-hist
I0218 17:13:19.193008 14778 net.cpp:94] Creating Layer reshape-hist
I0218 17:13:19.193016 14778 net.cpp:391] reshape-hist <- hist
I0218 17:13:19.193022 14778 net.cpp:349] reshape-hist -> reshape-hist
I0218 17:13:19.193029 14778 net.cpp:123] Setting up reshape-hist
I0218 17:13:19.193037 14778 net.cpp:130] Top shape: 8 16 14 (1792)
I0218 17:13:19.193042 14778 layer_factory.hpp:74] Creating layer reshape-marker
I0218 17:13:19.193049 14778 net.cpp:94] Creating Layer reshape-marker
I0218 17:13:19.193083 14778 net.cpp:391] reshape-marker <- marker
I0218 17:13:19.193090 14778 net.cpp:349] reshape-marker -> reshape-marker
I0218 17:13:19.193097 14778 net.cpp:123] Setting up reshape-marker
I0218 17:13:19.193106 14778 net.cpp:130] Top shape: 8 16 (128)
I0218 17:13:19.193112 14778 layer_factory.hpp:74] Creating layer reshape-marker_reshape-marker_0_split
I0218 17:13:19.193123 14778 net.cpp:94] Creating Layer reshape-marker_reshape-marker_0_split
I0218 17:13:19.193130 14778 net.cpp:391] reshape-marker_reshape-marker_0_split <- reshape-marker
I0218 17:13:19.193135 14778 net.cpp:349] reshape-marker_reshape-marker_0_split -> reshape-marker_reshape-marker_0_split_0
I0218 17:13:19.193143 14778 net.cpp:349] reshape-marker_reshape-marker_0_split -> reshape-marker_reshape-marker_0_split_1
I0218 17:13:19.193152 14778 net.cpp:123] Setting up reshape-marker_reshape-marker_0_split
I0218 17:13:19.193161 14778 net.cpp:130] Top shape: 8 16 (128)
I0218 17:13:19.193167 14778 net.cpp:130] Top shape: 8 16 (128)
I0218 17:13:19.193172 14778 layer_factory.hpp:74] Creating layer lstm1
I0218 17:13:19.193182 14778 net.cpp:94] Creating Layer lstm1
I0218 17:13:19.193189 14778 net.cpp:391] lstm1 <- reshape-hist
I0218 17:13:19.193195 14778 net.cpp:391] lstm1 <- reshape-marker_reshape-marker_0_split_0
I0218 17:13:19.193202 14778 net.cpp:349] lstm1 -> lstm1
I0218 17:13:19.193212 14778 net.cpp:123] Setting up lstm1
I0218 17:13:19.193222 14778 recurrent_layer.cpp:27] Initializing recurrent layer: assuming input batch contains 8 timesteps of 16 independent streams.
I0218 17:13:19.193657 14778 net.cpp:52] Initializing net from parameters: 
input: "x"
input: "cont"
input: "c_0"
input: "h_0"
force_backward: true
input_shape {
  dim: 8
  dim: 16
  dim: 14
}
input_shape {
  dim: 1
  dim: 8
  dim: 16
}
input_shape {
  dim: 1
  dim: 16
  dim: 128
}
input_shape {
  dim: 1
  dim: 16
  dim: 128
}
layer {
  name: "lstm1_cont_slice"
  type: "Slice"
  bottom: "cont"
  top: "cont_1"
  top: "cont_2"
  top: "cont_3"
  top: "cont_4"
  top: "cont_5"
  top: "cont_6"
  top: "cont_7"
  top: "cont_8"
  slice_param {
    axis: 1
  }
}
layer {
  name: "lstm1_x_transform"
  type: "InnerProduct"
  bottom: "x"
  top: "W_xc_x"
  param {
    name: "W_xc"
  }
  param {
    name: "b_c"
  }
  inner_product_param {
    num_output: 512
    bias_term: true
    weight_filler {
      type: "uniform"
      min: -0.01
      max: 0.01
    }
    bias_filler {
      type: "constant"
      value: 0
    }
    axis: 2
  }
}
layer {
  name: "lstm1_W_xc_x_slice"
  type: "Slice"
  bottom: "W_xc_x"
  top: "W_xc_x_1"
  top: "W_xc_x_2"
  top: "W_xc_x_3"
  top: "W_xc_x_4"
  top: "W_xc_x_5"
  top: "W_xc_x_6"
  top: "W_xc_x_7"
  top: "W_xc_x_8"
  slice_param {
    axis: 0
  }
}
layer {
  name: "lstm1_h_conted_0"
  type: "Eltwise"
  bottom: "h_0"
  bottom: "cont_1"
  top: "h_conted_0"
  eltwise_param {
    operation: SUM
    coeff_blob: true
  }
}
layer {
  name: "lstm1_transform_1"
  type: "InnerProduct"
  bottom: "h_conted_0"
  top: "W_hc_h_0"
  param {
    name: "W_hc"
  }
  inner_product_param {
    num_output: 512
    bias_term: false
    weight_filler {
      type: "uniform"
      min: -0.01
      max: 0.01
    }
    axis: 2
  }
}
layer {
  name: "lstm1_gate_input_1"
  type: "Eltwise"
  bottom: "W_hc_h_0"
  bottom: "W_xc_x_1"
  top: "gate_input_1"
  eltwise_param {
    operation: SUM
  }
}
layer {
  name: "lstm1_unit_1"
  type: "LSTMUnit"
  bottom: "c_0"
  bottom: "gate_input_1"
  bottom: "cont_1"
  top: "c_1"
  top: "h_1"
}
layer {
  name: "lstm1_h_conted_1"
  type: "Eltwise"
  bottom: "h_1"
  bottom: "cont_2"
  top: "h_conted_1"
  eltwise_param {
    operation: SUM
    coeff_blob: true
  }
}
layer {
  name: "lstm1_transform_2"
  type: "InnerProduct"
  bottom: "h_conted_1"
  top: "W_hc_h_1"
  param {
    name: "W_hc"
  }
  inner_product_param {
    num_output: 512
    bias_term: false
    weight_filler {
      type: "uniform"
      min: -0.01
      max: 0.01
    }
    axis: 2
  }
}
layer {
  name: "lstm1_gate_input_2"
  type: "Eltwise"
  bottom: "W_hc_h_1"
  bottom: "W_xc_x_2"
  top: "gate_input_2"
  eltwise_param {
    operation: SUM
  }
}
layer {
  name: "lstm1_unit_2"
  type: "LSTMUnit"
  bottom: "c_1"
  bottom: "gate_input_2"
  bottom: "cont_2"
  top: "c_2"
  top: "h_2"
}
layer {
  name: "lstm1_h_conted_2"
  type: "Eltwise"
  bottom: "h_2"
  bottom: "cont_3"
  top: "h_conted_2"
  eltwise_param {
    operation: SUM
    coeff_blob: true
  }
}
layer {
  name: "lstm1_transform_3"
  type: "InnerProduct"
  bottom: "h_conted_2"
  top: "W_hc_h_2"
  param {
    name: "W_hc"
  }
  inner_product_param {
    num_output: 512
    bias_term: false
    weight_filler {
      type: "uniform"
      min: -0.01
      max: 0.01
    }
    axis: 2
  }
}
layer {
  name: "lstm1_gate_input_3"
  type: "Eltwise"
  bottom: "W_hc_h_2"
  bottom: "W_xc_x_3"
  top: "gate_input_3"
  eltwise_param {
    operation: SUM
  }
}
layer {
  name: "lstm1_unit_3"
  type: "LSTMUnit"
  bottom: "c_2"
  bottom: "gate_input_3"
  bottom: "cont_3"
  top: "c_3"
  top: "h_3"
}
layer {
  name: "lstm1_h_conted_3"
  type: "Eltwise"
  bottom: "h_3"
  bottom: "cont_4"
  top: "h_conted_3"
  eltwise_param {
    operation: SUM
    coeff_blob: true
  }
}
layer {
  name: "lstm1_transform_4"
  type: "InnerProduct"
  bottom: "h_conted_3"
  top: "W_hc_h_3"
  param {
    name: "W_hc"
  }
  inner_product_param {
    num_output: 512
    bias_term: false
    weight_filler {
      type: "uniform"
      min: -0.01
      max: 0.01
    }
    axis: 2
  }
}
layer {
  name: "lstm1_gate_input_4"
  type: "Eltwise"
  bottom: "W_hc_h_3"
  bottom: "W_xc_x_4"
  top: "gate_input_4"
  eltwise_param {
    operation: SUM
  }
}
layer {
  name: "lstm1_unit_4"
  type: "LSTMUnit"
  bottom: "c_3"
  bottom: "gate_input_4"
  bottom: "cont_4"
  top: "c_4"
  top: "h_4"
}
layer {
  name: "lstm1_h_conted_4"
  type: "Eltwise"
  bottom: "h_4"
  bottom: "cont_5"
  top: "h_conted_4"
  eltwise_param {
    operation: SUM
    coeff_blob: true
  }
}
layer {
  name: "lstm1_transform_5"
  type: "InnerProduct"
  bottom: "h_conted_4"
  top: "W_hc_h_4"
  param {
    name: "W_hc"
  }
  inner_product_param {
    num_output: 512
    bias_term: false
    weight_filler {
      type: "uniform"
      min: -0.01
      max: 0.01
    }
    axis: 2
  }
}
layer {
  name: "lstm1_gate_input_5"
  type: "Eltwise"
  bottom: "W_hc_h_4"
  bottom: "W_xc_x_5"
  top: "gate_input_5"
  eltwise_param {
    operation: SUM
  }
}
layer {
  name: "lstm1_unit_5"
  type: "LSTMUnit"
  bottom: "c_4"
  bottom: "gate_input_5"
  bottom: "cont_5"
  top: "c_5"
  top: "h_5"
}
layer {
  name: "lstm1_h_conted_5"
  type: "Eltwise"
  bottom: "h_5"
  bottom: "cont_6"
  top: "h_conted_5"
  eltwise_param {
    operation: SUM
    coeff_blob: true
  }
}
layer {
  name: "lstm1_transform_6"
  type: "InnerProduct"
  bottom: "h_conted_5"
  top: "W_hc_h_5"
  param {
    name: "W_hc"
  }
  inner_product_param {
    num_output: 512
    bias_term: false
    weight_filler {
      type: "uniform"
      min: -0.01
      max: 0.01
    }
    axis: 2
  }
}
layer {
  name: "lstm1_gate_input_6"
  type: "Eltwise"
  bottom: "W_hc_h_5"
  bottom: "W_xc_x_6"
  top: "gate_input_6"
  eltwise_param {
    operation: SUM
  }
}
layer {
  name: "lstm1_unit_6"
  type: "LSTMUnit"
  bottom: "c_5"
  bottom: "gate_input_6"
  bottom: "cont_6"
  top: "c_6"
  top: "h_6"
}
layer {
  name: "lstm1_h_conted_6"
  type: "Eltwise"
  bottom: "h_6"
  bottom: "cont_7"
  top: "h_conted_6"
  eltwise_param {
    operation: SUM
    coeff_blob: true
  }
}
layer {
  name: "lstm1_transform_7"
  type: "InnerProduct"
  bottom: "h_conted_6"
  top: "W_hc_h_6"
  param {
    name: "W_hc"
  }
  inner_product_param {
    num_output: 512
    bias_term: false
    weight_filler {
      type: "uniform"
      min: -0.01
      max: 0.01
    }
    axis: 2
  }
}
layer {
  name: "lstm1_gate_input_7"
  type: "Eltwise"
  bottom: "W_hc_h_6"
  bottom: "W_xc_x_7"
  top: "gate_input_7"
  eltwise_param {
    operation: SUM
  }
}
layer {
  name: "lstm1_unit_7"
  type: "LSTMUnit"
  bottom: "c_6"
  bottom: "gate_input_7"
  bottom: "cont_7"
  top: "c_7"
  top: "h_7"
}
layer {
  name: "lstm1_h_conted_7"
  type: "Eltwise"
  bottom: "h_7"
  bottom: "cont_8"
  top: "h_conted_7"
  eltwise_param {
    operation: SUM
    coeff_blob: true
  }
}
layer {
  name: "lstm1_transform_8"
  type: "InnerProduct"
  bottom: "h_conted_7"
  top: "W_hc_h_7"
  param {
    name: "W_hc"
  }
  inner_product_param {
    num_output: 512
    bias_term: false
    weight_filler {
      type: "uniform"
      min: -0.01
      max: 0.01
    }
    axis: 2
  }
}
layer {
  name: "lstm1_gate_input_8"
  type: "Eltwise"
  bottom: "W_hc_h_7"
  bottom: "W_xc_x_8"
  top: "gate_input_8"
  eltwise_param {
    operation: SUM
  }
}
layer {
  name: "lstm1_unit_8"
  type: "LSTMUnit"
  bottom: "c_7"
  bottom: "gate_input_8"
  bottom: "cont_8"
  top: "c_8"
  top: "h_8"
}
layer {
  name: "lstm1_"
  type: "Split"
  bottom: "c_8"
  top: "c_T"
}
layer {
  name: "lstm1_h_concat"
  type: "Concat"
  bottom: "h_1"
  bottom: "h_2"
  bottom: "h_3"
  bottom: "h_4"
  bottom: "h_5"
  bottom: "h_6"
  bottom: "h_7"
  bottom: "h_8"
  top: "h"
  concat_param {
    axis: 0
  }
}
I0218 17:13:19.193954 14778 net.cpp:351] Input 0 -> x
I0218 17:13:19.193964 14778 net.cpp:351] Input 1 -> cont
I0218 17:13:19.193971 14778 net.cpp:351] Input 2 -> c_0
I0218 17:13:19.193977 14778 net.cpp:351] Input 3 -> h_0
I0218 17:13:19.193995 14778 layer_factory.hpp:74] Creating layer lstm1_cont_slice
I0218 17:13:19.194005 14778 net.cpp:94] Creating Layer lstm1_cont_slice
I0218 17:13:19.194008 14778 net.cpp:391] lstm1_cont_slice <- cont
I0218 17:13:19.194015 14778 net.cpp:349] lstm1_cont_slice -> cont_1
I0218 17:13:19.194023 14778 net.cpp:349] lstm1_cont_slice -> cont_2
I0218 17:13:19.194031 14778 net.cpp:349] lstm1_cont_slice -> cont_3
I0218 17:13:19.194037 14778 net.cpp:349] lstm1_cont_slice -> cont_4
I0218 17:13:19.194044 14778 net.cpp:349] lstm1_cont_slice -> cont_5
I0218 17:13:19.194051 14778 net.cpp:349] lstm1_cont_slice -> cont_6
I0218 17:13:19.194058 14778 net.cpp:349] lstm1_cont_slice -> cont_7
I0218 17:13:19.194066 14778 net.cpp:349] lstm1_cont_slice -> cont_8
I0218 17:13:19.194072 14778 net.cpp:123] Setting up lstm1_cont_slice
I0218 17:13:19.194083 14778 net.cpp:130] Top shape: 1 1 16 (16)
I0218 17:13:19.194089 14778 net.cpp:130] Top shape: 1 1 16 (16)
I0218 17:13:19.194094 14778 net.cpp:130] Top shape: 1 1 16 (16)
I0218 17:13:19.194099 14778 net.cpp:130] Top shape: 1 1 16 (16)
I0218 17:13:19.194104 14778 net.cpp:130] Top shape: 1 1 16 (16)
I0218 17:13:19.194109 14778 net.cpp:130] Top shape: 1 1 16 (16)
I0218 17:13:19.194114 14778 net.cpp:130] Top shape: 1 1 16 (16)
I0218 17:13:19.194119 14778 net.cpp:130] Top shape: 1 1 16 (16)
I0218 17:13:19.194123 14778 layer_factory.hpp:74] Creating layer cont_1_lstm1_cont_slice_0_split
I0218 17:13:19.194130 14778 net.cpp:94] Creating Layer cont_1_lstm1_cont_slice_0_split
I0218 17:13:19.194134 14778 net.cpp:391] cont_1_lstm1_cont_slice_0_split <- cont_1
I0218 17:13:19.194140 14778 net.cpp:349] cont_1_lstm1_cont_slice_0_split -> cont_1_lstm1_cont_slice_0_split_0
I0218 17:13:19.194147 14778 net.cpp:349] cont_1_lstm1_cont_slice_0_split -> cont_1_lstm1_cont_slice_0_split_1
I0218 17:13:19.194154 14778 net.cpp:123] Setting up cont_1_lstm1_cont_slice_0_split
I0218 17:13:19.194159 14778 net.cpp:130] Top shape: 1 1 16 (16)
I0218 17:13:19.194164 14778 net.cpp:130] Top shape: 1 1 16 (16)
I0218 17:13:19.194169 14778 layer_factory.hpp:74] Creating layer cont_2_lstm1_cont_slice_1_split
I0218 17:13:19.194175 14778 net.cpp:94] Creating Layer cont_2_lstm1_cont_slice_1_split
I0218 17:13:19.194178 14778 net.cpp:391] cont_2_lstm1_cont_slice_1_split <- cont_2
I0218 17:13:19.194185 14778 net.cpp:349] cont_2_lstm1_cont_slice_1_split -> cont_2_lstm1_cont_slice_1_split_0
I0218 17:13:19.194190 14778 net.cpp:349] cont_2_lstm1_cont_slice_1_split -> cont_2_lstm1_cont_slice_1_split_1
I0218 17:13:19.194196 14778 net.cpp:123] Setting up cont_2_lstm1_cont_slice_1_split
I0218 17:13:19.194202 14778 net.cpp:130] Top shape: 1 1 16 (16)
I0218 17:13:19.194207 14778 net.cpp:130] Top shape: 1 1 16 (16)
I0218 17:13:19.194211 14778 layer_factory.hpp:74] Creating layer cont_3_lstm1_cont_slice_2_split
I0218 17:13:19.194216 14778 net.cpp:94] Creating Layer cont_3_lstm1_cont_slice_2_split
I0218 17:13:19.194228 14778 net.cpp:391] cont_3_lstm1_cont_slice_2_split <- cont_3
I0218 17:13:19.194234 14778 net.cpp:349] cont_3_lstm1_cont_slice_2_split -> cont_3_lstm1_cont_slice_2_split_0
I0218 17:13:19.194242 14778 net.cpp:349] cont_3_lstm1_cont_slice_2_split -> cont_3_lstm1_cont_slice_2_split_1
I0218 17:13:19.194248 14778 net.cpp:123] Setting up cont_3_lstm1_cont_slice_2_split
I0218 17:13:19.194254 14778 net.cpp:130] Top shape: 1 1 16 (16)
I0218 17:13:19.194273 14778 net.cpp:130] Top shape: 1 1 16 (16)
I0218 17:13:19.194278 14778 layer_factory.hpp:74] Creating layer cont_4_lstm1_cont_slice_3_split
I0218 17:13:19.194283 14778 net.cpp:94] Creating Layer cont_4_lstm1_cont_slice_3_split
I0218 17:13:19.194288 14778 net.cpp:391] cont_4_lstm1_cont_slice_3_split <- cont_4
I0218 17:13:19.194293 14778 net.cpp:349] cont_4_lstm1_cont_slice_3_split -> cont_4_lstm1_cont_slice_3_split_0
I0218 17:13:19.194300 14778 net.cpp:349] cont_4_lstm1_cont_slice_3_split -> cont_4_lstm1_cont_slice_3_split_1
I0218 17:13:19.194306 14778 net.cpp:123] Setting up cont_4_lstm1_cont_slice_3_split
I0218 17:13:19.194314 14778 net.cpp:130] Top shape: 1 1 16 (16)
I0218 17:13:19.194319 14778 net.cpp:130] Top shape: 1 1 16 (16)
I0218 17:13:19.194322 14778 layer_factory.hpp:74] Creating layer cont_5_lstm1_cont_slice_4_split
I0218 17:13:19.194327 14778 net.cpp:94] Creating Layer cont_5_lstm1_cont_slice_4_split
I0218 17:13:19.194332 14778 net.cpp:391] cont_5_lstm1_cont_slice_4_split <- cont_5
I0218 17:13:19.194337 14778 net.cpp:349] cont_5_lstm1_cont_slice_4_split -> cont_5_lstm1_cont_slice_4_split_0
I0218 17:13:19.194344 14778 net.cpp:349] cont_5_lstm1_cont_slice_4_split -> cont_5_lstm1_cont_slice_4_split_1
I0218 17:13:19.194350 14778 net.cpp:123] Setting up cont_5_lstm1_cont_slice_4_split
I0218 17:13:19.194357 14778 net.cpp:130] Top shape: 1 1 16 (16)
I0218 17:13:19.194362 14778 net.cpp:130] Top shape: 1 1 16 (16)
I0218 17:13:19.194366 14778 layer_factory.hpp:74] Creating layer cont_6_lstm1_cont_slice_5_split
I0218 17:13:19.194371 14778 net.cpp:94] Creating Layer cont_6_lstm1_cont_slice_5_split
I0218 17:13:19.194375 14778 net.cpp:391] cont_6_lstm1_cont_slice_5_split <- cont_6
I0218 17:13:19.194380 14778 net.cpp:349] cont_6_lstm1_cont_slice_5_split -> cont_6_lstm1_cont_slice_5_split_0
I0218 17:13:19.194386 14778 net.cpp:349] cont_6_lstm1_cont_slice_5_split -> cont_6_lstm1_cont_slice_5_split_1
I0218 17:13:19.194392 14778 net.cpp:123] Setting up cont_6_lstm1_cont_slice_5_split
I0218 17:13:19.194398 14778 net.cpp:130] Top shape: 1 1 16 (16)
I0218 17:13:19.194403 14778 net.cpp:130] Top shape: 1 1 16 (16)
I0218 17:13:19.194407 14778 layer_factory.hpp:74] Creating layer cont_7_lstm1_cont_slice_6_split
I0218 17:13:19.194412 14778 net.cpp:94] Creating Layer cont_7_lstm1_cont_slice_6_split
I0218 17:13:19.194416 14778 net.cpp:391] cont_7_lstm1_cont_slice_6_split <- cont_7
I0218 17:13:19.194422 14778 net.cpp:349] cont_7_lstm1_cont_slice_6_split -> cont_7_lstm1_cont_slice_6_split_0
I0218 17:13:19.194428 14778 net.cpp:349] cont_7_lstm1_cont_slice_6_split -> cont_7_lstm1_cont_slice_6_split_1
I0218 17:13:19.194434 14778 net.cpp:123] Setting up cont_7_lstm1_cont_slice_6_split
I0218 17:13:19.194440 14778 net.cpp:130] Top shape: 1 1 16 (16)
I0218 17:13:19.194445 14778 net.cpp:130] Top shape: 1 1 16 (16)
I0218 17:13:19.194449 14778 layer_factory.hpp:74] Creating layer cont_8_lstm1_cont_slice_7_split
I0218 17:13:19.194455 14778 net.cpp:94] Creating Layer cont_8_lstm1_cont_slice_7_split
I0218 17:13:19.194459 14778 net.cpp:391] cont_8_lstm1_cont_slice_7_split <- cont_8
I0218 17:13:19.194464 14778 net.cpp:349] cont_8_lstm1_cont_slice_7_split -> cont_8_lstm1_cont_slice_7_split_0
I0218 17:13:19.194471 14778 net.cpp:349] cont_8_lstm1_cont_slice_7_split -> cont_8_lstm1_cont_slice_7_split_1
I0218 17:13:19.194478 14778 net.cpp:123] Setting up cont_8_lstm1_cont_slice_7_split
I0218 17:13:19.194483 14778 net.cpp:130] Top shape: 1 1 16 (16)
I0218 17:13:19.194489 14778 net.cpp:130] Top shape: 1 1 16 (16)
I0218 17:13:19.194494 14778 layer_factory.hpp:74] Creating layer lstm1_x_transform
I0218 17:13:19.194509 14778 net.cpp:94] Creating Layer lstm1_x_transform
I0218 17:13:19.194514 14778 net.cpp:391] lstm1_x_transform <- x
I0218 17:13:19.194525 14778 net.cpp:349] lstm1_x_transform -> W_xc_x
I0218 17:13:19.194532 14778 net.cpp:123] Setting up lstm1_x_transform
I0218 17:13:19.194602 14778 net.cpp:130] Top shape: 8 16 512 (65536)
I0218 17:13:19.194612 14778 layer_factory.hpp:74] Creating layer lstm1_W_xc_x_slice
I0218 17:13:19.194619 14778 net.cpp:94] Creating Layer lstm1_W_xc_x_slice
I0218 17:13:19.194625 14778 net.cpp:391] lstm1_W_xc_x_slice <- W_xc_x
I0218 17:13:19.194633 14778 net.cpp:349] lstm1_W_xc_x_slice -> W_xc_x_1
I0218 17:13:19.194639 14778 net.cpp:349] lstm1_W_xc_x_slice -> W_xc_x_2
I0218 17:13:19.194648 14778 net.cpp:349] lstm1_W_xc_x_slice -> W_xc_x_3
I0218 17:13:19.194654 14778 net.cpp:349] lstm1_W_xc_x_slice -> W_xc_x_4
I0218 17:13:19.194664 14778 net.cpp:349] lstm1_W_xc_x_slice -> W_xc_x_5
I0218 17:13:19.194674 14778 net.cpp:349] lstm1_W_xc_x_slice -> W_xc_x_6
I0218 17:13:19.194680 14778 net.cpp:349] lstm1_W_xc_x_slice -> W_xc_x_7
I0218 17:13:19.194687 14778 net.cpp:349] lstm1_W_xc_x_slice -> W_xc_x_8
I0218 17:13:19.194694 14778 net.cpp:123] Setting up lstm1_W_xc_x_slice
I0218 17:13:19.194702 14778 net.cpp:130] Top shape: 1 16 512 (8192)
I0218 17:13:19.194708 14778 net.cpp:130] Top shape: 1 16 512 (8192)
I0218 17:13:19.194713 14778 net.cpp:130] Top shape: 1 16 512 (8192)
I0218 17:13:19.194718 14778 net.cpp:130] Top shape: 1 16 512 (8192)
I0218 17:13:19.194723 14778 net.cpp:130] Top shape: 1 16 512 (8192)
I0218 17:13:19.194728 14778 net.cpp:130] Top shape: 1 16 512 (8192)
I0218 17:13:19.194732 14778 net.cpp:130] Top shape: 1 16 512 (8192)
I0218 17:13:19.194737 14778 net.cpp:130] Top shape: 1 16 512 (8192)
I0218 17:13:19.194742 14778 layer_factory.hpp:74] Creating layer lstm1_h_conted_0
I0218 17:13:19.194751 14778 net.cpp:94] Creating Layer lstm1_h_conted_0
I0218 17:13:19.194756 14778 net.cpp:391] lstm1_h_conted_0 <- h_0
I0218 17:13:19.194761 14778 net.cpp:391] lstm1_h_conted_0 <- cont_1_lstm1_cont_slice_0_split_0
I0218 17:13:19.194767 14778 net.cpp:349] lstm1_h_conted_0 -> h_conted_0
I0218 17:13:19.194773 14778 net.cpp:123] Setting up lstm1_h_conted_0
I0218 17:13:19.194783 14778 net.cpp:130] Top shape: 1 16 128 (2048)
I0218 17:13:19.194787 14778 layer_factory.hpp:74] Creating layer lstm1_transform_1
I0218 17:13:19.194795 14778 net.cpp:94] Creating Layer lstm1_transform_1
I0218 17:13:19.194799 14778 net.cpp:391] lstm1_transform_1 <- h_conted_0
I0218 17:13:19.194807 14778 net.cpp:349] lstm1_transform_1 -> W_hc_h_0
I0218 17:13:19.194813 14778 net.cpp:123] Setting up lstm1_transform_1
I0218 17:13:19.195231 14778 net.cpp:130] Top shape: 1 16 512 (8192)
I0218 17:13:19.195241 14778 layer_factory.hpp:74] Creating layer lstm1_gate_input_1
I0218 17:13:19.195248 14778 net.cpp:94] Creating Layer lstm1_gate_input_1
I0218 17:13:19.195253 14778 net.cpp:391] lstm1_gate_input_1 <- W_hc_h_0
I0218 17:13:19.195269 14778 net.cpp:391] lstm1_gate_input_1 <- W_xc_x_1
I0218 17:13:19.195278 14778 net.cpp:349] lstm1_gate_input_1 -> gate_input_1
I0218 17:13:19.195286 14778 net.cpp:123] Setting up lstm1_gate_input_1
I0218 17:13:19.195293 14778 net.cpp:130] Top shape: 1 16 512 (8192)
I0218 17:13:19.195298 14778 layer_factory.hpp:74] Creating layer lstm1_unit_1
I0218 17:13:19.195307 14778 net.cpp:94] Creating Layer lstm1_unit_1
I0218 17:13:19.195312 14778 net.cpp:391] lstm1_unit_1 <- c_0
I0218 17:13:19.195318 14778 net.cpp:391] lstm1_unit_1 <- gate_input_1
I0218 17:13:19.195323 14778 net.cpp:391] lstm1_unit_1 <- cont_1_lstm1_cont_slice_0_split_1
I0218 17:13:19.195329 14778 net.cpp:349] lstm1_unit_1 -> c_1
I0218 17:13:19.195338 14778 net.cpp:349] lstm1_unit_1 -> h_1
I0218 17:13:19.195345 14778 net.cpp:123] Setting up lstm1_unit_1
I0218 17:13:19.195355 14778 net.cpp:130] Top shape: 1 16 128 (2048)
I0218 17:13:19.195363 14778 net.cpp:130] Top shape: 1 16 128 (2048)
I0218 17:13:19.195368 14778 layer_factory.hpp:74] Creating layer h_1_lstm1_unit_1_1_split
I0218 17:13:19.195374 14778 net.cpp:94] Creating Layer h_1_lstm1_unit_1_1_split
I0218 17:13:19.195389 14778 net.cpp:391] h_1_lstm1_unit_1_1_split <- h_1
I0218 17:13:19.195397 14778 net.cpp:349] h_1_lstm1_unit_1_1_split -> h_1_lstm1_unit_1_1_split_0
I0218 17:13:19.195405 14778 net.cpp:349] h_1_lstm1_unit_1_1_split -> h_1_lstm1_unit_1_1_split_1
I0218 17:13:19.195411 14778 net.cpp:123] Setting up h_1_lstm1_unit_1_1_split
I0218 17:13:19.195418 14778 net.cpp:130] Top shape: 1 16 128 (2048)
I0218 17:13:19.195423 14778 net.cpp:130] Top shape: 1 16 128 (2048)
I0218 17:13:19.195427 14778 layer_factory.hpp:74] Creating layer lstm1_h_conted_1
I0218 17:13:19.195436 14778 net.cpp:94] Creating Layer lstm1_h_conted_1
I0218 17:13:19.195441 14778 net.cpp:391] lstm1_h_conted_1 <- h_1_lstm1_unit_1_1_split_0
I0218 17:13:19.195447 14778 net.cpp:391] lstm1_h_conted_1 <- cont_2_lstm1_cont_slice_1_split_0
I0218 17:13:19.195453 14778 net.cpp:349] lstm1_h_conted_1 -> h_conted_1
I0218 17:13:19.195459 14778 net.cpp:123] Setting up lstm1_h_conted_1
I0218 17:13:19.195466 14778 net.cpp:130] Top shape: 1 16 128 (2048)
I0218 17:13:19.195472 14778 layer_factory.hpp:74] Creating layer lstm1_transform_2
I0218 17:13:19.195480 14778 net.cpp:94] Creating Layer lstm1_transform_2
I0218 17:13:19.195485 14778 net.cpp:391] lstm1_transform_2 <- h_conted_1
I0218 17:13:19.195493 14778 net.cpp:349] lstm1_transform_2 -> W_hc_h_1
I0218 17:13:19.195500 14778 net.cpp:123] Setting up lstm1_transform_2
I0218 17:13:19.195907 14778 net.cpp:130] Top shape: 1 16 512 (8192)
I0218 17:13:19.195915 14778 net.cpp:435] Sharing parameters 'W_hc' owned by layer 'lstm1_transform_1', param index 0
I0218 17:13:19.195920 14778 layer_factory.hpp:74] Creating layer lstm1_gate_input_2
I0218 17:13:19.195927 14778 net.cpp:94] Creating Layer lstm1_gate_input_2
I0218 17:13:19.195932 14778 net.cpp:391] lstm1_gate_input_2 <- W_hc_h_1
I0218 17:13:19.195938 14778 net.cpp:391] lstm1_gate_input_2 <- W_xc_x_2
I0218 17:13:19.195945 14778 net.cpp:349] lstm1_gate_input_2 -> gate_input_2
I0218 17:13:19.195952 14778 net.cpp:123] Setting up lstm1_gate_input_2
I0218 17:13:19.195960 14778 net.cpp:130] Top shape: 1 16 512 (8192)
I0218 17:13:19.195966 14778 layer_factory.hpp:74] Creating layer lstm1_unit_2
I0218 17:13:19.195971 14778 net.cpp:94] Creating Layer lstm1_unit_2
I0218 17:13:19.195976 14778 net.cpp:391] lstm1_unit_2 <- c_1
I0218 17:13:19.195981 14778 net.cpp:391] lstm1_unit_2 <- gate_input_2
I0218 17:13:19.195986 14778 net.cpp:391] lstm1_unit_2 <- cont_2_lstm1_cont_slice_1_split_1
I0218 17:13:19.195993 14778 net.cpp:349] lstm1_unit_2 -> c_2
I0218 17:13:19.196001 14778 net.cpp:349] lstm1_unit_2 -> h_2
I0218 17:13:19.196007 14778 net.cpp:123] Setting up lstm1_unit_2
I0218 17:13:19.196015 14778 net.cpp:130] Top shape: 1 16 128 (2048)
I0218 17:13:19.196022 14778 net.cpp:130] Top shape: 1 16 128 (2048)
I0218 17:13:19.196025 14778 layer_factory.hpp:74] Creating layer h_2_lstm1_unit_2_1_split
I0218 17:13:19.196032 14778 net.cpp:94] Creating Layer h_2_lstm1_unit_2_1_split
I0218 17:13:19.196036 14778 net.cpp:391] h_2_lstm1_unit_2_1_split <- h_2
I0218 17:13:19.196043 14778 net.cpp:349] h_2_lstm1_unit_2_1_split -> h_2_lstm1_unit_2_1_split_0
I0218 17:13:19.196051 14778 net.cpp:349] h_2_lstm1_unit_2_1_split -> h_2_lstm1_unit_2_1_split_1
I0218 17:13:19.196058 14778 net.cpp:123] Setting up h_2_lstm1_unit_2_1_split
I0218 17:13:19.196064 14778 net.cpp:130] Top shape: 1 16 128 (2048)
I0218 17:13:19.196071 14778 net.cpp:130] Top shape: 1 16 128 (2048)
I0218 17:13:19.196075 14778 layer_factory.hpp:74] Creating layer lstm1_h_conted_2
I0218 17:13:19.196081 14778 net.cpp:94] Creating Layer lstm1_h_conted_2
I0218 17:13:19.196086 14778 net.cpp:391] lstm1_h_conted_2 <- h_2_lstm1_unit_2_1_split_0
I0218 17:13:19.196091 14778 net.cpp:391] lstm1_h_conted_2 <- cont_3_lstm1_cont_slice_2_split_0
I0218 17:13:19.196097 14778 net.cpp:349] lstm1_h_conted_2 -> h_conted_2
I0218 17:13:19.196104 14778 net.cpp:123] Setting up lstm1_h_conted_2
I0218 17:13:19.196110 14778 net.cpp:130] Top shape: 1 16 128 (2048)
I0218 17:13:19.196115 14778 layer_factory.hpp:74] Creating layer lstm1_transform_3
I0218 17:13:19.196130 14778 net.cpp:94] Creating Layer lstm1_transform_3
I0218 17:13:19.196135 14778 net.cpp:391] lstm1_transform_3 <- h_conted_2
I0218 17:13:19.196143 14778 net.cpp:349] lstm1_transform_3 -> W_hc_h_2
I0218 17:13:19.196151 14778 net.cpp:123] Setting up lstm1_transform_3
I0218 17:13:19.196568 14778 net.cpp:130] Top shape: 1 16 512 (8192)
I0218 17:13:19.196578 14778 net.cpp:435] Sharing parameters 'W_hc' owned by layer 'lstm1_transform_1', param index 0
I0218 17:13:19.196583 14778 layer_factory.hpp:74] Creating layer lstm1_gate_input_3
I0218 17:13:19.196589 14778 net.cpp:94] Creating Layer lstm1_gate_input_3
I0218 17:13:19.196594 14778 net.cpp:391] lstm1_gate_input_3 <- W_hc_h_2
I0218 17:13:19.196599 14778 net.cpp:391] lstm1_gate_input_3 <- W_xc_x_3
I0218 17:13:19.196605 14778 net.cpp:349] lstm1_gate_input_3 -> gate_input_3
I0218 17:13:19.196611 14778 net.cpp:123] Setting up lstm1_gate_input_3
I0218 17:13:19.196619 14778 net.cpp:130] Top shape: 1 16 512 (8192)
I0218 17:13:19.196624 14778 layer_factory.hpp:74] Creating layer lstm1_unit_3
I0218 17:13:19.196630 14778 net.cpp:94] Creating Layer lstm1_unit_3
I0218 17:13:19.196635 14778 net.cpp:391] lstm1_unit_3 <- c_2
I0218 17:13:19.196640 14778 net.cpp:391] lstm1_unit_3 <- gate_input_3
I0218 17:13:19.196645 14778 net.cpp:391] lstm1_unit_3 <- cont_3_lstm1_cont_slice_2_split_1
I0218 17:13:19.196650 14778 net.cpp:349] lstm1_unit_3 -> c_3
I0218 17:13:19.196656 14778 net.cpp:349] lstm1_unit_3 -> h_3
I0218 17:13:19.196662 14778 net.cpp:123] Setting up lstm1_unit_3
I0218 17:13:19.196672 14778 net.cpp:130] Top shape: 1 16 128 (2048)
I0218 17:13:19.196678 14778 net.cpp:130] Top shape: 1 16 128 (2048)
I0218 17:13:19.196683 14778 layer_factory.hpp:74] Creating layer h_3_lstm1_unit_3_1_split
I0218 17:13:19.196688 14778 net.cpp:94] Creating Layer h_3_lstm1_unit_3_1_split
I0218 17:13:19.196693 14778 net.cpp:391] h_3_lstm1_unit_3_1_split <- h_3
I0218 17:13:19.196698 14778 net.cpp:349] h_3_lstm1_unit_3_1_split -> h_3_lstm1_unit_3_1_split_0
I0218 17:13:19.196705 14778 net.cpp:349] h_3_lstm1_unit_3_1_split -> h_3_lstm1_unit_3_1_split_1
I0218 17:13:19.196712 14778 net.cpp:123] Setting up h_3_lstm1_unit_3_1_split
I0218 17:13:19.196717 14778 net.cpp:130] Top shape: 1 16 128 (2048)
I0218 17:13:19.196724 14778 net.cpp:130] Top shape: 1 16 128 (2048)
I0218 17:13:19.196728 14778 layer_factory.hpp:74] Creating layer lstm1_h_conted_3
I0218 17:13:19.196733 14778 net.cpp:94] Creating Layer lstm1_h_conted_3
I0218 17:13:19.196738 14778 net.cpp:391] lstm1_h_conted_3 <- h_3_lstm1_unit_3_1_split_0
I0218 17:13:19.196743 14778 net.cpp:391] lstm1_h_conted_3 <- cont_4_lstm1_cont_slice_3_split_0
I0218 17:13:19.196749 14778 net.cpp:349] lstm1_h_conted_3 -> h_conted_3
I0218 17:13:19.196755 14778 net.cpp:123] Setting up lstm1_h_conted_3
I0218 17:13:19.196761 14778 net.cpp:130] Top shape: 1 16 128 (2048)
I0218 17:13:19.196768 14778 layer_factory.hpp:74] Creating layer lstm1_transform_4
I0218 17:13:19.196775 14778 net.cpp:94] Creating Layer lstm1_transform_4
I0218 17:13:19.196780 14778 net.cpp:391] lstm1_transform_4 <- h_conted_3
I0218 17:13:19.196787 14778 net.cpp:349] lstm1_transform_4 -> W_hc_h_3
I0218 17:13:19.196794 14778 net.cpp:123] Setting up lstm1_transform_4
I0218 17:13:19.197198 14778 net.cpp:130] Top shape: 1 16 512 (8192)
I0218 17:13:19.197207 14778 net.cpp:435] Sharing parameters 'W_hc' owned by layer 'lstm1_transform_1', param index 0
I0218 17:13:19.197211 14778 layer_factory.hpp:74] Creating layer lstm1_gate_input_4
I0218 17:13:19.197232 14778 net.cpp:94] Creating Layer lstm1_gate_input_4
I0218 17:13:19.197237 14778 net.cpp:391] lstm1_gate_input_4 <- W_hc_h_3
I0218 17:13:19.197242 14778 net.cpp:391] lstm1_gate_input_4 <- W_xc_x_4
I0218 17:13:19.197247 14778 net.cpp:349] lstm1_gate_input_4 -> gate_input_4
I0218 17:13:19.197254 14778 net.cpp:123] Setting up lstm1_gate_input_4
I0218 17:13:19.197269 14778 net.cpp:130] Top shape: 1 16 512 (8192)
I0218 17:13:19.197274 14778 layer_factory.hpp:74] Creating layer lstm1_unit_4
I0218 17:13:19.197293 14778 net.cpp:94] Creating Layer lstm1_unit_4
I0218 17:13:19.197309 14778 net.cpp:391] lstm1_unit_4 <- c_3
I0218 17:13:19.197314 14778 net.cpp:391] lstm1_unit_4 <- gate_input_4
I0218 17:13:19.197319 14778 net.cpp:391] lstm1_unit_4 <- cont_4_lstm1_cont_slice_3_split_1
I0218 17:13:19.197327 14778 net.cpp:349] lstm1_unit_4 -> c_4
I0218 17:13:19.197335 14778 net.cpp:349] lstm1_unit_4 -> h_4
I0218 17:13:19.197342 14778 net.cpp:123] Setting up lstm1_unit_4
I0218 17:13:19.197350 14778 net.cpp:130] Top shape: 1 16 128 (2048)
I0218 17:13:19.197356 14778 net.cpp:130] Top shape: 1 16 128 (2048)
I0218 17:13:19.197360 14778 layer_factory.hpp:74] Creating layer h_4_lstm1_unit_4_1_split
I0218 17:13:19.197366 14778 net.cpp:94] Creating Layer h_4_lstm1_unit_4_1_split
I0218 17:13:19.197371 14778 net.cpp:391] h_4_lstm1_unit_4_1_split <- h_4
I0218 17:13:19.197376 14778 net.cpp:349] h_4_lstm1_unit_4_1_split -> h_4_lstm1_unit_4_1_split_0
I0218 17:13:19.197383 14778 net.cpp:349] h_4_lstm1_unit_4_1_split -> h_4_lstm1_unit_4_1_split_1
I0218 17:13:19.197394 14778 net.cpp:123] Setting up h_4_lstm1_unit_4_1_split
I0218 17:13:19.197402 14778 net.cpp:130] Top shape: 1 16 128 (2048)
I0218 17:13:19.197407 14778 net.cpp:130] Top shape: 1 16 128 (2048)
I0218 17:13:19.197410 14778 layer_factory.hpp:74] Creating layer lstm1_h_conted_4
I0218 17:13:19.197417 14778 net.cpp:94] Creating Layer lstm1_h_conted_4
I0218 17:13:19.197422 14778 net.cpp:391] lstm1_h_conted_4 <- h_4_lstm1_unit_4_1_split_0
I0218 17:13:19.197427 14778 net.cpp:391] lstm1_h_conted_4 <- cont_5_lstm1_cont_slice_4_split_0
I0218 17:13:19.197432 14778 net.cpp:349] lstm1_h_conted_4 -> h_conted_4
I0218 17:13:19.197438 14778 net.cpp:123] Setting up lstm1_h_conted_4
I0218 17:13:19.197445 14778 net.cpp:130] Top shape: 1 16 128 (2048)
I0218 17:13:19.197450 14778 layer_factory.hpp:74] Creating layer lstm1_transform_5
I0218 17:13:19.197459 14778 net.cpp:94] Creating Layer lstm1_transform_5
I0218 17:13:19.197466 14778 net.cpp:391] lstm1_transform_5 <- h_conted_4
I0218 17:13:19.197474 14778 net.cpp:349] lstm1_transform_5 -> W_hc_h_4
I0218 17:13:19.197479 14778 net.cpp:123] Setting up lstm1_transform_5
I0218 17:13:19.197890 14778 net.cpp:130] Top shape: 1 16 512 (8192)
I0218 17:13:19.197899 14778 net.cpp:435] Sharing parameters 'W_hc' owned by layer 'lstm1_transform_1', param index 0
I0218 17:13:19.197904 14778 layer_factory.hpp:74] Creating layer lstm1_gate_input_5
I0218 17:13:19.197909 14778 net.cpp:94] Creating Layer lstm1_gate_input_5
I0218 17:13:19.197914 14778 net.cpp:391] lstm1_gate_input_5 <- W_hc_h_4
I0218 17:13:19.197919 14778 net.cpp:391] lstm1_gate_input_5 <- W_xc_x_5
I0218 17:13:19.197926 14778 net.cpp:349] lstm1_gate_input_5 -> gate_input_5
I0218 17:13:19.197932 14778 net.cpp:123] Setting up lstm1_gate_input_5
I0218 17:13:19.197940 14778 net.cpp:130] Top shape: 1 16 512 (8192)
I0218 17:13:19.197944 14778 layer_factory.hpp:74] Creating layer lstm1_unit_5
I0218 17:13:19.197950 14778 net.cpp:94] Creating Layer lstm1_unit_5
I0218 17:13:19.197955 14778 net.cpp:391] lstm1_unit_5 <- c_4
I0218 17:13:19.197962 14778 net.cpp:391] lstm1_unit_5 <- gate_input_5
I0218 17:13:19.197967 14778 net.cpp:391] lstm1_unit_5 <- cont_5_lstm1_cont_slice_4_split_1
I0218 17:13:19.197973 14778 net.cpp:349] lstm1_unit_5 -> c_5
I0218 17:13:19.197981 14778 net.cpp:349] lstm1_unit_5 -> h_5
I0218 17:13:19.197988 14778 net.cpp:123] Setting up lstm1_unit_5
I0218 17:13:19.197994 14778 net.cpp:130] Top shape: 1 16 128 (2048)
I0218 17:13:19.198000 14778 net.cpp:130] Top shape: 1 16 128 (2048)
I0218 17:13:19.198005 14778 layer_factory.hpp:74] Creating layer h_5_lstm1_unit_5_1_split
I0218 17:13:19.198011 14778 net.cpp:94] Creating Layer h_5_lstm1_unit_5_1_split
I0218 17:13:19.198015 14778 net.cpp:391] h_5_lstm1_unit_5_1_split <- h_5
I0218 17:13:19.198021 14778 net.cpp:349] h_5_lstm1_unit_5_1_split -> h_5_lstm1_unit_5_1_split_0
I0218 17:13:19.198029 14778 net.cpp:349] h_5_lstm1_unit_5_1_split -> h_5_lstm1_unit_5_1_split_1
I0218 17:13:19.198035 14778 net.cpp:123] Setting up h_5_lstm1_unit_5_1_split
I0218 17:13:19.198041 14778 net.cpp:130] Top shape: 1 16 128 (2048)
I0218 17:13:19.198055 14778 net.cpp:130] Top shape: 1 16 128 (2048)
I0218 17:13:19.198060 14778 layer_factory.hpp:74] Creating layer lstm1_h_conted_5
I0218 17:13:19.198065 14778 net.cpp:94] Creating Layer lstm1_h_conted_5
I0218 17:13:19.198071 14778 net.cpp:391] lstm1_h_conted_5 <- h_5_lstm1_unit_5_1_split_0
I0218 17:13:19.198076 14778 net.cpp:391] lstm1_h_conted_5 <- cont_6_lstm1_cont_slice_5_split_0
I0218 17:13:19.198082 14778 net.cpp:349] lstm1_h_conted_5 -> h_conted_5
I0218 17:13:19.198089 14778 net.cpp:123] Setting up lstm1_h_conted_5
I0218 17:13:19.198096 14778 net.cpp:130] Top shape: 1 16 128 (2048)
I0218 17:13:19.198102 14778 layer_factory.hpp:74] Creating layer lstm1_transform_6
I0218 17:13:19.198108 14778 net.cpp:94] Creating Layer lstm1_transform_6
I0218 17:13:19.198112 14778 net.cpp:391] lstm1_transform_6 <- h_conted_5
I0218 17:13:19.198120 14778 net.cpp:349] lstm1_transform_6 -> W_hc_h_5
I0218 17:13:19.198127 14778 net.cpp:123] Setting up lstm1_transform_6
I0218 17:13:19.198560 14778 net.cpp:130] Top shape: 1 16 512 (8192)
I0218 17:13:19.198570 14778 net.cpp:435] Sharing parameters 'W_hc' owned by layer 'lstm1_transform_1', param index 0
I0218 17:13:19.198587 14778 layer_factory.hpp:74] Creating layer lstm1_gate_input_6
I0218 17:13:19.198593 14778 net.cpp:94] Creating Layer lstm1_gate_input_6
I0218 17:13:19.198598 14778 net.cpp:391] lstm1_gate_input_6 <- W_hc_h_5
I0218 17:13:19.198603 14778 net.cpp:391] lstm1_gate_input_6 <- W_xc_x_6
I0218 17:13:19.198608 14778 net.cpp:349] lstm1_gate_input_6 -> gate_input_6
I0218 17:13:19.198616 14778 net.cpp:123] Setting up lstm1_gate_input_6
I0218 17:13:19.198621 14778 net.cpp:130] Top shape: 1 16 512 (8192)
I0218 17:13:19.198627 14778 layer_factory.hpp:74] Creating layer lstm1_unit_6
I0218 17:13:19.198634 14778 net.cpp:94] Creating Layer lstm1_unit_6
I0218 17:13:19.198652 14778 net.cpp:391] lstm1_unit_6 <- c_5
I0218 17:13:19.198657 14778 net.cpp:391] lstm1_unit_6 <- gate_input_6
I0218 17:13:19.198664 14778 net.cpp:391] lstm1_unit_6 <- cont_6_lstm1_cont_slice_5_split_1
I0218 17:13:19.198670 14778 net.cpp:349] lstm1_unit_6 -> c_6
I0218 17:13:19.198678 14778 net.cpp:349] lstm1_unit_6 -> h_6
I0218 17:13:19.198684 14778 net.cpp:123] Setting up lstm1_unit_6
I0218 17:13:19.198691 14778 net.cpp:130] Top shape: 1 16 128 (2048)
I0218 17:13:19.198698 14778 net.cpp:130] Top shape: 1 16 128 (2048)
I0218 17:13:19.198703 14778 layer_factory.hpp:74] Creating layer h_6_lstm1_unit_6_1_split
I0218 17:13:19.198709 14778 net.cpp:94] Creating Layer h_6_lstm1_unit_6_1_split
I0218 17:13:19.198712 14778 net.cpp:391] h_6_lstm1_unit_6_1_split <- h_6
I0218 17:13:19.198719 14778 net.cpp:349] h_6_lstm1_unit_6_1_split -> h_6_lstm1_unit_6_1_split_0
I0218 17:13:19.198724 14778 net.cpp:349] h_6_lstm1_unit_6_1_split -> h_6_lstm1_unit_6_1_split_1
I0218 17:13:19.198732 14778 net.cpp:123] Setting up h_6_lstm1_unit_6_1_split
I0218 17:13:19.198739 14778 net.cpp:130] Top shape: 1 16 128 (2048)
I0218 17:13:19.198745 14778 net.cpp:130] Top shape: 1 16 128 (2048)
I0218 17:13:19.198750 14778 layer_factory.hpp:74] Creating layer lstm1_h_conted_6
I0218 17:13:19.198755 14778 net.cpp:94] Creating Layer lstm1_h_conted_6
I0218 17:13:19.198760 14778 net.cpp:391] lstm1_h_conted_6 <- h_6_lstm1_unit_6_1_split_0
I0218 17:13:19.198765 14778 net.cpp:391] lstm1_h_conted_6 <- cont_7_lstm1_cont_slice_6_split_0
I0218 17:13:19.198771 14778 net.cpp:349] lstm1_h_conted_6 -> h_conted_6
I0218 17:13:19.198777 14778 net.cpp:123] Setting up lstm1_h_conted_6
I0218 17:13:19.198784 14778 net.cpp:130] Top shape: 1 16 128 (2048)
I0218 17:13:19.198791 14778 layer_factory.hpp:74] Creating layer lstm1_transform_7
I0218 17:13:19.198796 14778 net.cpp:94] Creating Layer lstm1_transform_7
I0218 17:13:19.198801 14778 net.cpp:391] lstm1_transform_7 <- h_conted_6
I0218 17:13:19.198807 14778 net.cpp:349] lstm1_transform_7 -> W_hc_h_6
I0218 17:13:19.198813 14778 net.cpp:123] Setting up lstm1_transform_7
I0218 17:13:19.199225 14778 net.cpp:130] Top shape: 1 16 512 (8192)
I0218 17:13:19.199235 14778 net.cpp:435] Sharing parameters 'W_hc' owned by layer 'lstm1_transform_1', param index 0
I0218 17:13:19.199251 14778 layer_factory.hpp:74] Creating layer lstm1_gate_input_7
I0218 17:13:19.199268 14778 net.cpp:94] Creating Layer lstm1_gate_input_7
I0218 17:13:19.199273 14778 net.cpp:391] lstm1_gate_input_7 <- W_hc_h_6
I0218 17:13:19.199280 14778 net.cpp:391] lstm1_gate_input_7 <- W_xc_x_7
I0218 17:13:19.199285 14778 net.cpp:349] lstm1_gate_input_7 -> gate_input_7
I0218 17:13:19.199292 14778 net.cpp:123] Setting up lstm1_gate_input_7
I0218 17:13:19.199300 14778 net.cpp:130] Top shape: 1 16 512 (8192)
I0218 17:13:19.199304 14778 layer_factory.hpp:74] Creating layer lstm1_unit_7
I0218 17:13:19.199309 14778 net.cpp:94] Creating Layer lstm1_unit_7
I0218 17:13:19.199313 14778 net.cpp:391] lstm1_unit_7 <- c_6
I0218 17:13:19.199318 14778 net.cpp:391] lstm1_unit_7 <- gate_input_7
I0218 17:13:19.199324 14778 net.cpp:391] lstm1_unit_7 <- cont_7_lstm1_cont_slice_6_split_1
I0218 17:13:19.199332 14778 net.cpp:349] lstm1_unit_7 -> c_7
I0218 17:13:19.199339 14778 net.cpp:349] lstm1_unit_7 -> h_7
I0218 17:13:19.199345 14778 net.cpp:123] Setting up lstm1_unit_7
I0218 17:13:19.199352 14778 net.cpp:130] Top shape: 1 16 128 (2048)
I0218 17:13:19.199359 14778 net.cpp:130] Top shape: 1 16 128 (2048)
I0218 17:13:19.199363 14778 layer_factory.hpp:74] Creating layer h_7_lstm1_unit_7_1_split
I0218 17:13:19.199370 14778 net.cpp:94] Creating Layer h_7_lstm1_unit_7_1_split
I0218 17:13:19.199375 14778 net.cpp:391] h_7_lstm1_unit_7_1_split <- h_7
I0218 17:13:19.199381 14778 net.cpp:349] h_7_lstm1_unit_7_1_split -> h_7_lstm1_unit_7_1_split_0
I0218 17:13:19.199388 14778 net.cpp:349] h_7_lstm1_unit_7_1_split -> h_7_lstm1_unit_7_1_split_1
I0218 17:13:19.199395 14778 net.cpp:123] Setting up h_7_lstm1_unit_7_1_split
I0218 17:13:19.199403 14778 net.cpp:130] Top shape: 1 16 128 (2048)
I0218 17:13:19.199407 14778 net.cpp:130] Top shape: 1 16 128 (2048)
I0218 17:13:19.199414 14778 layer_factory.hpp:74] Creating layer lstm1_h_conted_7
I0218 17:13:19.199419 14778 net.cpp:94] Creating Layer lstm1_h_conted_7
I0218 17:13:19.199424 14778 net.cpp:391] lstm1_h_conted_7 <- h_7_lstm1_unit_7_1_split_0
I0218 17:13:19.199429 14778 net.cpp:391] lstm1_h_conted_7 <- cont_8_lstm1_cont_slice_7_split_0
I0218 17:13:19.199435 14778 net.cpp:349] lstm1_h_conted_7 -> h_conted_7
I0218 17:13:19.199441 14778 net.cpp:123] Setting up lstm1_h_conted_7
I0218 17:13:19.199447 14778 net.cpp:130] Top shape: 1 16 128 (2048)
I0218 17:13:19.199453 14778 layer_factory.hpp:74] Creating layer lstm1_transform_8
I0218 17:13:19.199460 14778 net.cpp:94] Creating Layer lstm1_transform_8
I0218 17:13:19.199465 14778 net.cpp:391] lstm1_transform_8 <- h_conted_7
I0218 17:13:19.199471 14778 net.cpp:349] lstm1_transform_8 -> W_hc_h_7
I0218 17:13:19.199479 14778 net.cpp:123] Setting up lstm1_transform_8
I0218 17:13:19.199895 14778 net.cpp:130] Top shape: 1 16 512 (8192)
I0218 17:13:19.199904 14778 net.cpp:435] Sharing parameters 'W_hc' owned by layer 'lstm1_transform_1', param index 0
I0218 17:13:19.199909 14778 layer_factory.hpp:74] Creating layer lstm1_gate_input_8
I0218 17:13:19.199915 14778 net.cpp:94] Creating Layer lstm1_gate_input_8
I0218 17:13:19.199920 14778 net.cpp:391] lstm1_gate_input_8 <- W_hc_h_7
I0218 17:13:19.199925 14778 net.cpp:391] lstm1_gate_input_8 <- W_xc_x_8
I0218 17:13:19.199944 14778 net.cpp:349] lstm1_gate_input_8 -> gate_input_8
I0218 17:13:19.199951 14778 net.cpp:123] Setting up lstm1_gate_input_8
I0218 17:13:19.199959 14778 net.cpp:130] Top shape: 1 16 512 (8192)
I0218 17:13:19.199964 14778 layer_factory.hpp:74] Creating layer lstm1_unit_8
I0218 17:13:19.199969 14778 net.cpp:94] Creating Layer lstm1_unit_8
I0218 17:13:19.199973 14778 net.cpp:391] lstm1_unit_8 <- c_7
I0218 17:13:19.199978 14778 net.cpp:391] lstm1_unit_8 <- gate_input_8
I0218 17:13:19.199982 14778 net.cpp:391] lstm1_unit_8 <- cont_8_lstm1_cont_slice_7_split_1
I0218 17:13:19.199990 14778 net.cpp:349] lstm1_unit_8 -> c_8
I0218 17:13:19.199998 14778 net.cpp:349] lstm1_unit_8 -> h_8
I0218 17:13:19.200004 14778 net.cpp:123] Setting up lstm1_unit_8
I0218 17:13:19.200012 14778 net.cpp:130] Top shape: 1 16 128 (2048)
I0218 17:13:19.200028 14778 net.cpp:130] Top shape: 1 16 128 (2048)
I0218 17:13:19.200033 14778 layer_factory.hpp:74] Creating layer lstm1_
I0218 17:13:19.200038 14778 net.cpp:94] Creating Layer lstm1_
I0218 17:13:19.200043 14778 net.cpp:391] lstm1_ <- c_8
I0218 17:13:19.200049 14778 net.cpp:349] lstm1_ -> c_T
I0218 17:13:19.200055 14778 net.cpp:123] Setting up lstm1_
I0218 17:13:19.200062 14778 net.cpp:130] Top shape: 1 16 128 (2048)
I0218 17:13:19.200067 14778 layer_factory.hpp:74] Creating layer lstm1_h_concat
I0218 17:13:19.200075 14778 net.cpp:94] Creating Layer lstm1_h_concat
I0218 17:13:19.200081 14778 net.cpp:391] lstm1_h_concat <- h_1_lstm1_unit_1_1_split_1
I0218 17:13:19.200088 14778 net.cpp:391] lstm1_h_concat <- h_2_lstm1_unit_2_1_split_1
I0218 17:13:19.200093 14778 net.cpp:391] lstm1_h_concat <- h_3_lstm1_unit_3_1_split_1
I0218 17:13:19.200098 14778 net.cpp:391] lstm1_h_concat <- h_4_lstm1_unit_4_1_split_1
I0218 17:13:19.200103 14778 net.cpp:391] lstm1_h_concat <- h_5_lstm1_unit_5_1_split_1
I0218 17:13:19.200108 14778 net.cpp:391] lstm1_h_concat <- h_6_lstm1_unit_6_1_split_1
I0218 17:13:19.200111 14778 net.cpp:391] lstm1_h_concat <- h_7_lstm1_unit_7_1_split_1
I0218 17:13:19.200115 14778 net.cpp:391] lstm1_h_concat <- h_8
I0218 17:13:19.200122 14778 net.cpp:349] lstm1_h_concat -> h
I0218 17:13:19.200129 14778 net.cpp:123] Setting up lstm1_h_concat
I0218 17:13:19.200141 14778 net.cpp:130] Top shape: 8 16 128 (16384)
I0218 17:13:19.200148 14778 net.cpp:179] lstm1_h_concat does not need backward computation.
I0218 17:13:19.200152 14778 net.cpp:179] lstm1_ does not need backward computation.
I0218 17:13:19.200156 14778 net.cpp:179] lstm1_unit_8 does not need backward computation.
I0218 17:13:19.200160 14778 net.cpp:179] lstm1_gate_input_8 does not need backward computation.
I0218 17:13:19.200165 14778 net.cpp:179] lstm1_transform_8 does not need backward computation.
…
I0218 17:13:19.200371 14778 net.cpp:215] This network produces output c_T
I0218 17:13:19.200376 14778 net.cpp:215] This network produces output h
I0218 17:13:19.200414 14778 net.cpp:456] Collecting Learning Rate and Weight Decay.
I0218 17:13:19.200428 14778 net.cpp:228] Network initialization done.
I0218 17:13:19.200434 14778 net.cpp:229] Memory required for data: 1435136
I0218 17:13:19.200521 14778 recurrent_layer.cpp:135] Adding parameter 0: W_xc
I0218 17:13:19.200530 14778 recurrent_layer.cpp:135] Adding parameter 1: b_c
I0218 17:13:19.200533 14778 recurrent_layer.cpp:135] Adding parameter 2: W_hc
I0218 17:13:19.200567 14778 net.cpp:130] Top shape: 8 16 128 (16384)
I0218 17:13:19.200578 14778 layer_factory.hpp:74] Creating layer lstm1-drop
I0218 17:13:19.200585 14778 net.cpp:94] Creating Layer lstm1-drop
I0218 17:13:19.200590 14778 net.cpp:391] lstm1-drop <- lstm1
I0218 17:13:19.200597 14778 net.cpp:338] lstm1-drop -> lstm1 (in-place)
I0218 17:13:19.200603 14778 net.cpp:123] Setting up lstm1-drop
I0218 17:13:19.200610 14778 net.cpp:130] Top shape: 8 16 128 (16384)
I0218 17:13:19.200614 14778 layer_factory.hpp:74] Creating layer concat
I0218 17:13:19.200620 14778 net.cpp:94] Creating Layer concat
I0218 17:13:19.200625 14778 net.cpp:391] concat <- reshape-fc6
I0218 17:13:19.200630 14778 net.cpp:391] concat <- lstm1
I0218 17:13:19.200635 14778 net.cpp:349] concat -> concat-data
I0218 17:13:19.200642 14778 net.cpp:123] Setting up concat
I0218 17:13:19.200649 14778 net.cpp:130] Top shape: 8 16 4224 (540672)
I0218 17:13:19.200654 14778 layer_factory.hpp:74] Creating layer lstm2
I0218 17:13:19.200662 14778 net.cpp:94] Creating Layer lstm2
I0218 17:13:19.200680 14778 net.cpp:391] lstm2 <- concat-data
I0218 17:13:19.200686 14778 net.cpp:391] lstm2 <- reshape-marker_reshape-marker_0_split_1
I0218 17:13:19.200693 14778 net.cpp:349] lstm2 -> lstm2
I0218 17:13:19.200700 14778 net.cpp:123] Setting up lstm2
I0218 17:13:19.200706 14778 recurrent_layer.cpp:27] Initializing recurrent layer: assuming input batch contains 8 timesteps of 16 independent streams.
I0218 17:13:19.201001 14778 net.cpp:52] Initializing net from parameters: 
input: "x"
input: "cont"
input: "c_0"
input: "h_0"
force_backward: true
input_shape {
  dim: 8
  dim: 16
  dim: 4224
}
input_shape {
  dim: 1
  dim: 8
  dim: 16
}
input_shape {
  dim: 1
  dim: 16
  dim: 2048
}
input_shape {
  dim: 1
  dim: 16
  dim: 2048
}
layer {
  name: "lstm2_cont_slice"
  type: "Slice"
  bottom: "cont"
  top: "cont_1"
  top: "cont_2"
  top: "cont_3"
  top: "cont_4"
  top: "cont_5"
  top: "cont_6"
  top: "cont_7"
  top: "cont_8"
  slice_param {
    axis: 1
  }
}
layer {
  name: "lstm2_x_transform"
  type: "InnerProduct"
  bottom: "x"
  top: "W_xc_x"
  param {
    name: "W_xc"
  }
  param {
    name: "b_c"
  }
  inner_product_param {
    num_output: 8192
    bias_term: true
    weight_filler {
      type: "uniform"
      min: -0.01
      max: 0.01
    }
    bias_filler {
      type: "constant"
      value: 0
    }
    axis: 2
  }
}
layer {
  name: "lstm2_W_xc_x_slice"
  type: "Slice"
  bottom: "W_xc_x"
  top: "W_xc_x_1"
  top: "W_xc_x_2"
  top: "W_xc_x_3"
  top: "W_xc_x_4"
  top: "W_xc_x_5"
  top: "W_xc_x_6"
  top: "W_xc_x_7"
  top: "W_xc_x_8"
  slice_param {
    axis: 0
  }
}
layer {
  name: "lstm2_h_conted_0"
  type: "Eltwise"
  bottom: "h_0"
  bottom: "cont_1"
  top: "h_conted_0"
  eltwise_param {
    operation: SUM
    coeff_blob: true
  }
}
layer {
  name: "lstm2_transform_1"
  type: "InnerProduct"
  bottom: "h_conted_0"
  top: "W_hc_h_0"
  param {
    name: "W_hc"
  }
  inner_product_param {
    num_output: 8192
    bias_term: false
    weight_filler {
      type: "uniform"
      min: -0.01
      max: 0.01
    }
    axis: 2
  }
}
layer {
  name: "lstm2_gate_input_1"
  type: "Eltwise"
  bottom: "W_hc_h_0"
  bottom: "W_xc_x_1"
  top: "gate_input_1"
  eltwise_param {
    operation: SUM
  }
}
layer {
  name: "lstm2_unit_1"
  type: "LSTMUnit"
  bottom: "c_0"
  bottom: "gate_input_1"
  bottom: "cont_1"
  top: "c_1"
  top: "h_1"
}
layer {
  name: "lstm2_h_conted_1"
  type: "Eltwise"
  bottom: "h_1"
  bottom: "cont_2"
  top: "h_conted_1"
  eltwise_param {
    operation: SUM
    coeff_blob: true
  }
}
layer {
  name: "lstm2_transform_2"
  type: "InnerProduct"
  bottom: "h_conted_1"
  top: "W_hc_h_1"
  param {
    name: "W_hc"
  }
  inner_product_param {
    num_output: 8192
    bias_term: false
    weight_filler {
      type: "uniform"
      min: -0.01
      max: 0.01
    }
    axis: 2
  }
}
layer {
  name: "lstm2_gate_input_2"
  type: "Eltwise"
  bottom: "W_hc_h_1"
  bottom: "W_xc_x_2"
  top: "gate_input_2"
  eltwise_param {
    operation: SUM
  }
}
layer {
  name: "lstm2_unit_2"
  type: "LSTMUnit"
  bottom: "c_1"
  bottom: "gate_input_2"
  bottom: "cont_2"
  top: "c_2"
  top: "h_2"
}
layer {
  name: "lstm2_h_conted_2"
  type: "Eltwise"
  bottom: "h_2"
  bottom: "cont_3"
  top: "h_conted_2"
  eltwise_param {
    operation: SUM
    coeff_blob: true
  }
}
layer {
  name: "lstm2_transform_3"
  type: "InnerProduct"
  bottom: "h_conted_2"
  top: "W_hc_h_2"
  param {
    name: "W_hc"
  }
  inner_product_param {
    num_output: 8192
    bias_term: false
    weight_filler {
      type: "uniform"
      min: -0.01
      max: 0.01
    }
    axis: 2
  }
}
layer {
  name: "lstm2_gate_input_3"
  type: "Eltwise"
  bottom: "W_hc_h_2"
  bottom: "W_xc_x_3"
  top: "gate_input_3"
  eltwise_param {
    operation: SUM
  }
}
layer {
  name: "lstm2_unit_3"
  type: "LSTMUnit"
  bottom: "c_2"
  bottom: "gate_input_3"
  bottom: "cont_3"
  top: "c_3"
  top: "h_3"
}
layer {
  name: "lstm2_h_conted_3"
  type: "Eltwise"
  bottom: "h_3"
  bottom: "cont_4"
  top: "h_conted_3"
  eltwise_param {
    operation: SUM
    coeff_blob: true
  }
}
layer {
  name: "lstm2_transform_4"
  type: "InnerProduct"
  bottom: "h_conted_3"
  top: "W_hc_h_3"
  param {
    name: "W_hc"
  }
  inner_product_param {
    num_output: 8192
    bias_term: false
    weight_filler {
      type: "uniform"
      min: -0.01
      max: 0.01
    }
    axis: 2
  }
}
layer {
  name: "lstm2_gate_input_4"
  type: "Eltwise"
  bottom: "W_hc_h_3"
  bottom: "W_xc_x_4"
  top: "gate_input_4"
  eltwise_param {
    operation: SUM
  }
}
layer {
  name: "lstm2_unit_4"
  type: "LSTMUnit"
  bottom: "c_3"
  bottom: "gate_input_4"
  bottom: "cont_4"
  top: "c_4"
  top: "h_4"
}
layer {
  name: "lstm2_h_conted_4"
  type: "Eltwise"
  bottom: "h_4"
  bottom: "cont_5"
  top: "h_conted_4"
  eltwise_param {
    operation: SUM
    coeff_blob: true
  }
}
layer {
  name: "lstm2_transform_5"
  type: "InnerProduct"
  bottom: "h_conted_4"
  top: "W_hc_h_4"
  param {
    name: "W_hc"
  }
  inner_product_param {
    num_output: 8192
    bias_term: false
    weight_filler {
      type: "uniform"
      min: -0.01
      max: 0.01
    }
    axis: 2
  }
}
layer {
  name: "lstm2_gate_input_5"
  type: "Eltwise"
  bottom: "W_hc_h_4"
  bottom: "W_xc_x_5"
  top: "gate_input_5"
  eltwise_param {
    operation: SUM
  }
}
layer {
  name: "lstm2_unit_5"
  type: "LSTMUnit"
  bottom: "c_4"
  bottom: "gate_input_5"
  bottom: "cont_5"
  top: "c_5"
  top: "h_5"
}
layer {
  name: "lstm2_h_conted_5"
  type: "Eltwise"
  bottom: "h_5"
  bottom: "cont_6"
  top: "h_conted_5"
  eltwise_param {
    operation: SUM
    coeff_blob: true
  }
}
layer {
  name: "lstm2_transform_6"
  type: "InnerProduct"
  bottom: "h_conted_5"
  top: "W_hc_h_5"
  param {
    name: "W_hc"
  }
  inner_product_param {
    num_output: 8192
    bias_term: false
    weight_filler {
      type: "uniform"
      min: -0.01
      max: 0.01
    }
    axis: 2
  }
}
layer {
  name: "lstm2_gate_input_6"
  type: "Eltwise"
  bottom: "W_hc_h_5"
  bottom: "W_xc_x_6"
  top: "gate_input_6"
  eltwise_param {
    operation: SUM
  }
}
layer {
  name: "lstm2_unit_6"
  type: "LSTMUnit"
  bottom: "c_5"
  bottom: "gate_input_6"
  bottom: "cont_6"
  top: "c_6"
  top: "h_6"
}
layer {
  name: "lstm2_h_conted_6"
  type: "Eltwise"
  bottom: "h_6"
  bottom: "cont_7"
  top: "h_conted_6"
  eltwise_param {
    operation: SUM
    coeff_blob: true
  }
}
layer {
  name: "lstm2_transform_7"
  type: "InnerProduct"
  bottom: "h_conted_6"
  top: "W_hc_h_6"
  param {
    name: "W_hc"
  }
  inner_product_param {
    num_output: 8192
    bias_term: false
    weight_filler {
      type: "uniform"
      min: -0.01
      max: 0.01
    }
    axis: 2
  }
}
layer {
  name: "lstm2_gate_input_7"
  type: "Eltwise"
  bottom: "W_hc_h_6"
  bottom: "W_xc_x_7"
  top: "gate_input_7"
  eltwise_param {
    operation: SUM
  }
}
layer {
  name: "lstm2_unit_7"
  type: "LSTMUnit"
  bottom: "c_6"
  bottom: "gate_input_7"
  bottom: "cont_7"
  top: "c_7"
  top: "h_7"
}
layer {
  name: "lstm2_h_conted_7"
  type: "Eltwise"
  bottom: "h_7"
  bottom: "cont_8"
  top: "h_conted_7"
  eltwise_param {
    operation: SUM
    coeff_blob: true
  }
}
layer {
  name: "lstm2_transform_8"
  type: "InnerProduct"
  bottom: "h_conted_7"
  top: "W_hc_h_7"
  param {
    name: "W_hc"
  }
  inner_product_param {
    num_output: 8192
    bias_term: false
    weight_filler {
      type: "uniform"
      min: -0.01
      max: 0.01
    }
    axis: 2
  }
}
layer {
  name: "lstm2_gate_input_8"
  type: "Eltwise"
  bottom: "W_hc_h_7"
  bottom: "W_xc_x_8"
  top: "gate_input_8"
  eltwise_param {
    operation: SUM
  }
}
layer {
  name: "lstm2_unit_8"
  type: "LSTMUnit"
  bottom: "c_7"
  bottom: "gate_input_8"
  bottom: "cont_8"
  top: "c_8"
  top: "h_8"
}
layer {
  name: "lstm2_"
  type: "Split"
  bottom: "c_8"
  top: "c_T"
}
layer {
  name: "lstm2_h_concat"
  type: "Concat"
  bottom: "h_1"
  bottom: "h_2"
  bottom: "h_3"
  bottom: "h_4"
  bottom: "h_5"
  bottom: "h_6"
  bottom: "h_7"
  bottom: "h_8"
  top: "h"
  concat_param {
    axis: 0
  }
}
I0218 17:13:19.201237 14778 net.cpp:351] Input 0 -> x
I0218 17:13:19.201247 14778 net.cpp:351] Input 1 -> cont
I0218 17:13:19.201254 14778 net.cpp:351] Input 2 -> c_0
I0218 17:13:19.201279 14778 net.cpp:351] Input 3 -> h_0
I0218 17:13:19.201292 14778 layer_factory.hpp:74] Creating layer lstm2_cont_slice
I0218 17:13:19.201298 14778 net.cpp:94] Creating Layer lstm2_cont_slice
I0218 17:13:19.201303 14778 net.cpp:391] lstm2_cont_slice <- cont
I0218 17:13:19.201309 14778 net.cpp:349] lstm2_cont_slice -> cont_1
I0218 17:13:19.201318 14778 net.cpp:349] lstm2_cont_slice -> cont_2
I0218 17:13:19.201325 14778 net.cpp:349] lstm2_cont_slice -> cont_3
I0218 17:13:19.201333 14778 net.cpp:349] lstm2_cont_slice -> cont_4
I0218 17:13:19.201339 14778 net.cpp:349] lstm2_cont_slice -> cont_5
I0218 17:13:19.201347 14778 net.cpp:349] lstm2_cont_slice -> cont_6
I0218 17:13:19.201354 14778 net.cpp:349] lstm2_cont_slice -> cont_7
I0218 17:13:19.201360 14778 net.cpp:349] lstm2_cont_slice -> cont_8
I0218 17:13:19.201366 14778 net.cpp:123] Setting up lstm2_cont_slice
I0218 17:13:19.201375 14778 net.cpp:130] Top shape: 1 1 16 (16)
I0218 17:13:19.201380 14778 net.cpp:130] Top shape: 1 1 16 (16)
I0218 17:13:19.201385 14778 net.cpp:130] Top shape: 1 1 16 (16)
I0218 17:13:19.201390 14778 net.cpp:130] Top shape: 1 1 16 (16)
I0218 17:13:19.201395 14778 net.cpp:130] Top shape: 1 1 16 (16)
I0218 17:13:19.201400 14778 net.cpp:130] Top shape: 1 1 16 (16)
I0218 17:13:19.201406 14778 net.cpp:130] Top shape: 1 1 16 (16)
I0218 17:13:19.201411 14778 net.cpp:130] Top shape: 1 1 16 (16)
I0218 17:13:19.201416 14778 layer_factory.hpp:74] Creating layer cont_1_lstm2_cont_slice_0_split
I0218 17:13:19.201421 14778 net.cpp:94] Creating Layer cont_1_lstm2_cont_slice_0_split
I0218 17:13:19.201426 14778 net.cpp:391] cont_1_lstm2_cont_slice_0_split <- cont_1
I0218 17:13:19.201432 14778 net.cpp:349] cont_1_lstm2_cont_slice_0_split -> cont_1_lstm2_cont_slice_0_split_0
I0218 17:13:19.201439 14778 net.cpp:349] cont_1_lstm2_cont_slice_0_split -> cont_1_lstm2_cont_slice_0_split_1
I0218 17:13:19.201444 14778 net.cpp:123] Setting up cont_1_lstm2_cont_slice_0_split
I0218 17:13:19.201452 14778 net.cpp:130] Top shape: 1 1 16 (16)
I0218 17:13:19.201457 14778 net.cpp:130] Top shape: 1 1 16 (16)
I0218 17:13:19.201460 14778 layer_factory.hpp:74] Creating layer cont_2_lstm2_cont_slice_1_split
I0218 17:13:19.201467 14778 net.cpp:94] Creating Layer cont_2_lstm2_cont_slice_1_split
I0218 17:13:19.201470 14778 net.cpp:391] cont_2_lstm2_cont_slice_1_split <- cont_2
I0218 17:13:19.201477 14778 net.cpp:349] cont_2_lstm2_cont_slice_1_split -> cont_2_lstm2_cont_slice_1_split_0
I0218 17:13:19.201483 14778 net.cpp:349] cont_2_lstm2_cont_slice_1_split -> cont_2_lstm2_cont_slice_1_split_1
I0218 17:13:19.201488 14778 net.cpp:123] Setting up cont_2_lstm2_cont_slice_1_split
I0218 17:13:19.201494 14778 net.cpp:130] Top shape: 1 1 16 (16)
I0218 17:13:19.201499 14778 net.cpp:130] Top shape: 1 1 16 (16)
I0218 17:13:19.201504 14778 layer_factory.hpp:74] Creating layer cont_3_lstm2_cont_slice_2_split
I0218 17:13:19.201508 14778 net.cpp:94] Creating Layer cont_3_lstm2_cont_slice_2_split
I0218 17:13:19.201514 14778 net.cpp:391] cont_3_lstm2_cont_slice_2_split <- cont_3
I0218 17:13:19.201519 14778 net.cpp:349] cont_3_lstm2_cont_slice_2_split -> cont_3_lstm2_cont_slice_2_split_0
I0218 17:13:19.201527 14778 net.cpp:349] cont_3_lstm2_cont_slice_2_split -> cont_3_lstm2_cont_slice_2_split_1
I0218 17:13:19.201534 14778 net.cpp:123] Setting up cont_3_lstm2_cont_slice_2_split
I0218 17:13:19.201540 14778 net.cpp:130] Top shape: 1 1 16 (16)
I0218 17:13:19.201545 14778 net.cpp:130] Top shape: 1 1 16 (16)
I0218 17:13:19.201550 14778 layer_factory.hpp:74] Creating layer cont_4_lstm2_cont_slice_3_split
I0218 17:13:19.201555 14778 net.cpp:94] Creating Layer cont_4_lstm2_cont_slice_3_split
I0218 17:13:19.201560 14778 net.cpp:391] cont_4_lstm2_cont_slice_3_split <- cont_4
I0218 17:13:19.201566 14778 net.cpp:349] cont_4_lstm2_cont_slice_3_split -> cont_4_lstm2_cont_slice_3_split_0
I0218 17:13:19.201573 14778 net.cpp:349] cont_4_lstm2_cont_slice_3_split -> cont_4_lstm2_cont_slice_3_split_1
I0218 17:13:19.201580 14778 net.cpp:123] Setting up cont_4_lstm2_cont_slice_3_split
I0218 17:13:19.201596 14778 net.cpp:130] Top shape: 1 1 16 (16)
I0218 17:13:19.201601 14778 net.cpp:130] Top shape: 1 1 16 (16)
I0218 17:13:19.201606 14778 layer_factory.hpp:74] Creating layer cont_5_lstm2_cont_slice_4_split
I0218 17:13:19.201611 14778 net.cpp:94] Creating Layer cont_5_lstm2_cont_slice_4_split
I0218 17:13:19.201617 14778 net.cpp:391] cont_5_lstm2_cont_slice_4_split <- cont_5
I0218 17:13:19.201623 14778 net.cpp:349] cont_5_lstm2_cont_slice_4_split -> cont_5_lstm2_cont_slice_4_split_0
I0218 17:13:19.201630 14778 net.cpp:349] cont_5_lstm2_cont_slice_4_split -> cont_5_lstm2_cont_slice_4_split_1
I0218 17:13:19.201637 14778 net.cpp:123] Setting up cont_5_lstm2_cont_slice_4_split
I0218 17:13:19.201643 14778 net.cpp:130] Top shape: 1 1 16 (16)
I0218 17:13:19.201649 14778 net.cpp:130] Top shape: 1 1 16 (16)
I0218 17:13:19.201653 14778 layer_factory.hpp:74] Creating layer cont_6_lstm2_cont_slice_5_split
I0218 17:13:19.201659 14778 net.cpp:94] Creating Layer cont_6_lstm2_cont_slice_5_split
I0218 17:13:19.201663 14778 net.cpp:391] cont_6_lstm2_cont_slice_5_split <- cont_6
I0218 17:13:19.201669 14778 net.cpp:349] cont_6_lstm2_cont_slice_5_split -> cont_6_lstm2_cont_slice_5_split_0
I0218 17:13:19.201675 14778 net.cpp:349] cont_6_lstm2_cont_slice_5_split -> cont_6_lstm2_cont_slice_5_split_1
I0218 17:13:19.201681 14778 net.cpp:123] Setting up cont_6_lstm2_cont_slice_5_split
I0218 17:13:19.201689 14778 net.cpp:130] Top shape: 1 1 16 (16)
I0218 17:13:19.201694 14778 net.cpp:130] Top shape: 1 1 16 (16)
I0218 17:13:19.201697 14778 layer_factory.hpp:74] Creating layer cont_7_lstm2_cont_slice_6_split
I0218 17:13:19.201704 14778 net.cpp:94] Creating Layer cont_7_lstm2_cont_slice_6_split
I0218 17:13:19.201709 14778 net.cpp:391] cont_7_lstm2_cont_slice_6_split <- cont_7
I0218 17:13:19.201714 14778 net.cpp:349] cont_7_lstm2_cont_slice_6_split -> cont_7_lstm2_cont_slice_6_split_0
I0218 17:13:19.201721 14778 net.cpp:349] cont_7_lstm2_cont_slice_6_split -> cont_7_lstm2_cont_slice_6_split_1
I0218 17:13:19.201727 14778 net.cpp:123] Setting up cont_7_lstm2_cont_slice_6_split
I0218 17:13:19.201735 14778 net.cpp:130] Top shape: 1 1 16 (16)
I0218 17:13:19.201740 14778 net.cpp:130] Top shape: 1 1 16 (16)
I0218 17:13:19.201743 14778 layer_factory.hpp:74] Creating layer cont_8_lstm2_cont_slice_7_split
I0218 17:13:19.201750 14778 net.cpp:94] Creating Layer cont_8_lstm2_cont_slice_7_split
I0218 17:13:19.201755 14778 net.cpp:391] cont_8_lstm2_cont_slice_7_split <- cont_8
I0218 17:13:19.201761 14778 net.cpp:349] cont_8_lstm2_cont_slice_7_split -> cont_8_lstm2_cont_slice_7_split_0
I0218 17:13:19.201768 14778 net.cpp:349] cont_8_lstm2_cont_slice_7_split -> cont_8_lstm2_cont_slice_7_split_1
I0218 17:13:19.201773 14778 net.cpp:123] Setting up cont_8_lstm2_cont_slice_7_split
I0218 17:13:19.201781 14778 net.cpp:130] Top shape: 1 1 16 (16)
I0218 17:13:19.201786 14778 net.cpp:130] Top shape: 1 1 16 (16)
I0218 17:13:19.201789 14778 layer_factory.hpp:74] Creating layer lstm2_x_transform
I0218 17:13:19.201797 14778 net.cpp:94] Creating Layer lstm2_x_transform
I0218 17:13:19.201802 14778 net.cpp:391] lstm2_x_transform <- x
I0218 17:13:19.201809 14778 net.cpp:349] lstm2_x_transform -> W_xc_x
I0218 17:13:19.201817 14778 net.cpp:123] Setting up lstm2_x_transform
I0218 17:13:19.396514 14778 net.cpp:130] Top shape: 8 16 8192 (1048576)
I0218 17:13:19.396566 14778 layer_factory.hpp:74] Creating layer lstm2_W_xc_x_slice
I0218 17:13:19.396580 14778 net.cpp:94] Creating Layer lstm2_W_xc_x_slice
I0218 17:13:19.396586 14778 net.cpp:391] lstm2_W_xc_x_slice <- W_xc_x
I0218 17:13:19.396596 14778 net.cpp:349] lstm2_W_xc_x_slice -> W_xc_x_1
I0218 17:13:19.396620 14778 net.cpp:349] lstm2_W_xc_x_slice -> W_xc_x_2
I0218 17:13:19.396628 14778 net.cpp:349] lstm2_W_xc_x_slice -> W_xc_x_3
I0218 17:13:19.396636 14778 net.cpp:349] lstm2_W_xc_x_slice -> W_xc_x_4
I0218 17:13:19.396648 14778 net.cpp:349] lstm2_W_xc_x_slice -> W_xc_x_5
I0218 17:13:19.396656 14778 net.cpp:349] lstm2_W_xc_x_slice -> W_xc_x_6
I0218 17:13:19.396662 14778 net.cpp:349] lstm2_W_xc_x_slice -> W_xc_x_7
I0218 17:13:19.396703 14778 net.cpp:349] lstm2_W_xc_x_slice -> W_xc_x_8
I0218 17:13:19.396710 14778 net.cpp:123] Setting up lstm2_W_xc_x_slice
I0218 17:13:19.396721 14778 net.cpp:130] Top shape: 1 16 8192 (131072)
I0218 17:13:19.396726 14778 net.cpp:130] Top shape: 1 16 8192 (131072)
I0218 17:13:19.396731 14778 net.cpp:130] Top shape: 1 16 8192 (131072)
I0218 17:13:19.396736 14778 net.cpp:130] Top shape: 1 16 8192 (131072)
I0218 17:13:19.396741 14778 net.cpp:130] Top shape: 1 16 8192 (131072)
I0218 17:13:19.396745 14778 net.cpp:130] Top shape: 1 16 8192 (131072)
I0218 17:13:19.396750 14778 net.cpp:130] Top shape: 1 16 8192 (131072)
I0218 17:13:19.396755 14778 net.cpp:130] Top shape: 1 16 8192 (131072)
I0218 17:13:19.396760 14778 layer_factory.hpp:74] Creating layer lstm2_h_conted_0
I0218 17:13:19.396770 14778 net.cpp:94] Creating Layer lstm2_h_conted_0
I0218 17:13:19.396775 14778 net.cpp:391] lstm2_h_conted_0 <- h_0
I0218 17:13:19.396780 14778 net.cpp:391] lstm2_h_conted_0 <- cont_1_lstm2_cont_slice_0_split_0
I0218 17:13:19.396788 14778 net.cpp:349] lstm2_h_conted_0 -> h_conted_0
I0218 17:13:19.396797 14778 net.cpp:123] Setting up lstm2_h_conted_0
I0218 17:13:19.396809 14778 net.cpp:130] Top shape: 1 16 2048 (32768)
I0218 17:13:19.396821 14778 layer_factory.hpp:74] Creating layer lstm2_transform_1
I0218 17:13:19.396831 14778 net.cpp:94] Creating Layer lstm2_transform_1
I0218 17:13:19.396837 14778 net.cpp:391] lstm2_transform_1 <- h_conted_0
I0218 17:13:19.396844 14778 net.cpp:349] lstm2_transform_1 -> W_hc_h_0
I0218 17:13:19.396852 14778 net.cpp:123] Setting up lstm2_transform_1
I0218 17:13:19.489537 14778 net.cpp:130] Top shape: 1 16 8192 (131072)
I0218 17:13:19.489590 14778 layer_factory.hpp:74] Creating layer lstm2_gate_input_1
I0218 17:13:19.489604 14778 net.cpp:94] Creating Layer lstm2_gate_input_1
I0218 17:13:19.489610 14778 net.cpp:391] lstm2_gate_input_1 <- W_hc_h_0
I0218 17:13:19.489617 14778 net.cpp:391] lstm2_gate_input_1 <- W_xc_x_1
I0218 17:13:19.489625 14778 net.cpp:349] lstm2_gate_input_1 -> gate_input_1
I0218 17:13:19.489646 14778 net.cpp:123] Setting up lstm2_gate_input_1
I0218 17:13:19.489655 14778 net.cpp:130] Top shape: 1 16 8192 (131072)
I0218 17:13:19.489661 14778 layer_factory.hpp:74] Creating layer lstm2_unit_1
I0218 17:13:19.489670 14778 net.cpp:94] Creating Layer lstm2_unit_1
I0218 17:13:19.489675 14778 net.cpp:391] lstm2_unit_1 <- c_0
I0218 17:13:19.489681 14778 net.cpp:391] lstm2_unit_1 <- gate_input_1
I0218 17:13:19.489686 14778 net.cpp:391] lstm2_unit_1 <- cont_1_lstm2_cont_slice_0_split_1
I0218 17:13:19.489693 14778 net.cpp:349] lstm2_unit_1 -> c_1
I0218 17:13:19.489701 14778 net.cpp:349] lstm2_unit_1 -> h_1
I0218 17:13:19.489707 14778 net.cpp:123] Setting up lstm2_unit_1
I0218 17:13:19.489716 14778 net.cpp:130] Top shape: 1 16 2048 (32768)
I0218 17:13:19.489722 14778 net.cpp:130] Top shape: 1 16 2048 (32768)
I0218 17:13:19.489727 14778 layer_factory.hpp:74] Creating layer h_1_lstm2_unit_1_1_split
I0218 17:13:19.489733 14778 net.cpp:94] Creating Layer h_1_lstm2_unit_1_1_split
I0218 17:13:19.489768 14778 net.cpp:391] h_1_lstm2_unit_1_1_split <- h_1
I0218 17:13:19.489773 14778 net.cpp:349] h_1_lstm2_unit_1_1_split -> h_1_lstm2_unit_1_1_split_0
I0218 17:13:19.489781 14778 net.cpp:349] h_1_lstm2_unit_1_1_split -> h_1_lstm2_unit_1_1_split_1
I0218 17:13:19.489787 14778 net.cpp:123] Setting up h_1_lstm2_unit_1_1_split
I0218 17:13:19.489799 14778 net.cpp:130] Top shape: 1 16 2048 (32768)
I0218 17:13:19.489807 14778 net.cpp:130] Top shape: 1 16 2048 (32768)
I0218 17:13:19.489811 14778 layer_factory.hpp:74] Creating layer lstm2_h_conted_1
I0218 17:13:19.489820 14778 net.cpp:94] Creating Layer lstm2_h_conted_1
I0218 17:13:19.489826 14778 net.cpp:391] lstm2_h_conted_1 <- h_1_lstm2_unit_1_1_split_0
I0218 17:13:19.489832 14778 net.cpp:391] lstm2_h_conted_1 <- cont_2_lstm2_cont_slice_1_split_0
I0218 17:13:19.489838 14778 net.cpp:349] lstm2_h_conted_1 -> h_conted_1
I0218 17:13:19.489848 14778 net.cpp:123] Setting up lstm2_h_conted_1
I0218 17:13:19.489856 14778 net.cpp:130] Top shape: 1 16 2048 (32768)
I0218 17:13:19.489862 14778 layer_factory.hpp:74] Creating layer lstm2_transform_2
I0218 17:13:19.489903 14778 net.cpp:94] Creating Layer lstm2_transform_2
I0218 17:13:19.489908 14778 net.cpp:391] lstm2_transform_2 <- h_conted_1
I0218 17:13:19.489917 14778 net.cpp:349] lstm2_transform_2 -> W_hc_h_1
I0218 17:13:19.489924 14778 net.cpp:123] Setting up lstm2_transform_2
I0218 17:13:19.583654 14778 net.cpp:130] Top shape: 1 16 8192 (131072)
I0218 17:13:19.583703 14778 net.cpp:435] Sharing parameters 'W_hc' owned by layer 'lstm2_transform_1', param index 0
I0218 17:13:19.583710 14778 layer_factory.hpp:74] Creating layer lstm2_gate_input_2
I0218 17:13:19.583724 14778 net.cpp:94] Creating Layer lstm2_gate_input_2
I0218 17:13:19.583729 14778 net.cpp:391] lstm2_gate_input_2 <- W_hc_h_1
I0218 17:13:19.583737 14778 net.cpp:391] lstm2_gate_input_2 <- W_xc_x_2
I0218 17:13:19.583745 14778 net.cpp:349] lstm2_gate_input_2 -> gate_input_2
I0218 17:13:19.583770 14778 net.cpp:123] Setting up lstm2_gate_input_2
I0218 17:13:19.583778 14778 net.cpp:130] Top shape: 1 16 8192 (131072)
I0218 17:13:19.583782 14778 layer_factory.hpp:74] Creating layer lstm2_unit_2
I0218 17:13:19.583789 14778 net.cpp:94] Creating Layer lstm2_unit_2
I0218 17:13:19.583796 14778 net.cpp:391] lstm2_unit_2 <- c_1
I0218 17:13:19.583801 14778 net.cpp:391] lstm2_unit_2 <- gate_input_2
I0218 17:13:19.583806 14778 net.cpp:391] lstm2_unit_2 <- cont_2_lstm2_cont_slice_1_split_1
I0218 17:13:19.583812 14778 net.cpp:349] lstm2_unit_2 -> c_2
I0218 17:13:19.583819 14778 net.cpp:349] lstm2_unit_2 -> h_2
I0218 17:13:19.583825 14778 net.cpp:123] Setting up lstm2_unit_2
I0218 17:13:19.583833 14778 net.cpp:130] Top shape: 1 16 2048 (32768)
I0218 17:13:19.583838 14778 net.cpp:130] Top shape: 1 16 2048 (32768)
I0218 17:13:19.583843 14778 layer_factory.hpp:74] Creating layer h_2_lstm2_unit_2_1_split
I0218 17:13:19.583852 14778 net.cpp:94] Creating Layer h_2_lstm2_unit_2_1_split
I0218 17:13:19.583856 14778 net.cpp:391] h_2_lstm2_unit_2_1_split <- h_2
I0218 17:13:19.583863 14778 net.cpp:349] h_2_lstm2_unit_2_1_split -> h_2_lstm2_unit_2_1_split_0
I0218 17:13:19.583868 14778 net.cpp:349] h_2_lstm2_unit_2_1_split -> h_2_lstm2_unit_2_1_split_1
I0218 17:13:19.583875 14778 net.cpp:123] Setting up h_2_lstm2_unit_2_1_split
I0218 17:13:19.583881 14778 net.cpp:130] Top shape: 1 16 2048 (32768)
I0218 17:13:19.583887 14778 net.cpp:130] Top shape: 1 16 2048 (32768)
I0218 17:13:19.583891 14778 layer_factory.hpp:74] Creating layer lstm2_h_conted_2
I0218 17:13:19.583897 14778 net.cpp:94] Creating Layer lstm2_h_conted_2
I0218 17:13:19.583902 14778 net.cpp:391] lstm2_h_conted_2 <- h_2_lstm2_unit_2_1_split_0
I0218 17:13:19.583909 14778 net.cpp:391] lstm2_h_conted_2 <- cont_3_lstm2_cont_slice_2_split_0
I0218 17:13:19.583915 14778 net.cpp:349] lstm2_h_conted_2 -> h_conted_2
I0218 17:13:19.583921 14778 net.cpp:123] Setting up lstm2_h_conted_2
I0218 17:13:19.583928 14778 net.cpp:130] Top shape: 1 16 2048 (32768)
I0218 17:13:19.583932 14778 layer_factory.hpp:74] Creating layer lstm2_transform_3
I0218 17:13:19.583941 14778 net.cpp:94] Creating Layer lstm2_transform_3
I0218 17:13:19.583950 14778 net.cpp:391] lstm2_transform_3 <- h_conted_2
I0218 17:13:19.583956 14778 net.cpp:349] lstm2_transform_3 -> W_hc_h_2
I0218 17:13:19.583964 14778 net.cpp:123] Setting up lstm2_transform_3
I0218 17:13:19.678215 14778 net.cpp:130] Top shape: 1 16 8192 (131072)
I0218 17:13:19.678717 14778 net.cpp:435] Sharing parameters 'W_hc' owned by layer 'lstm2_transform_1', param index 0
I0218 17:13:19.678726 14778 layer_factory.hpp:74] Creating layer lstm2_gate_input_3
I0218 17:13:19.678738 14778 net.cpp:94] Creating Layer lstm2_gate_input_3
I0218 17:13:19.678745 14778 net.cpp:391] lstm2_gate_input_3 <- W_hc_h_2
I0218 17:13:19.678766 14778 net.cpp:391] lstm2_gate_input_3 <- W_xc_x_3
I0218 17:13:19.678773 14778 net.cpp:349] lstm2_gate_input_3 -> gate_input_3
I0218 17:13:19.678783 14778 net.cpp:123] Setting up lstm2_gate_input_3
I0218 17:13:19.678791 14778 net.cpp:130] Top shape: 1 16 8192 (131072)
I0218 17:13:19.678797 14778 layer_factory.hpp:74] Creating layer lstm2_unit_3
I0218 17:13:19.678850 14778 net.cpp:94] Creating Layer lstm2_unit_3
I0218 17:13:19.678858 14778 net.cpp:391] lstm2_unit_3 <- c_2
I0218 17:13:19.678864 14778 net.cpp:391] lstm2_unit_3 <- gate_input_3
I0218 17:13:19.678869 14778 net.cpp:391] lstm2_unit_3 <- cont_3_lstm2_cont_slice_2_split_1
I0218 17:13:19.678875 14778 net.cpp:349] lstm2_unit_3 -> c_3
I0218 17:13:19.678884 14778 net.cpp:349] lstm2_unit_3 -> h_3
I0218 17:13:19.678889 14778 net.cpp:123] Setting up lstm2_unit_3
I0218 17:13:19.678897 14778 net.cpp:130] Top shape: 1 16 2048 (32768)
I0218 17:13:19.678902 14778 net.cpp:130] Top shape: 1 16 2048 (32768)
I0218 17:13:19.678907 14778 layer_factory.hpp:74] Creating layer h_3_lstm2_unit_3_1_split
I0218 17:13:19.678913 14778 net.cpp:94] Creating Layer h_3_lstm2_unit_3_1_split
I0218 17:13:19.678917 14778 net.cpp:391] h_3_lstm2_unit_3_1_split <- h_3
I0218 17:13:19.678925 14778 net.cpp:349] h_3_lstm2_unit_3_1_split -> h_3_lstm2_unit_3_1_split_0
I0218 17:13:19.678931 14778 net.cpp:349] h_3_lstm2_unit_3_1_split -> h_3_lstm2_unit_3_1_split_1
I0218 17:13:19.678937 14778 net.cpp:123] Setting up h_3_lstm2_unit_3_1_split
I0218 17:13:19.678944 14778 net.cpp:130] Top shape: 1 16 2048 (32768)
I0218 17:13:19.678949 14778 net.cpp:130] Top shape: 1 16 2048 (32768)
I0218 17:13:19.678953 14778 layer_factory.hpp:74] Creating layer lstm2_h_conted_3
I0218 17:13:19.678961 14778 net.cpp:94] Creating Layer lstm2_h_conted_3
I0218 17:13:19.678964 14778 net.cpp:391] lstm2_h_conted_3 <- h_3_lstm2_unit_3_1_split_0
I0218 17:13:19.678971 14778 net.cpp:391] lstm2_h_conted_3 <- cont_4_lstm2_cont_slice_3_split_0
I0218 17:13:19.678977 14778 net.cpp:349] lstm2_h_conted_3 -> h_conted_3
I0218 17:13:19.678997 14778 net.cpp:123] Setting up lstm2_h_conted_3
I0218 17:13:19.679003 14778 net.cpp:130] Top shape: 1 16 2048 (32768)
I0218 17:13:19.679008 14778 layer_factory.hpp:74] Creating layer lstm2_transform_4
I0218 17:13:19.679018 14778 net.cpp:94] Creating Layer lstm2_transform_4
I0218 17:13:19.679028 14778 net.cpp:391] lstm2_transform_4 <- h_conted_3
I0218 17:13:19.679035 14778 net.cpp:349] lstm2_transform_4 -> W_hc_h_3
I0218 17:13:19.679044 14778 net.cpp:123] Setting up lstm2_transform_4
I0218 17:13:19.773902 14778 net.cpp:130] Top shape: 1 16 8192 (131072)
I0218 17:13:19.773947 14778 net.cpp:435] Sharing parameters 'W_hc' owned by layer 'lstm2_transform_1', param index 0
I0218 17:13:19.773955 14778 layer_factory.hpp:74] Creating layer lstm2_gate_input_4
I0218 17:13:19.773969 14778 net.cpp:94] Creating Layer lstm2_gate_input_4
I0218 17:13:19.773977 14778 net.cpp:391] lstm2_gate_input_4 <- W_hc_h_3
I0218 17:13:19.773985 14778 net.cpp:391] lstm2_gate_input_4 <- W_xc_x_4
I0218 17:13:19.774005 14778 net.cpp:349] lstm2_gate_input_4 -> gate_input_4
I0218 17:13:19.774018 14778 net.cpp:123] Setting up lstm2_gate_input_4
I0218 17:13:19.774026 14778 net.cpp:130] Top shape: 1 16 8192 (131072)
I0218 17:13:19.774030 14778 layer_factory.hpp:74] Creating layer lstm2_unit_4
I0218 17:13:19.774037 14778 net.cpp:94] Creating Layer lstm2_unit_4
I0218 17:13:19.774042 14778 net.cpp:391] lstm2_unit_4 <- c_3
I0218 17:13:19.774047 14778 net.cpp:391] lstm2_unit_4 <- gate_input_4
I0218 17:13:19.774054 14778 net.cpp:391] lstm2_unit_4 <- cont_4_lstm2_cont_slice_3_split_1
I0218 17:13:19.774060 14778 net.cpp:349] lstm2_unit_4 -> c_4
I0218 17:13:19.774067 14778 net.cpp:349] lstm2_unit_4 -> h_4
I0218 17:13:19.774075 14778 net.cpp:123] Setting up lstm2_unit_4
I0218 17:13:19.774090 14778 net.cpp:130] Top shape: 1 16 2048 (32768)
I0218 17:13:19.774097 14778 net.cpp:130] Top shape: 1 16 2048 (32768)
I0218 17:13:19.774101 14778 layer_factory.hpp:74] Creating layer h_4_lstm2_unit_4_1_split
I0218 17:13:19.774109 14778 net.cpp:94] Creating Layer h_4_lstm2_unit_4_1_split
I0218 17:13:19.774113 14778 net.cpp:391] h_4_lstm2_unit_4_1_split <- h_4
I0218 17:13:19.774119 14778 net.cpp:349] h_4_lstm2_unit_4_1_split -> h_4_lstm2_unit_4_1_split_0
I0218 17:13:19.774127 14778 net.cpp:349] h_4_lstm2_unit_4_1_split -> h_4_lstm2_unit_4_1_split_1
I0218 17:13:19.774140 14778 net.cpp:123] Setting up h_4_lstm2_unit_4_1_split
I0218 17:13:19.774173 14778 net.cpp:130] Top shape: 1 16 2048 (32768)
I0218 17:13:19.774178 14778 net.cpp:130] Top shape: 1 16 2048 (32768)
I0218 17:13:19.774183 14778 layer_factory.hpp:74] Creating layer lstm2_h_conted_4
I0218 17:13:19.774189 14778 net.cpp:94] Creating Layer lstm2_h_conted_4
I0218 17:13:19.774206 14778 net.cpp:391] lstm2_h_conted_4 <- h_4_lstm2_unit_4_1_split_0
I0218 17:13:19.774212 14778 net.cpp:391] lstm2_h_conted_4 <- cont_5_lstm2_cont_slice_4_split_0
I0218 17:13:19.774219 14778 net.cpp:349] lstm2_h_conted_4 -> h_conted_4
I0218 17:13:19.774224 14778 net.cpp:123] Setting up lstm2_h_conted_4
I0218 17:13:19.774231 14778 net.cpp:130] Top shape: 1 16 2048 (32768)
I0218 17:13:19.774235 14778 layer_factory.hpp:74] Creating layer lstm2_transform_5
I0218 17:13:19.774250 14778 net.cpp:94] Creating Layer lstm2_transform_5
I0218 17:13:19.774255 14778 net.cpp:391] lstm2_transform_5 <- h_conted_4
I0218 17:13:19.774278 14778 net.cpp:349] lstm2_transform_5 -> W_hc_h_4
I0218 17:13:19.774286 14778 net.cpp:123] Setting up lstm2_transform_5
I0218 17:13:19.867132 14778 net.cpp:130] Top shape: 1 16 8192 (131072)
I0218 17:13:19.867178 14778 net.cpp:435] Sharing parameters 'W_hc' owned by layer 'lstm2_transform_1', param index 0
I0218 17:13:19.867187 14778 layer_factory.hpp:74] Creating layer lstm2_gate_input_5
I0218 17:13:19.867198 14778 net.cpp:94] Creating Layer lstm2_gate_input_5
I0218 17:13:19.867204 14778 net.cpp:391] lstm2_gate_input_5 <- W_hc_h_4
I0218 17:13:19.867213 14778 net.cpp:391] lstm2_gate_input_5 <- W_xc_x_5
I0218 17:13:19.867220 14778 net.cpp:349] lstm2_gate_input_5 -> gate_input_5
I0218 17:13:19.867243 14778 net.cpp:123] Setting up lstm2_gate_input_5
I0218 17:13:19.867252 14778 net.cpp:130] Top shape: 1 16 8192 (131072)
I0218 17:13:19.867256 14778 layer_factory.hpp:74] Creating layer lstm2_unit_5
I0218 17:13:19.867274 14778 net.cpp:94] Creating Layer lstm2_unit_5
I0218 17:13:19.867280 14778 net.cpp:391] lstm2_unit_5 <- c_4
I0218 17:13:19.867285 14778 net.cpp:391] lstm2_unit_5 <- gate_input_5
I0218 17:13:19.867290 14778 net.cpp:391] lstm2_unit_5 <- cont_5_lstm2_cont_slice_4_split_1
I0218 17:13:19.867297 14778 net.cpp:349] lstm2_unit_5 -> c_5
I0218 17:13:19.867305 14778 net.cpp:349] lstm2_unit_5 -> h_5
I0218 17:13:19.867311 14778 net.cpp:123] Setting up lstm2_unit_5
I0218 17:13:19.867319 14778 net.cpp:130] Top shape: 1 16 2048 (32768)
I0218 17:13:19.867324 14778 net.cpp:130] Top shape: 1 16 2048 (32768)
I0218 17:13:19.867329 14778 layer_factory.hpp:74] Creating layer h_5_lstm2_unit_5_1_split
I0218 17:13:19.867336 14778 net.cpp:94] Creating Layer h_5_lstm2_unit_5_1_split
I0218 17:13:19.867341 14778 net.cpp:391] h_5_lstm2_unit_5_1_split <- h_5
I0218 17:13:19.867347 14778 net.cpp:349] h_5_lstm2_unit_5_1_split -> h_5_lstm2_unit_5_1_split_0
I0218 17:13:19.867353 14778 net.cpp:349] h_5_lstm2_unit_5_1_split -> h_5_lstm2_unit_5_1_split_1
I0218 17:13:19.867360 14778 net.cpp:123] Setting up h_5_lstm2_unit_5_1_split
I0218 17:13:19.867367 14778 net.cpp:130] Top shape: 1 16 2048 (32768)
I0218 17:13:19.867372 14778 net.cpp:130] Top shape: 1 16 2048 (32768)
I0218 17:13:19.867377 14778 layer_factory.hpp:74] Creating layer lstm2_h_conted_5
I0218 17:13:19.867383 14778 net.cpp:94] Creating Layer lstm2_h_conted_5
I0218 17:13:19.867388 14778 net.cpp:391] lstm2_h_conted_5 <- h_5_lstm2_unit_5_1_split_0
I0218 17:13:19.867393 14778 net.cpp:391] lstm2_h_conted_5 <- cont_6_lstm2_cont_slice_5_split_0
I0218 17:13:19.867399 14778 net.cpp:349] lstm2_h_conted_5 -> h_conted_5
I0218 17:13:19.867405 14778 net.cpp:123] Setting up lstm2_h_conted_5
I0218 17:13:19.867411 14778 net.cpp:130] Top shape: 1 16 2048 (32768)
I0218 17:13:19.867416 14778 layer_factory.hpp:74] Creating layer lstm2_transform_6
I0218 17:13:19.867425 14778 net.cpp:94] Creating Layer lstm2_transform_6
I0218 17:13:19.867434 14778 net.cpp:391] lstm2_transform_6 <- h_conted_5
I0218 17:13:19.867441 14778 net.cpp:349] lstm2_transform_6 -> W_hc_h_5
I0218 17:13:19.867451 14778 net.cpp:123] Setting up lstm2_transform_6
I0218 17:13:19.960297 14778 net.cpp:130] Top shape: 1 16 8192 (131072)
I0218 17:13:19.960381 14778 net.cpp:435] Sharing parameters 'W_hc' owned by layer 'lstm2_transform_1', param index 0
I0218 17:13:19.960391 14778 layer_factory.hpp:74] Creating layer lstm2_gate_input_6
I0218 17:13:19.960403 14778 net.cpp:94] Creating Layer lstm2_gate_input_6
I0218 17:13:19.960409 14778 net.cpp:391] lstm2_gate_input_6 <- W_hc_h_5
I0218 17:13:19.960417 14778 net.cpp:391] lstm2_gate_input_6 <- W_xc_x_6
I0218 17:13:19.960424 14778 net.cpp:349] lstm2_gate_input_6 -> gate_input_6
I0218 17:13:19.960448 14778 net.cpp:123] Setting up lstm2_gate_input_6
I0218 17:13:19.960458 14778 net.cpp:130] Top shape: 1 16 8192 (131072)
I0218 17:13:19.960461 14778 layer_factory.hpp:74] Creating layer lstm2_unit_6
I0218 17:13:19.960469 14778 net.cpp:94] Creating Layer lstm2_unit_6
I0218 17:13:19.960474 14778 net.cpp:391] lstm2_unit_6 <- c_5
I0218 17:13:19.960479 14778 net.cpp:391] lstm2_unit_6 <- gate_input_6
I0218 17:13:19.960485 14778 net.cpp:391] lstm2_unit_6 <- cont_6_lstm2_cont_slice_5_split_1
I0218 17:13:19.960491 14778 net.cpp:349] lstm2_unit_6 -> c_6
I0218 17:13:19.960500 14778 net.cpp:349] lstm2_unit_6 -> h_6
I0218 17:13:19.960506 14778 net.cpp:123] Setting up lstm2_unit_6
I0218 17:13:19.960513 14778 net.cpp:130] Top shape: 1 16 2048 (32768)
I0218 17:13:19.960518 14778 net.cpp:130] Top shape: 1 16 2048 (32768)
I0218 17:13:19.960523 14778 layer_factory.hpp:74] Creating layer h_6_lstm2_unit_6_1_split
I0218 17:13:19.960530 14778 net.cpp:94] Creating Layer h_6_lstm2_unit_6_1_split
I0218 17:13:19.960535 14778 net.cpp:391] h_6_lstm2_unit_6_1_split <- h_6
I0218 17:13:19.960541 14778 net.cpp:349] h_6_lstm2_unit_6_1_split -> h_6_lstm2_unit_6_1_split_0
I0218 17:13:19.960547 14778 net.cpp:349] h_6_lstm2_unit_6_1_split -> h_6_lstm2_unit_6_1_split_1
I0218 17:13:19.960553 14778 net.cpp:123] Setting up h_6_lstm2_unit_6_1_split
I0218 17:13:19.960561 14778 net.cpp:130] Top shape: 1 16 2048 (32768)
I0218 17:13:19.960566 14778 net.cpp:130] Top shape: 1 16 2048 (32768)
I0218 17:13:19.960569 14778 layer_factory.hpp:74] Creating layer lstm2_h_conted_6
I0218 17:13:19.960577 14778 net.cpp:94] Creating Layer lstm2_h_conted_6
I0218 17:13:19.960580 14778 net.cpp:391] lstm2_h_conted_6 <- h_6_lstm2_unit_6_1_split_0
I0218 17:13:19.960585 14778 net.cpp:391] lstm2_h_conted_6 <- cont_7_lstm2_cont_slice_6_split_0
I0218 17:13:19.960592 14778 net.cpp:349] lstm2_h_conted_6 -> h_conted_6
I0218 17:13:19.960609 14778 net.cpp:123] Setting up lstm2_h_conted_6
I0218 17:13:19.960615 14778 net.cpp:130] Top shape: 1 16 2048 (32768)
I0218 17:13:19.960623 14778 layer_factory.hpp:74] Creating layer lstm2_transform_7
I0218 17:13:19.960633 14778 net.cpp:94] Creating Layer lstm2_transform_7
I0218 17:13:19.960638 14778 net.cpp:391] lstm2_transform_7 <- h_conted_6
I0218 17:13:19.960645 14778 net.cpp:349] lstm2_transform_7 -> W_hc_h_6
I0218 17:13:19.960652 14778 net.cpp:123] Setting up lstm2_transform_7
I0218 17:13:20.053344 14778 net.cpp:130] Top shape: 1 16 8192 (131072)
I0218 17:13:20.053395 14778 net.cpp:435] Sharing parameters 'W_hc' owned by layer 'lstm2_transform_1', param index 0
I0218 17:13:20.053402 14778 layer_factory.hpp:74] Creating layer lstm2_gate_input_7
I0218 17:13:20.053416 14778 net.cpp:94] Creating Layer lstm2_gate_input_7
I0218 17:13:20.053422 14778 net.cpp:391] lstm2_gate_input_7 <- W_hc_h_6
I0218 17:13:20.053429 14778 net.cpp:391] lstm2_gate_input_7 <- W_xc_x_7
I0218 17:13:20.053436 14778 net.cpp:349] lstm2_gate_input_7 -> gate_input_7
I0218 17:13:20.053460 14778 net.cpp:123] Setting up lstm2_gate_input_7
I0218 17:13:20.053469 14778 net.cpp:130] Top shape: 1 16 8192 (131072)
I0218 17:13:20.053474 14778 layer_factory.hpp:74] Creating layer lstm2_unit_7
I0218 17:13:20.053481 14778 net.cpp:94] Creating Layer lstm2_unit_7
I0218 17:13:20.053486 14778 net.cpp:391] lstm2_unit_7 <- c_6
I0218 17:13:20.053491 14778 net.cpp:391] lstm2_unit_7 <- gate_input_7
I0218 17:13:20.053498 14778 net.cpp:391] lstm2_unit_7 <- cont_7_lstm2_cont_slice_6_split_1
I0218 17:13:20.053504 14778 net.cpp:349] lstm2_unit_7 -> c_7
I0218 17:13:20.053511 14778 net.cpp:349] lstm2_unit_7 -> h_7
I0218 17:13:20.053555 14778 net.cpp:123] Setting up lstm2_unit_7
I0218 17:13:20.053563 14778 net.cpp:130] Top shape: 1 16 2048 (32768)
I0218 17:13:20.053571 14778 net.cpp:130] Top shape: 1 16 2048 (32768)
I0218 17:13:20.053575 14778 layer_factory.hpp:74] Creating layer h_7_lstm2_unit_7_1_split
I0218 17:13:20.053583 14778 net.cpp:94] Creating Layer h_7_lstm2_unit_7_1_split
I0218 17:13:20.053591 14778 net.cpp:391] h_7_lstm2_unit_7_1_split <- h_7
I0218 17:13:20.053597 14778 net.cpp:349] h_7_lstm2_unit_7_1_split -> h_7_lstm2_unit_7_1_split_0
I0218 17:13:20.053604 14778 net.cpp:349] h_7_lstm2_unit_7_1_split -> h_7_lstm2_unit_7_1_split_1
I0218 17:13:20.053611 14778 net.cpp:123] Setting up h_7_lstm2_unit_7_1_split
I0218 17:13:20.053618 14778 net.cpp:130] Top shape: 1 16 2048 (32768)
I0218 17:13:20.053627 14778 net.cpp:130] Top shape: 1 16 2048 (32768)
I0218 17:13:20.053632 14778 layer_factory.hpp:74] Creating layer lstm2_h_conted_7
I0218 17:13:20.053637 14778 net.cpp:94] Creating Layer lstm2_h_conted_7
I0218 17:13:20.053642 14778 net.cpp:391] lstm2_h_conted_7 <- h_7_lstm2_unit_7_1_split_0
I0218 17:13:20.053647 14778 net.cpp:391] lstm2_h_conted_7 <- cont_8_lstm2_cont_slice_7_split_0
I0218 17:13:20.053654 14778 net.cpp:349] lstm2_h_conted_7 -> h_conted_7
I0218 17:13:20.053683 14778 net.cpp:123] Setting up lstm2_h_conted_7
I0218 17:13:20.053690 14778 net.cpp:130] Top shape: 1 16 2048 (32768)
I0218 17:13:20.053695 14778 layer_factory.hpp:74] Creating layer lstm2_transform_8
I0218 17:13:20.053704 14778 net.cpp:94] Creating Layer lstm2_transform_8
I0218 17:13:20.053710 14778 net.cpp:391] lstm2_transform_8 <- h_conted_7
I0218 17:13:20.053717 14778 net.cpp:349] lstm2_transform_8 -> W_hc_h_7
I0218 17:13:20.053725 14778 net.cpp:123] Setting up lstm2_transform_8
I0218 17:13:20.146605 14778 net.cpp:130] Top shape: 1 16 8192 (131072)
I0218 17:13:20.146651 14778 net.cpp:435] Sharing parameters 'W_hc' owned by layer 'lstm2_transform_1', param index 0
I0218 17:13:20.146658 14778 layer_factory.hpp:74] Creating layer lstm2_gate_input_8
I0218 17:13:20.146670 14778 net.cpp:94] Creating Layer lstm2_gate_input_8
I0218 17:13:20.146677 14778 net.cpp:391] lstm2_gate_input_8 <- W_hc_h_7
I0218 17:13:20.146684 14778 net.cpp:391] lstm2_gate_input_8 <- W_xc_x_8
I0218 17:13:20.146692 14778 net.cpp:349] lstm2_gate_input_8 -> gate_input_8
I0218 17:13:20.146715 14778 net.cpp:123] Setting up lstm2_gate_input_8
I0218 17:13:20.146723 14778 net.cpp:130] Top shape: 1 16 8192 (131072)
I0218 17:13:20.146728 14778 layer_factory.hpp:74] Creating layer lstm2_unit_8
I0218 17:13:20.146736 14778 net.cpp:94] Creating Layer lstm2_unit_8
I0218 17:13:20.146741 14778 net.cpp:391] lstm2_unit_8 <- c_7
I0218 17:13:20.146746 14778 net.cpp:391] lstm2_unit_8 <- gate_input_8
I0218 17:13:20.146751 14778 net.cpp:391] lstm2_unit_8 <- cont_8_lstm2_cont_slice_7_split_1
I0218 17:13:20.146759 14778 net.cpp:349] lstm2_unit_8 -> c_8
I0218 17:13:20.146765 14778 net.cpp:349] lstm2_unit_8 -> h_8
I0218 17:13:20.146771 14778 net.cpp:123] Setting up lstm2_unit_8
I0218 17:13:20.146780 14778 net.cpp:130] Top shape: 1 16 2048 (32768)
I0218 17:13:20.146785 14778 net.cpp:130] Top shape: 1 16 2048 (32768)
I0218 17:13:20.146790 14778 layer_factory.hpp:74] Creating layer lstm2_
I0218 17:13:20.146796 14778 net.cpp:94] Creating Layer lstm2_
I0218 17:13:20.146800 14778 net.cpp:391] lstm2_ <- c_8
I0218 17:13:20.146806 14778 net.cpp:349] lstm2_ -> c_T
I0218 17:13:20.146812 14778 net.cpp:123] Setting up lstm2_
I0218 17:13:20.146847 14778 net.cpp:130] Top shape: 1 16 2048 (32768)
I0218 17:13:20.146852 14778 layer_factory.hpp:74] Creating layer lstm2_h_concat
I0218 17:13:20.146860 14778 net.cpp:94] Creating Layer lstm2_h_concat
I0218 17:13:20.146867 14778 net.cpp:391] lstm2_h_concat <- h_1_lstm2_unit_1_1_split_1
I0218 17:13:20.146872 14778 net.cpp:391] lstm2_h_concat <- h_2_lstm2_unit_2_1_split_1
I0218 17:13:20.146878 14778 net.cpp:391] lstm2_h_concat <- h_3_lstm2_unit_3_1_split_1
I0218 17:13:20.146883 14778 net.cpp:391] lstm2_h_concat <- h_4_lstm2_unit_4_1_split_1
I0218 17:13:20.146888 14778 net.cpp:391] lstm2_h_concat <- h_5_lstm2_unit_5_1_split_1
I0218 17:13:20.146924 14778 net.cpp:391] lstm2_h_concat <- h_6_lstm2_unit_6_1_split_1
I0218 17:13:20.146930 14778 net.cpp:391] lstm2_h_concat <- h_7_lstm2_unit_7_1_split_1
I0218 17:13:20.146935 14778 net.cpp:391] lstm2_h_concat <- h_8
I0218 17:13:20.146941 14778 net.cpp:349] lstm2_h_concat -> h
I0218 17:13:20.146949 14778 net.cpp:123] Setting up lstm2_h_concat
I0218 17:13:20.146957 14778 net.cpp:130] Top shape: 8 16 2048 (262144)
I0218 17:13:20.146962 14778 net.cpp:179] lstm2_h_concat does not need backward computation.
I0218 17:13:20.146966 14778 net.cpp:179] lstm2_ does not need backward computation.
I0218 17:13:20.146970 14778 net.cpp:179] lstm2_unit_8 does not need backward computation.
I0218 17:13:20.146975 14778 net.cpp:179] lstm2_gate_input_8 does not need backward computation.
I0218 17:13:20.146978 14778 net.cpp:179] lstm2_transform_8 does not need backward computation.
…
